<?xml version="1.0" ?>
<net name="semantic-segmentation-adas-0001" version="10">
	<layers>
		<layer id="0" name="data" type="Parameter" version="opset1">
			<data element_type="f16" shape="1,3,1024,2048"/>
			<output>
				<port id="0" precision="FP16">
					<dim>1</dim>
					<dim>3</dim>
					<dim>1024</dim>
					<dim>2048</dim>
				</port>
			</output>
		</layer>
		<layer id="1" name="data_mul_4721/copy_const372_const" type="Const" version="opset1">
			<data element_type="f16" offset="0" shape="1,3,1,1" size="6"/>
			<output>
				<port id="1" precision="FP16">
					<dim>1</dim>
					<dim>3</dim>
					<dim>1</dim>
					<dim>1</dim>
				</port>
			</output>
		</layer>
		<layer id="2" name="BatchNormBackward1_bn/mean/Fused_Mul_" type="Multiply" version="opset1">
			<input>
				<port id="0">
					<dim>1</dim>
					<dim>3</dim>
					<dim>1024</dim>
					<dim>2048</dim>
				</port>
				<port id="1">
					<dim>1</dim>
					<dim>3</dim>
					<dim>1</dim>
					<dim>1</dim>
				</port>
			</input>
			<output>
				<port id="2" precision="FP16">
					<dim>1</dim>
					<dim>3</dim>
					<dim>1024</dim>
					<dim>2048</dim>
				</port>
			</output>
		</layer>
		<layer id="3" name="data_add_4723/copy_const374_const" type="Const" version="opset1">
			<data element_type="f16" offset="6" shape="1,3,1,1" size="6"/>
			<output>
				<port id="1" precision="FP16">
					<dim>1</dim>
					<dim>3</dim>
					<dim>1</dim>
					<dim>1</dim>
				</port>
			</output>
		</layer>
		<layer id="4" name="BatchNormBackward1_bn/variance/Fused_Add_" type="Add" version="opset1">
			<input>
				<port id="0">
					<dim>1</dim>
					<dim>3</dim>
					<dim>1024</dim>
					<dim>2048</dim>
				</port>
				<port id="1">
					<dim>1</dim>
					<dim>3</dim>
					<dim>1</dim>
					<dim>1</dim>
				</port>
			</input>
			<output>
				<port id="2" precision="FP16">
					<dim>1</dim>
					<dim>3</dim>
					<dim>1024</dim>
					<dim>2048</dim>
				</port>
			</output>
		</layer>
		<layer id="5" name="23532357_const" type="Const" version="opset1">
			<data element_type="f16" offset="12" shape="" size="2"/>
			<output>
				<port id="1" precision="FP16"/>
			</output>
		</layer>
		<layer id="6" name="23542358_const" type="Const" version="opset1">
			<data element_type="f16" offset="14" shape="" size="2"/>
			<output>
				<port id="1" precision="FP16"/>
			</output>
		</layer>
		<layer id="7" name="23552359_const" type="Const" version="opset1">
			<data element_type="f16" offset="12" shape="" size="2"/>
			<output>
				<port id="1" precision="FP16"/>
			</output>
		</layer>
		<layer id="8" name="23562360_const" type="Const" version="opset1">
			<data element_type="f16" offset="14" shape="" size="2"/>
			<output>
				<port id="1" precision="FP16"/>
			</output>
		</layer>
		<layer id="9" name="AvgPool2DBackward2/fq_input_0" type="FakeQuantize" version="opset1">
			<data levels="256"/>
			<input>
				<port id="0">
					<dim>1</dim>
					<dim>3</dim>
					<dim>1024</dim>
					<dim>2048</dim>
				</port>
				<port id="1"/>
				<port id="2"/>
				<port id="3"/>
				<port id="4"/>
			</input>
			<output>
				<port id="5" precision="FP16">
					<dim>1</dim>
					<dim>3</dim>
					<dim>1024</dim>
					<dim>2048</dim>
				</port>
			</output>
		</layer>
		<layer id="10" name="AvgPool2DBackward2" type="AvgPool" version="opset1">
			<data exclude-pad="false" kernel="2,2" pads_begin="0,0" pads_end="0,0" rounding_type="ceil" strides="2,2"/>
			<input>
				<port id="0">
					<dim>1</dim>
					<dim>3</dim>
					<dim>1024</dim>
					<dim>2048</dim>
				</port>
			</input>
			<output>
				<port id="1" precision="FP16">
					<dim>1</dim>
					<dim>3</dim>
					<dim>512</dim>
					<dim>1024</dim>
				</port>
			</output>
		</layer>
		<layer id="11" name="14831487_const" type="Const" version="opset1">
			<data element_type="f16" offset="16" shape="" size="2"/>
			<output>
				<port id="1" precision="FP16"/>
			</output>
		</layer>
		<layer id="12" name="14841488_const" type="Const" version="opset1">
			<data element_type="f16" offset="18" shape="" size="2"/>
			<output>
				<port id="1" precision="FP16"/>
			</output>
		</layer>
		<layer id="13" name="14851489_const" type="Const" version="opset1">
			<data element_type="f16" offset="16" shape="" size="2"/>
			<output>
				<port id="1" precision="FP16"/>
			</output>
		</layer>
		<layer id="14" name="14861490_const" type="Const" version="opset1">
			<data element_type="f16" offset="18" shape="" size="2"/>
			<output>
				<port id="1" precision="FP16"/>
			</output>
		</layer>
		<layer id="15" name="ConvNdBackward3/WithoutBiases/fq_input_0" type="FakeQuantize" version="opset1">
			<data levels="256"/>
			<input>
				<port id="0">
					<dim>1</dim>
					<dim>3</dim>
					<dim>512</dim>
					<dim>1024</dim>
				</port>
				<port id="1"/>
				<port id="2"/>
				<port id="3"/>
				<port id="4"/>
			</input>
			<output>
				<port id="5" precision="FP16">
					<dim>1</dim>
					<dim>3</dim>
					<dim>512</dim>
					<dim>1024</dim>
				</port>
			</output>
		</layer>
		<layer id="16" name="ConvNdBackward3/WithoutBiases/fq_weights_1/Convert_to_float/Cast_06977_const" type="Const" version="opset1">
			<data element_type="u8" offset="20" shape="32,3,3,3" size="864"/>
			<output>
				<port id="1" precision="U8">
					<dim>32</dim>
					<dim>3</dim>
					<dim>3</dim>
					<dim>3</dim>
				</port>
			</output>
		</layer>
		<layer id="17" name="ConvNdBackward3/WithoutBiases/fq_weights_1/Convert_to_float" type="Convert" version="opset1">
			<data destination_type="f16"/>
			<input>
				<port id="0">
					<dim>32</dim>
					<dim>3</dim>
					<dim>3</dim>
					<dim>3</dim>
				</port>
			</input>
			<output>
				<port id="1" precision="FP16">
					<dim>32</dim>
					<dim>3</dim>
					<dim>3</dim>
					<dim>3</dim>
				</port>
			</output>
		</layer>
		<layer id="18" name="ConvNdBackward3/WithoutBiases/fq_weights_1/Copy/out_low5935_const" type="Const" version="opset1">
			<data element_type="f16" offset="884" shape="1" size="2"/>
			<output>
				<port id="1" precision="FP16">
					<dim>1</dim>
				</port>
			</output>
		</layer>
		<layer id="19" name="ConvNdBackward3/WithoutBiases/fq_weights_1/Copy/out_high5936_const" type="Const" version="opset1">
			<data element_type="f16" offset="886" shape="1" size="2"/>
			<output>
				<port id="1" precision="FP16">
					<dim>1</dim>
				</port>
			</output>
		</layer>
		<layer id="20" name="14951499_const" type="Const" version="opset1">
			<data element_type="f16" offset="888" shape="32,1,1,1" size="64"/>
			<output>
				<port id="1" precision="FP16">
					<dim>32</dim>
					<dim>1</dim>
					<dim>1</dim>
					<dim>1</dim>
				</port>
			</output>
		</layer>
		<layer id="21" name="14961500_const" type="Const" version="opset1">
			<data element_type="f16" offset="952" shape="32,1,1,1" size="64"/>
			<output>
				<port id="1" precision="FP16">
					<dim>32</dim>
					<dim>1</dim>
					<dim>1</dim>
					<dim>1</dim>
				</port>
			</output>
		</layer>
		<layer id="22" name="ConvNdBackward3/WithoutBiases/fq_weights_1" type="FakeQuantize" version="opset1">
			<data levels="255"/>
			<input>
				<port id="0">
					<dim>32</dim>
					<dim>3</dim>
					<dim>3</dim>
					<dim>3</dim>
				</port>
				<port id="1">
					<dim>1</dim>
				</port>
				<port id="2">
					<dim>1</dim>
				</port>
				<port id="3">
					<dim>32</dim>
					<dim>1</dim>
					<dim>1</dim>
					<dim>1</dim>
				</port>
				<port id="4">
					<dim>32</dim>
					<dim>1</dim>
					<dim>1</dim>
					<dim>1</dim>
				</port>
			</input>
			<output>
				<port id="5" precision="FP16">
					<dim>32</dim>
					<dim>3</dim>
					<dim>3</dim>
					<dim>3</dim>
				</port>
			</output>
		</layer>
		<layer id="23" name="ConvNdBackward3/WithoutBiases" type="Convolution" version="opset1">
			<data dilations="1,1" output_padding="0,0" pads_begin="1,1" pads_end="1,1" strides="2,2"/>
			<input>
				<port id="0">
					<dim>1</dim>
					<dim>3</dim>
					<dim>512</dim>
					<dim>1024</dim>
				</port>
				<port id="1">
					<dim>32</dim>
					<dim>3</dim>
					<dim>3</dim>
					<dim>3</dim>
				</port>
			</input>
			<output>
				<port id="2" precision="FP16">
					<dim>1</dim>
					<dim>32</dim>
					<dim>256</dim>
					<dim>512</dim>
				</port>
			</output>
		</layer>
		<layer id="24" name="ConvNdBackward3/Dims3104/copy_const379_const" type="Const" version="opset1">
			<data element_type="f16" offset="1016" shape="1,32,1,1" size="64"/>
			<output>
				<port id="1" precision="FP16">
					<dim>1</dim>
					<dim>32</dim>
					<dim>1</dim>
					<dim>1</dim>
				</port>
			</output>
		</layer>
		<layer id="25" name="ConvNdBackward3" type="Add" version="opset1">
			<input>
				<port id="0">
					<dim>1</dim>
					<dim>32</dim>
					<dim>256</dim>
					<dim>512</dim>
				</port>
				<port id="1">
					<dim>1</dim>
					<dim>32</dim>
					<dim>1</dim>
					<dim>1</dim>
				</port>
			</input>
			<output>
				<port id="2" precision="FP16">
					<dim>1</dim>
					<dim>32</dim>
					<dim>256</dim>
					<dim>512</dim>
				</port>
			</output>
		</layer>
		<layer id="26" name="ThresholdBackward5" type="ReLU" version="opset1">
			<input>
				<port id="0">
					<dim>1</dim>
					<dim>32</dim>
					<dim>256</dim>
					<dim>512</dim>
				</port>
			</input>
			<output>
				<port id="1" precision="FP16">
					<dim>1</dim>
					<dim>32</dim>
					<dim>256</dim>
					<dim>512</dim>
				</port>
			</output>
		</layer>
		<layer id="27" name="17731777_const" type="Const" version="opset1">
			<data element_type="f16" offset="884" shape="" size="2"/>
			<output>
				<port id="1" precision="FP16"/>
			</output>
		</layer>
		<layer id="28" name="17741778_const" type="Const" version="opset1">
			<data element_type="f16" offset="1080" shape="" size="2"/>
			<output>
				<port id="1" precision="FP16"/>
			</output>
		</layer>
		<layer id="29" name="17751779_const" type="Const" version="opset1">
			<data element_type="f16" offset="884" shape="" size="2"/>
			<output>
				<port id="1" precision="FP16"/>
			</output>
		</layer>
		<layer id="30" name="17761780_const" type="Const" version="opset1">
			<data element_type="f16" offset="1080" shape="" size="2"/>
			<output>
				<port id="1" precision="FP16"/>
			</output>
		</layer>
		<layer id="31" name="ConvNdBackward6/WithoutBiases/fq_input_0" type="FakeQuantize" version="opset1">
			<data levels="256"/>
			<input>
				<port id="0">
					<dim>1</dim>
					<dim>32</dim>
					<dim>256</dim>
					<dim>512</dim>
				</port>
				<port id="1"/>
				<port id="2"/>
				<port id="3"/>
				<port id="4"/>
			</input>
			<output>
				<port id="5" precision="FP16">
					<dim>1</dim>
					<dim>32</dim>
					<dim>256</dim>
					<dim>512</dim>
				</port>
			</output>
		</layer>
		<layer id="32" name="ConvNdBackward6/WithoutBiases/fq_weights_1/Convert_to_float/Cast_06987_const" type="Const" version="opset1">
			<data element_type="u8" offset="1082" shape="32,32,3,3" size="9216"/>
			<output>
				<port id="1" precision="U8">
					<dim>32</dim>
					<dim>32</dim>
					<dim>3</dim>
					<dim>3</dim>
				</port>
			</output>
		</layer>
		<layer id="33" name="ConvNdBackward6/WithoutBiases/fq_weights_1/Convert_to_float" type="Convert" version="opset1">
			<data destination_type="f16"/>
			<input>
				<port id="0">
					<dim>32</dim>
					<dim>32</dim>
					<dim>3</dim>
					<dim>3</dim>
				</port>
			</input>
			<output>
				<port id="1" precision="FP16">
					<dim>32</dim>
					<dim>32</dim>
					<dim>3</dim>
					<dim>3</dim>
				</port>
			</output>
		</layer>
		<layer id="34" name="ConvNdBackward6/WithoutBiases/fq_weights_1/Copy/out_low5631_const" type="Const" version="opset1">
			<data element_type="f16" offset="884" shape="1" size="2"/>
			<output>
				<port id="1" precision="FP16">
					<dim>1</dim>
				</port>
			</output>
		</layer>
		<layer id="35" name="ConvNdBackward6/WithoutBiases/fq_weights_1/Copy/out_high5632_const" type="Const" version="opset1">
			<data element_type="f16" offset="886" shape="1" size="2"/>
			<output>
				<port id="1" precision="FP16">
					<dim>1</dim>
				</port>
			</output>
		</layer>
		<layer id="36" name="17851789_const" type="Const" version="opset1">
			<data element_type="f16" offset="10298" shape="32,1,1,1" size="64"/>
			<output>
				<port id="1" precision="FP16">
					<dim>32</dim>
					<dim>1</dim>
					<dim>1</dim>
					<dim>1</dim>
				</port>
			</output>
		</layer>
		<layer id="37" name="17861790_const" type="Const" version="opset1">
			<data element_type="f16" offset="10362" shape="32,1,1,1" size="64"/>
			<output>
				<port id="1" precision="FP16">
					<dim>32</dim>
					<dim>1</dim>
					<dim>1</dim>
					<dim>1</dim>
				</port>
			</output>
		</layer>
		<layer id="38" name="ConvNdBackward6/WithoutBiases/fq_weights_1" type="FakeQuantize" version="opset1">
			<data levels="255"/>
			<input>
				<port id="0">
					<dim>32</dim>
					<dim>32</dim>
					<dim>3</dim>
					<dim>3</dim>
				</port>
				<port id="1">
					<dim>1</dim>
				</port>
				<port id="2">
					<dim>1</dim>
				</port>
				<port id="3">
					<dim>32</dim>
					<dim>1</dim>
					<dim>1</dim>
					<dim>1</dim>
				</port>
				<port id="4">
					<dim>32</dim>
					<dim>1</dim>
					<dim>1</dim>
					<dim>1</dim>
				</port>
			</input>
			<output>
				<port id="5" precision="FP16">
					<dim>32</dim>
					<dim>32</dim>
					<dim>3</dim>
					<dim>3</dim>
				</port>
			</output>
		</layer>
		<layer id="39" name="ConvNdBackward6/WithoutBiases" type="Convolution" version="opset1">
			<data dilations="1,1" output_padding="0,0" pads_begin="1,1" pads_end="1,1" strides="1,1"/>
			<input>
				<port id="0">
					<dim>1</dim>
					<dim>32</dim>
					<dim>256</dim>
					<dim>512</dim>
				</port>
				<port id="1">
					<dim>32</dim>
					<dim>32</dim>
					<dim>3</dim>
					<dim>3</dim>
				</port>
			</input>
			<output>
				<port id="2" precision="FP16">
					<dim>1</dim>
					<dim>32</dim>
					<dim>256</dim>
					<dim>512</dim>
				</port>
			</output>
		</layer>
		<layer id="40" name="ConvNdBackward6/Dims3212/copy_const384_const" type="Const" version="opset1">
			<data element_type="f16" offset="10426" shape="1,32,1,1" size="64"/>
			<output>
				<port id="1" precision="FP16">
					<dim>1</dim>
					<dim>32</dim>
					<dim>1</dim>
					<dim>1</dim>
				</port>
			</output>
		</layer>
		<layer id="41" name="ConvNdBackward6" type="Add" version="opset1">
			<input>
				<port id="0">
					<dim>1</dim>
					<dim>32</dim>
					<dim>256</dim>
					<dim>512</dim>
				</port>
				<port id="1">
					<dim>1</dim>
					<dim>32</dim>
					<dim>1</dim>
					<dim>1</dim>
				</port>
			</input>
			<output>
				<port id="2" precision="FP16">
					<dim>1</dim>
					<dim>32</dim>
					<dim>256</dim>
					<dim>512</dim>
				</port>
			</output>
		</layer>
		<layer id="42" name="ThresholdBackward8" type="ReLU" version="opset1">
			<input>
				<port id="0">
					<dim>1</dim>
					<dim>32</dim>
					<dim>256</dim>
					<dim>512</dim>
				</port>
			</input>
			<output>
				<port id="1" precision="FP16">
					<dim>1</dim>
					<dim>32</dim>
					<dim>256</dim>
					<dim>512</dim>
				</port>
			</output>
		</layer>
		<layer id="43" name="22032207_const" type="Const" version="opset1">
			<data element_type="f16" offset="884" shape="" size="2"/>
			<output>
				<port id="1" precision="FP16"/>
			</output>
		</layer>
		<layer id="44" name="22042208_const" type="Const" version="opset1">
			<data element_type="f16" offset="10490" shape="" size="2"/>
			<output>
				<port id="1" precision="FP16"/>
			</output>
		</layer>
		<layer id="45" name="22052209_const" type="Const" version="opset1">
			<data element_type="f16" offset="884" shape="" size="2"/>
			<output>
				<port id="1" precision="FP16"/>
			</output>
		</layer>
		<layer id="46" name="22062210_const" type="Const" version="opset1">
			<data element_type="f16" offset="10490" shape="" size="2"/>
			<output>
				<port id="1" precision="FP16"/>
			</output>
		</layer>
		<layer id="47" name="ConvNdBackward9/WithoutBiases/fq_input_0" type="FakeQuantize" version="opset1">
			<data levels="256"/>
			<input>
				<port id="0">
					<dim>1</dim>
					<dim>32</dim>
					<dim>256</dim>
					<dim>512</dim>
				</port>
				<port id="1"/>
				<port id="2"/>
				<port id="3"/>
				<port id="4"/>
			</input>
			<output>
				<port id="5" precision="FP16">
					<dim>1</dim>
					<dim>32</dim>
					<dim>256</dim>
					<dim>512</dim>
				</port>
			</output>
		</layer>
		<layer id="48" name="ConvNdBackward9/WithoutBiases/fq_weights_1/Convert_to_float/Cast_06923_const" type="Const" version="opset1">
			<data element_type="u8" offset="10492" shape="64,32,3,3" size="18432"/>
			<output>
				<port id="1" precision="U8">
					<dim>64</dim>
					<dim>32</dim>
					<dim>3</dim>
					<dim>3</dim>
				</port>
			</output>
		</layer>
		<layer id="49" name="ConvNdBackward9/WithoutBiases/fq_weights_1/Convert_to_float" type="Convert" version="opset1">
			<data destination_type="f16"/>
			<input>
				<port id="0">
					<dim>64</dim>
					<dim>32</dim>
					<dim>3</dim>
					<dim>3</dim>
				</port>
			</input>
			<output>
				<port id="1" precision="FP16">
					<dim>64</dim>
					<dim>32</dim>
					<dim>3</dim>
					<dim>3</dim>
				</port>
			</output>
		</layer>
		<layer id="50" name="ConvNdBackward9/WithoutBiases/fq_weights_1/Copy/out_low5839_const" type="Const" version="opset1">
			<data element_type="f16" offset="884" shape="1" size="2"/>
			<output>
				<port id="1" precision="FP16">
					<dim>1</dim>
				</port>
			</output>
		</layer>
		<layer id="51" name="ConvNdBackward9/WithoutBiases/fq_weights_1/Copy/out_high5840_const" type="Const" version="opset1">
			<data element_type="f16" offset="886" shape="1" size="2"/>
			<output>
				<port id="1" precision="FP16">
					<dim>1</dim>
				</port>
			</output>
		</layer>
		<layer id="52" name="22152219_const" type="Const" version="opset1">
			<data element_type="f16" offset="28924" shape="64,1,1,1" size="128"/>
			<output>
				<port id="1" precision="FP16">
					<dim>64</dim>
					<dim>1</dim>
					<dim>1</dim>
					<dim>1</dim>
				</port>
			</output>
		</layer>
		<layer id="53" name="22162220_const" type="Const" version="opset1">
			<data element_type="f16" offset="29052" shape="64,1,1,1" size="128"/>
			<output>
				<port id="1" precision="FP16">
					<dim>64</dim>
					<dim>1</dim>
					<dim>1</dim>
					<dim>1</dim>
				</port>
			</output>
		</layer>
		<layer id="54" name="ConvNdBackward9/WithoutBiases/fq_weights_1" type="FakeQuantize" version="opset1">
			<data levels="255"/>
			<input>
				<port id="0">
					<dim>64</dim>
					<dim>32</dim>
					<dim>3</dim>
					<dim>3</dim>
				</port>
				<port id="1">
					<dim>1</dim>
				</port>
				<port id="2">
					<dim>1</dim>
				</port>
				<port id="3">
					<dim>64</dim>
					<dim>1</dim>
					<dim>1</dim>
					<dim>1</dim>
				</port>
				<port id="4">
					<dim>64</dim>
					<dim>1</dim>
					<dim>1</dim>
					<dim>1</dim>
				</port>
			</input>
			<output>
				<port id="5" precision="FP16">
					<dim>64</dim>
					<dim>32</dim>
					<dim>3</dim>
					<dim>3</dim>
				</port>
			</output>
		</layer>
		<layer id="55" name="ConvNdBackward9/WithoutBiases" type="Convolution" version="opset1">
			<data dilations="1,1" output_padding="0,0" pads_begin="1,1" pads_end="1,1" strides="1,1"/>
			<input>
				<port id="0">
					<dim>1</dim>
					<dim>32</dim>
					<dim>256</dim>
					<dim>512</dim>
				</port>
				<port id="1">
					<dim>64</dim>
					<dim>32</dim>
					<dim>3</dim>
					<dim>3</dim>
				</port>
			</input>
			<output>
				<port id="2" precision="FP16">
					<dim>1</dim>
					<dim>64</dim>
					<dim>256</dim>
					<dim>512</dim>
				</port>
			</output>
		</layer>
		<layer id="56" name="ConvNdBackward9/Dims3206/copy_const389_const" type="Const" version="opset1">
			<data element_type="f16" offset="29180" shape="1,64,1,1" size="128"/>
			<output>
				<port id="1" precision="FP16">
					<dim>1</dim>
					<dim>64</dim>
					<dim>1</dim>
					<dim>1</dim>
				</port>
			</output>
		</layer>
		<layer id="57" name="ConvNdBackward9" type="Add" version="opset1">
			<input>
				<port id="0">
					<dim>1</dim>
					<dim>64</dim>
					<dim>256</dim>
					<dim>512</dim>
				</port>
				<port id="1">
					<dim>1</dim>
					<dim>64</dim>
					<dim>1</dim>
					<dim>1</dim>
				</port>
			</input>
			<output>
				<port id="2" precision="FP16">
					<dim>1</dim>
					<dim>64</dim>
					<dim>256</dim>
					<dim>512</dim>
				</port>
			</output>
		</layer>
		<layer id="58" name="ThresholdBackward11" type="ReLU" version="opset1">
			<input>
				<port id="0">
					<dim>1</dim>
					<dim>64</dim>
					<dim>256</dim>
					<dim>512</dim>
				</port>
			</input>
			<output>
				<port id="1" precision="FP16">
					<dim>1</dim>
					<dim>64</dim>
					<dim>256</dim>
					<dim>512</dim>
				</port>
			</output>
		</layer>
		<layer id="59" name="39173921_const" type="Const" version="opset1">
			<data element_type="f16" offset="884" shape="" size="2"/>
			<output>
				<port id="1" precision="FP16"/>
			</output>
		</layer>
		<layer id="60" name="39183922_const" type="Const" version="opset1">
			<data element_type="f16" offset="29308" shape="" size="2"/>
			<output>
				<port id="1" precision="FP16"/>
			</output>
		</layer>
		<layer id="61" name="39193923_const" type="Const" version="opset1">
			<data element_type="f16" offset="884" shape="" size="2"/>
			<output>
				<port id="1" precision="FP16"/>
			</output>
		</layer>
		<layer id="62" name="39203924_const" type="Const" version="opset1">
			<data element_type="f16" offset="29308" shape="" size="2"/>
			<output>
				<port id="1" precision="FP16"/>
			</output>
		</layer>
		<layer id="63" name="MaxPool2DBackward12/fq_input_0" type="FakeQuantize" version="opset1">
			<data levels="256"/>
			<input>
				<port id="0">
					<dim>1</dim>
					<dim>64</dim>
					<dim>256</dim>
					<dim>512</dim>
				</port>
				<port id="1"/>
				<port id="2"/>
				<port id="3"/>
				<port id="4"/>
			</input>
			<output>
				<port id="5" precision="FP16">
					<dim>1</dim>
					<dim>64</dim>
					<dim>256</dim>
					<dim>512</dim>
				</port>
			</output>
		</layer>
		<layer id="64" name="MaxPool2DBackward12" type="MaxPool" version="opset1">
			<data kernel="3,3" pads_begin="0,0" pads_end="0,0" rounding_type="ceil" strides="2,2"/>
			<input>
				<port id="0">
					<dim>1</dim>
					<dim>64</dim>
					<dim>256</dim>
					<dim>512</dim>
				</port>
			</input>
			<output>
				<port id="1" precision="FP16">
					<dim>1</dim>
					<dim>64</dim>
					<dim>128</dim>
					<dim>256</dim>
				</port>
			</output>
		</layer>
		<layer id="65" name="ConvNdBackward13/WithoutBiases/fq_weights_1/Convert_to_float/Cast_07001_const" type="Const" version="opset1">
			<data element_type="u8" offset="29310" shape="32,64,1,1" size="2048"/>
			<output>
				<port id="1" precision="U8">
					<dim>32</dim>
					<dim>64</dim>
					<dim>1</dim>
					<dim>1</dim>
				</port>
			</output>
		</layer>
		<layer id="66" name="ConvNdBackward13/WithoutBiases/fq_weights_1/Convert_to_float" type="Convert" version="opset1">
			<data destination_type="f16"/>
			<input>
				<port id="0">
					<dim>32</dim>
					<dim>64</dim>
					<dim>1</dim>
					<dim>1</dim>
				</port>
			</input>
			<output>
				<port id="1" precision="FP16">
					<dim>32</dim>
					<dim>64</dim>
					<dim>1</dim>
					<dim>1</dim>
				</port>
			</output>
		</layer>
		<layer id="67" name="ConvNdBackward13/WithoutBiases/fq_weights_1/Copy/out_low5695_const" type="Const" version="opset1">
			<data element_type="f16" offset="884" shape="1" size="2"/>
			<output>
				<port id="1" precision="FP16">
					<dim>1</dim>
				</port>
			</output>
		</layer>
		<layer id="68" name="ConvNdBackward13/WithoutBiases/fq_weights_1/Copy/out_high5696_const" type="Const" version="opset1">
			<data element_type="f16" offset="886" shape="1" size="2"/>
			<output>
				<port id="1" precision="FP16">
					<dim>1</dim>
				</port>
			</output>
		</layer>
		<layer id="69" name="30153019_const" type="Const" version="opset1">
			<data element_type="f16" offset="31358" shape="32,1,1,1" size="64"/>
			<output>
				<port id="1" precision="FP16">
					<dim>32</dim>
					<dim>1</dim>
					<dim>1</dim>
					<dim>1</dim>
				</port>
			</output>
		</layer>
		<layer id="70" name="30163020_const" type="Const" version="opset1">
			<data element_type="f16" offset="31422" shape="32,1,1,1" size="64"/>
			<output>
				<port id="1" precision="FP16">
					<dim>32</dim>
					<dim>1</dim>
					<dim>1</dim>
					<dim>1</dim>
				</port>
			</output>
		</layer>
		<layer id="71" name="ConvNdBackward13/WithoutBiases/fq_weights_1" type="FakeQuantize" version="opset1">
			<data levels="255"/>
			<input>
				<port id="0">
					<dim>32</dim>
					<dim>64</dim>
					<dim>1</dim>
					<dim>1</dim>
				</port>
				<port id="1">
					<dim>1</dim>
				</port>
				<port id="2">
					<dim>1</dim>
				</port>
				<port id="3">
					<dim>32</dim>
					<dim>1</dim>
					<dim>1</dim>
					<dim>1</dim>
				</port>
				<port id="4">
					<dim>32</dim>
					<dim>1</dim>
					<dim>1</dim>
					<dim>1</dim>
				</port>
			</input>
			<output>
				<port id="5" precision="FP16">
					<dim>32</dim>
					<dim>64</dim>
					<dim>1</dim>
					<dim>1</dim>
				</port>
			</output>
		</layer>
		<layer id="72" name="ConvNdBackward13/WithoutBiases" type="Convolution" version="opset1">
			<data dilations="1,1" output_padding="0,0" pads_begin="0,0" pads_end="0,0" strides="1,1"/>
			<input>
				<port id="0">
					<dim>1</dim>
					<dim>64</dim>
					<dim>128</dim>
					<dim>256</dim>
				</port>
				<port id="1">
					<dim>32</dim>
					<dim>64</dim>
					<dim>1</dim>
					<dim>1</dim>
				</port>
			</input>
			<output>
				<port id="2" precision="FP16">
					<dim>1</dim>
					<dim>32</dim>
					<dim>128</dim>
					<dim>256</dim>
				</port>
			</output>
		</layer>
		<layer id="73" name="ConvNdBackward13/Dims3014/copy_const395_const" type="Const" version="opset1">
			<data element_type="f16" offset="31486" shape="1,32,1,1" size="64"/>
			<output>
				<port id="1" precision="FP16">
					<dim>1</dim>
					<dim>32</dim>
					<dim>1</dim>
					<dim>1</dim>
				</port>
			</output>
		</layer>
		<layer id="74" name="ConvNdBackward13" type="Add" version="opset1">
			<input>
				<port id="0">
					<dim>1</dim>
					<dim>32</dim>
					<dim>128</dim>
					<dim>256</dim>
				</port>
				<port id="1">
					<dim>1</dim>
					<dim>32</dim>
					<dim>1</dim>
					<dim>1</dim>
				</port>
			</input>
			<output>
				<port id="2" precision="FP16">
					<dim>1</dim>
					<dim>32</dim>
					<dim>128</dim>
					<dim>256</dim>
				</port>
			</output>
		</layer>
		<layer id="75" name="ThresholdBackward15" type="ReLU" version="opset1">
			<input>
				<port id="0">
					<dim>1</dim>
					<dim>32</dim>
					<dim>128</dim>
					<dim>256</dim>
				</port>
			</input>
			<output>
				<port id="1" precision="FP16">
					<dim>1</dim>
					<dim>32</dim>
					<dim>128</dim>
					<dim>256</dim>
				</port>
			</output>
		</layer>
		<layer id="76" name="27632767_const" type="Const" version="opset1">
			<data element_type="f16" offset="884" shape="" size="2"/>
			<output>
				<port id="1" precision="FP16"/>
			</output>
		</layer>
		<layer id="77" name="27642768_const" type="Const" version="opset1">
			<data element_type="f16" offset="31550" shape="" size="2"/>
			<output>
				<port id="1" precision="FP16"/>
			</output>
		</layer>
		<layer id="78" name="27652769_const" type="Const" version="opset1">
			<data element_type="f16" offset="884" shape="" size="2"/>
			<output>
				<port id="1" precision="FP16"/>
			</output>
		</layer>
		<layer id="79" name="27662770_const" type="Const" version="opset1">
			<data element_type="f16" offset="31550" shape="" size="2"/>
			<output>
				<port id="1" precision="FP16"/>
			</output>
		</layer>
		<layer id="80" name="ConvNdBackward16/WithoutBiases/fq_input_0" type="FakeQuantize" version="opset1">
			<data levels="256"/>
			<input>
				<port id="0">
					<dim>1</dim>
					<dim>32</dim>
					<dim>128</dim>
					<dim>256</dim>
				</port>
				<port id="1"/>
				<port id="2"/>
				<port id="3"/>
				<port id="4"/>
			</input>
			<output>
				<port id="5" precision="FP16">
					<dim>1</dim>
					<dim>32</dim>
					<dim>128</dim>
					<dim>256</dim>
				</port>
			</output>
		</layer>
		<layer id="81" name="ConvNdBackward16/WithoutBiases/fq_weights_1/Convert_to_float/Cast_07007_const" type="Const" version="opset1">
			<data element_type="u8" offset="31552" shape="32,32,3,3" size="9216"/>
			<output>
				<port id="1" precision="U8">
					<dim>32</dim>
					<dim>32</dim>
					<dim>3</dim>
					<dim>3</dim>
				</port>
			</output>
		</layer>
		<layer id="82" name="ConvNdBackward16/WithoutBiases/fq_weights_1/Convert_to_float" type="Convert" version="opset1">
			<data destination_type="f16"/>
			<input>
				<port id="0">
					<dim>32</dim>
					<dim>32</dim>
					<dim>3</dim>
					<dim>3</dim>
				</port>
			</input>
			<output>
				<port id="1" precision="FP16">
					<dim>32</dim>
					<dim>32</dim>
					<dim>3</dim>
					<dim>3</dim>
				</port>
			</output>
		</layer>
		<layer id="83" name="ConvNdBackward16/WithoutBiases/fq_weights_1/Copy/out_low5639_const" type="Const" version="opset1">
			<data element_type="f16" offset="884" shape="1" size="2"/>
			<output>
				<port id="1" precision="FP16">
					<dim>1</dim>
				</port>
			</output>
		</layer>
		<layer id="84" name="ConvNdBackward16/WithoutBiases/fq_weights_1/Copy/out_high5640_const" type="Const" version="opset1">
			<data element_type="f16" offset="886" shape="1" size="2"/>
			<output>
				<port id="1" precision="FP16">
					<dim>1</dim>
				</port>
			</output>
		</layer>
		<layer id="85" name="27752779_const" type="Const" version="opset1">
			<data element_type="f16" offset="40768" shape="32,1,1,1" size="64"/>
			<output>
				<port id="1" precision="FP16">
					<dim>32</dim>
					<dim>1</dim>
					<dim>1</dim>
					<dim>1</dim>
				</port>
			</output>
		</layer>
		<layer id="86" name="27762780_const" type="Const" version="opset1">
			<data element_type="f16" offset="40832" shape="32,1,1,1" size="64"/>
			<output>
				<port id="1" precision="FP16">
					<dim>32</dim>
					<dim>1</dim>
					<dim>1</dim>
					<dim>1</dim>
				</port>
			</output>
		</layer>
		<layer id="87" name="ConvNdBackward16/WithoutBiases/fq_weights_1" type="FakeQuantize" version="opset1">
			<data levels="255"/>
			<input>
				<port id="0">
					<dim>32</dim>
					<dim>32</dim>
					<dim>3</dim>
					<dim>3</dim>
				</port>
				<port id="1">
					<dim>1</dim>
				</port>
				<port id="2">
					<dim>1</dim>
				</port>
				<port id="3">
					<dim>32</dim>
					<dim>1</dim>
					<dim>1</dim>
					<dim>1</dim>
				</port>
				<port id="4">
					<dim>32</dim>
					<dim>1</dim>
					<dim>1</dim>
					<dim>1</dim>
				</port>
			</input>
			<output>
				<port id="5" precision="FP16">
					<dim>32</dim>
					<dim>32</dim>
					<dim>3</dim>
					<dim>3</dim>
				</port>
			</output>
		</layer>
		<layer id="88" name="ConvNdBackward16/WithoutBiases" type="Convolution" version="opset1">
			<data dilations="1,1" output_padding="0,0" pads_begin="1,1" pads_end="1,1" strides="1,1"/>
			<input>
				<port id="0">
					<dim>1</dim>
					<dim>32</dim>
					<dim>128</dim>
					<dim>256</dim>
				</port>
				<port id="1">
					<dim>32</dim>
					<dim>32</dim>
					<dim>3</dim>
					<dim>3</dim>
				</port>
			</input>
			<output>
				<port id="2" precision="FP16">
					<dim>1</dim>
					<dim>32</dim>
					<dim>128</dim>
					<dim>256</dim>
				</port>
			</output>
		</layer>
		<layer id="89" name="ConvNdBackward16/Dims3194/copy_const400_const" type="Const" version="opset1">
			<data element_type="f16" offset="40896" shape="1,32,1,1" size="64"/>
			<output>
				<port id="1" precision="FP16">
					<dim>1</dim>
					<dim>32</dim>
					<dim>1</dim>
					<dim>1</dim>
				</port>
			</output>
		</layer>
		<layer id="90" name="ConvNdBackward16" type="Add" version="opset1">
			<input>
				<port id="0">
					<dim>1</dim>
					<dim>32</dim>
					<dim>128</dim>
					<dim>256</dim>
				</port>
				<port id="1">
					<dim>1</dim>
					<dim>32</dim>
					<dim>1</dim>
					<dim>1</dim>
				</port>
			</input>
			<output>
				<port id="2" precision="FP16">
					<dim>1</dim>
					<dim>32</dim>
					<dim>128</dim>
					<dim>256</dim>
				</port>
			</output>
		</layer>
		<layer id="91" name="ThresholdBackward18" type="ReLU" version="opset1">
			<input>
				<port id="0">
					<dim>1</dim>
					<dim>32</dim>
					<dim>128</dim>
					<dim>256</dim>
				</port>
			</input>
			<output>
				<port id="1" precision="FP16">
					<dim>1</dim>
					<dim>32</dim>
					<dim>128</dim>
					<dim>256</dim>
				</port>
			</output>
		</layer>
		<layer id="92" name="15731577_const" type="Const" version="opset1">
			<data element_type="f16" offset="884" shape="" size="2"/>
			<output>
				<port id="1" precision="FP16"/>
			</output>
		</layer>
		<layer id="93" name="15741578_const" type="Const" version="opset1">
			<data element_type="f16" offset="40960" shape="" size="2"/>
			<output>
				<port id="1" precision="FP16"/>
			</output>
		</layer>
		<layer id="94" name="15751579_const" type="Const" version="opset1">
			<data element_type="f16" offset="884" shape="" size="2"/>
			<output>
				<port id="1" precision="FP16"/>
			</output>
		</layer>
		<layer id="95" name="15761580_const" type="Const" version="opset1">
			<data element_type="f16" offset="40960" shape="" size="2"/>
			<output>
				<port id="1" precision="FP16"/>
			</output>
		</layer>
		<layer id="96" name="ConvNdBackward19/WithoutBiases/fq_input_0" type="FakeQuantize" version="opset1">
			<data levels="256"/>
			<input>
				<port id="0">
					<dim>1</dim>
					<dim>32</dim>
					<dim>128</dim>
					<dim>256</dim>
				</port>
				<port id="1"/>
				<port id="2"/>
				<port id="3"/>
				<port id="4"/>
			</input>
			<output>
				<port id="5" precision="FP16">
					<dim>1</dim>
					<dim>32</dim>
					<dim>128</dim>
					<dim>256</dim>
				</port>
			</output>
		</layer>
		<layer id="97" name="ConvNdBackward19/WithoutBiases/fq_weights_1/Convert_to_float/Cast_07019_const" type="Const" version="opset1">
			<data element_type="u8" offset="40962" shape="128,32,1,1" size="4096"/>
			<output>
				<port id="1" precision="U8">
					<dim>128</dim>
					<dim>32</dim>
					<dim>1</dim>
					<dim>1</dim>
				</port>
			</output>
		</layer>
		<layer id="98" name="ConvNdBackward19/WithoutBiases/fq_weights_1/Convert_to_float" type="Convert" version="opset1">
			<data destination_type="f16"/>
			<input>
				<port id="0">
					<dim>128</dim>
					<dim>32</dim>
					<dim>1</dim>
					<dim>1</dim>
				</port>
			</input>
			<output>
				<port id="1" precision="FP16">
					<dim>128</dim>
					<dim>32</dim>
					<dim>1</dim>
					<dim>1</dim>
				</port>
			</output>
		</layer>
		<layer id="99" name="ConvNdBackward19/WithoutBiases/fq_weights_1/Copy/out_low5775_const" type="Const" version="opset1">
			<data element_type="f16" offset="884" shape="1" size="2"/>
			<output>
				<port id="1" precision="FP16">
					<dim>1</dim>
				</port>
			</output>
		</layer>
		<layer id="100" name="ConvNdBackward19/WithoutBiases/fq_weights_1/Copy/out_high5776_const" type="Const" version="opset1">
			<data element_type="f16" offset="886" shape="1" size="2"/>
			<output>
				<port id="1" precision="FP16">
					<dim>1</dim>
				</port>
			</output>
		</layer>
		<layer id="101" name="15851589_const" type="Const" version="opset1">
			<data element_type="f16" offset="45058" shape="128,1,1,1" size="256"/>
			<output>
				<port id="1" precision="FP16">
					<dim>128</dim>
					<dim>1</dim>
					<dim>1</dim>
					<dim>1</dim>
				</port>
			</output>
		</layer>
		<layer id="102" name="15861590_const" type="Const" version="opset1">
			<data element_type="f16" offset="45314" shape="128,1,1,1" size="256"/>
			<output>
				<port id="1" precision="FP16">
					<dim>128</dim>
					<dim>1</dim>
					<dim>1</dim>
					<dim>1</dim>
				</port>
			</output>
		</layer>
		<layer id="103" name="ConvNdBackward19/WithoutBiases/fq_weights_1" type="FakeQuantize" version="opset1">
			<data levels="255"/>
			<input>
				<port id="0">
					<dim>128</dim>
					<dim>32</dim>
					<dim>1</dim>
					<dim>1</dim>
				</port>
				<port id="1">
					<dim>1</dim>
				</port>
				<port id="2">
					<dim>1</dim>
				</port>
				<port id="3">
					<dim>128</dim>
					<dim>1</dim>
					<dim>1</dim>
					<dim>1</dim>
				</port>
				<port id="4">
					<dim>128</dim>
					<dim>1</dim>
					<dim>1</dim>
					<dim>1</dim>
				</port>
			</input>
			<output>
				<port id="5" precision="FP16">
					<dim>128</dim>
					<dim>32</dim>
					<dim>1</dim>
					<dim>1</dim>
				</port>
			</output>
		</layer>
		<layer id="104" name="ConvNdBackward19/WithoutBiases" type="Convolution" version="opset1">
			<data dilations="1,1" output_padding="0,0" pads_begin="0,0" pads_end="0,0" strides="1,1"/>
			<input>
				<port id="0">
					<dim>1</dim>
					<dim>32</dim>
					<dim>128</dim>
					<dim>256</dim>
				</port>
				<port id="1">
					<dim>128</dim>
					<dim>32</dim>
					<dim>1</dim>
					<dim>1</dim>
				</port>
			</input>
			<output>
				<port id="2" precision="FP16">
					<dim>1</dim>
					<dim>128</dim>
					<dim>128</dim>
					<dim>256</dim>
				</port>
			</output>
		</layer>
		<layer id="105" name="ConvNdBackward19/Dims3224/copy_const405_const" type="Const" version="opset1">
			<data element_type="f16" offset="45570" shape="1,128,1,1" size="256"/>
			<output>
				<port id="1" precision="FP16">
					<dim>1</dim>
					<dim>128</dim>
					<dim>1</dim>
					<dim>1</dim>
				</port>
			</output>
		</layer>
		<layer id="106" name="ConvNdBackward19" type="Add" version="opset1">
			<input>
				<port id="0">
					<dim>1</dim>
					<dim>128</dim>
					<dim>128</dim>
					<dim>256</dim>
				</port>
				<port id="1">
					<dim>1</dim>
					<dim>128</dim>
					<dim>1</dim>
					<dim>1</dim>
				</port>
			</input>
			<output>
				<port id="2" precision="FP16">
					<dim>1</dim>
					<dim>128</dim>
					<dim>128</dim>
					<dim>256</dim>
				</port>
			</output>
		</layer>
		<layer id="107" name="11631167_const" type="Const" version="opset1">
			<data element_type="f16" offset="45826" shape="" size="2"/>
			<output>
				<port id="1" precision="FP16"/>
			</output>
		</layer>
		<layer id="108" name="11641168_const" type="Const" version="opset1">
			<data element_type="f16" offset="45828" shape="" size="2"/>
			<output>
				<port id="1" precision="FP16"/>
			</output>
		</layer>
		<layer id="109" name="11651169_const" type="Const" version="opset1">
			<data element_type="f16" offset="45826" shape="" size="2"/>
			<output>
				<port id="1" precision="FP16"/>
			</output>
		</layer>
		<layer id="110" name="11661170_const" type="Const" version="opset1">
			<data element_type="f16" offset="45828" shape="" size="2"/>
			<output>
				<port id="1" precision="FP16"/>
			</output>
		</layer>
		<layer id="111" name="AddBackward124/fq_input_0" type="FakeQuantize" version="opset1">
			<data levels="256"/>
			<input>
				<port id="0">
					<dim>1</dim>
					<dim>128</dim>
					<dim>128</dim>
					<dim>256</dim>
				</port>
				<port id="1"/>
				<port id="2"/>
				<port id="3"/>
				<port id="4"/>
			</input>
			<output>
				<port id="5" precision="FP16">
					<dim>1</dim>
					<dim>128</dim>
					<dim>128</dim>
					<dim>256</dim>
				</port>
			</output>
		</layer>
		<layer id="112" name="ConvNdBackward22/WithoutBiases/fq_weights_1/Convert_to_float/Cast_07003_const" type="Const" version="opset1">
			<data element_type="u8" offset="45830" shape="128,64,1,1" size="8192"/>
			<output>
				<port id="1" precision="U8">
					<dim>128</dim>
					<dim>64</dim>
					<dim>1</dim>
					<dim>1</dim>
				</port>
			</output>
		</layer>
		<layer id="113" name="ConvNdBackward22/WithoutBiases/fq_weights_1/Convert_to_float" type="Convert" version="opset1">
			<data destination_type="f16"/>
			<input>
				<port id="0">
					<dim>128</dim>
					<dim>64</dim>
					<dim>1</dim>
					<dim>1</dim>
				</port>
			</input>
			<output>
				<port id="1" precision="FP16">
					<dim>128</dim>
					<dim>64</dim>
					<dim>1</dim>
					<dim>1</dim>
				</port>
			</output>
		</layer>
		<layer id="114" name="ConvNdBackward22/WithoutBiases/fq_weights_1/Copy/out_low5791_const" type="Const" version="opset1">
			<data element_type="f16" offset="884" shape="1" size="2"/>
			<output>
				<port id="1" precision="FP16">
					<dim>1</dim>
				</port>
			</output>
		</layer>
		<layer id="115" name="ConvNdBackward22/WithoutBiases/fq_weights_1/Copy/out_high5792_const" type="Const" version="opset1">
			<data element_type="f16" offset="886" shape="1" size="2"/>
			<output>
				<port id="1" precision="FP16">
					<dim>1</dim>
				</port>
			</output>
		</layer>
		<layer id="116" name="26352639_const" type="Const" version="opset1">
			<data element_type="f16" offset="54022" shape="128,1,1,1" size="256"/>
			<output>
				<port id="1" precision="FP16">
					<dim>128</dim>
					<dim>1</dim>
					<dim>1</dim>
					<dim>1</dim>
				</port>
			</output>
		</layer>
		<layer id="117" name="26362640_const" type="Const" version="opset1">
			<data element_type="f16" offset="54278" shape="128,1,1,1" size="256"/>
			<output>
				<port id="1" precision="FP16">
					<dim>128</dim>
					<dim>1</dim>
					<dim>1</dim>
					<dim>1</dim>
				</port>
			</output>
		</layer>
		<layer id="118" name="ConvNdBackward22/WithoutBiases/fq_weights_1" type="FakeQuantize" version="opset1">
			<data levels="255"/>
			<input>
				<port id="0">
					<dim>128</dim>
					<dim>64</dim>
					<dim>1</dim>
					<dim>1</dim>
				</port>
				<port id="1">
					<dim>1</dim>
				</port>
				<port id="2">
					<dim>1</dim>
				</port>
				<port id="3">
					<dim>128</dim>
					<dim>1</dim>
					<dim>1</dim>
					<dim>1</dim>
				</port>
				<port id="4">
					<dim>128</dim>
					<dim>1</dim>
					<dim>1</dim>
					<dim>1</dim>
				</port>
			</input>
			<output>
				<port id="5" precision="FP16">
					<dim>128</dim>
					<dim>64</dim>
					<dim>1</dim>
					<dim>1</dim>
				</port>
			</output>
		</layer>
		<layer id="119" name="ConvNdBackward22/WithoutBiases" type="Convolution" version="opset1">
			<data dilations="1,1" output_padding="0,0" pads_begin="0,0" pads_end="0,0" strides="1,1"/>
			<input>
				<port id="0">
					<dim>1</dim>
					<dim>64</dim>
					<dim>128</dim>
					<dim>256</dim>
				</port>
				<port id="1">
					<dim>128</dim>
					<dim>64</dim>
					<dim>1</dim>
					<dim>1</dim>
				</port>
			</input>
			<output>
				<port id="2" precision="FP16">
					<dim>1</dim>
					<dim>128</dim>
					<dim>128</dim>
					<dim>256</dim>
				</port>
			</output>
		</layer>
		<layer id="120" name="ConvNdBackward22/Dims2972/copy_const409_const" type="Const" version="opset1">
			<data element_type="f16" offset="54534" shape="1,128,1,1" size="256"/>
			<output>
				<port id="1" precision="FP16">
					<dim>1</dim>
					<dim>128</dim>
					<dim>1</dim>
					<dim>1</dim>
				</port>
			</output>
		</layer>
		<layer id="121" name="ConvNdBackward22" type="Add" version="opset1">
			<input>
				<port id="0">
					<dim>1</dim>
					<dim>128</dim>
					<dim>128</dim>
					<dim>256</dim>
				</port>
				<port id="1">
					<dim>1</dim>
					<dim>128</dim>
					<dim>1</dim>
					<dim>1</dim>
				</port>
			</input>
			<output>
				<port id="2" precision="FP16">
					<dim>1</dim>
					<dim>128</dim>
					<dim>128</dim>
					<dim>256</dim>
				</port>
			</output>
		</layer>
		<layer id="122" name="11731177_const" type="Const" version="opset1">
			<data element_type="f16" offset="54790" shape="" size="2"/>
			<output>
				<port id="1" precision="FP16"/>
			</output>
		</layer>
		<layer id="123" name="11741178_const" type="Const" version="opset1">
			<data element_type="f16" offset="54792" shape="" size="2"/>
			<output>
				<port id="1" precision="FP16"/>
			</output>
		</layer>
		<layer id="124" name="11751179_const" type="Const" version="opset1">
			<data element_type="f16" offset="54790" shape="" size="2"/>
			<output>
				<port id="1" precision="FP16"/>
			</output>
		</layer>
		<layer id="125" name="11761180_const" type="Const" version="opset1">
			<data element_type="f16" offset="54792" shape="" size="2"/>
			<output>
				<port id="1" precision="FP16"/>
			</output>
		</layer>
		<layer id="126" name="AddBackward124/fq_input_1" type="FakeQuantize" version="opset1">
			<data levels="256"/>
			<input>
				<port id="0">
					<dim>1</dim>
					<dim>128</dim>
					<dim>128</dim>
					<dim>256</dim>
				</port>
				<port id="1"/>
				<port id="2"/>
				<port id="3"/>
				<port id="4"/>
			</input>
			<output>
				<port id="5" precision="FP16">
					<dim>1</dim>
					<dim>128</dim>
					<dim>128</dim>
					<dim>256</dim>
				</port>
			</output>
		</layer>
		<layer id="127" name="AddBackward124" type="Add" version="opset1">
			<input>
				<port id="0">
					<dim>1</dim>
					<dim>128</dim>
					<dim>128</dim>
					<dim>256</dim>
				</port>
				<port id="1">
					<dim>1</dim>
					<dim>128</dim>
					<dim>128</dim>
					<dim>256</dim>
				</port>
			</input>
			<output>
				<port id="2" precision="FP16">
					<dim>1</dim>
					<dim>128</dim>
					<dim>128</dim>
					<dim>256</dim>
				</port>
			</output>
		</layer>
		<layer id="128" name="ThresholdBackward25" type="ReLU" version="opset1">
			<input>
				<port id="0">
					<dim>1</dim>
					<dim>128</dim>
					<dim>128</dim>
					<dim>256</dim>
				</port>
			</input>
			<output>
				<port id="1" precision="FP16">
					<dim>1</dim>
					<dim>128</dim>
					<dim>128</dim>
					<dim>256</dim>
				</port>
			</output>
		</layer>
		<layer id="129" name="11931197_const" type="Const" version="opset1">
			<data element_type="f16" offset="884" shape="" size="2"/>
			<output>
				<port id="1" precision="FP16"/>
			</output>
		</layer>
		<layer id="130" name="11941198_const" type="Const" version="opset1">
			<data element_type="f16" offset="54794" shape="" size="2"/>
			<output>
				<port id="1" precision="FP16"/>
			</output>
		</layer>
		<layer id="131" name="11951199_const" type="Const" version="opset1">
			<data element_type="f16" offset="884" shape="" size="2"/>
			<output>
				<port id="1" precision="FP16"/>
			</output>
		</layer>
		<layer id="132" name="11961200_const" type="Const" version="opset1">
			<data element_type="f16" offset="54794" shape="" size="2"/>
			<output>
				<port id="1" precision="FP16"/>
			</output>
		</layer>
		<layer id="133" name="AddBackward135/fq_input_1" type="FakeQuantize" version="opset1">
			<data levels="256"/>
			<input>
				<port id="0">
					<dim>1</dim>
					<dim>128</dim>
					<dim>128</dim>
					<dim>256</dim>
				</port>
				<port id="1"/>
				<port id="2"/>
				<port id="3"/>
				<port id="4"/>
			</input>
			<output>
				<port id="5" precision="FP16">
					<dim>1</dim>
					<dim>128</dim>
					<dim>128</dim>
					<dim>256</dim>
				</port>
			</output>
		</layer>
		<layer id="134" name="ConvNdBackward26/WithoutBiases/fq_weights_1/Convert_to_float/Cast_07039_const" type="Const" version="opset1">
			<data element_type="u8" offset="54796" shape="32,128,1,1" size="4096"/>
			<output>
				<port id="1" precision="U8">
					<dim>32</dim>
					<dim>128</dim>
					<dim>1</dim>
					<dim>1</dim>
				</port>
			</output>
		</layer>
		<layer id="135" name="ConvNdBackward26/WithoutBiases/fq_weights_1/Convert_to_float" type="Convert" version="opset1">
			<data destination_type="f16"/>
			<input>
				<port id="0">
					<dim>32</dim>
					<dim>128</dim>
					<dim>1</dim>
					<dim>1</dim>
				</port>
			</input>
			<output>
				<port id="1" precision="FP16">
					<dim>32</dim>
					<dim>128</dim>
					<dim>1</dim>
					<dim>1</dim>
				</port>
			</output>
		</layer>
		<layer id="136" name="ConvNdBackward26/WithoutBiases/fq_weights_1/Copy/out_low5959_const" type="Const" version="opset1">
			<data element_type="f16" offset="884" shape="1" size="2"/>
			<output>
				<port id="1" precision="FP16">
					<dim>1</dim>
				</port>
			</output>
		</layer>
		<layer id="137" name="ConvNdBackward26/WithoutBiases/fq_weights_1/Copy/out_high5960_const" type="Const" version="opset1">
			<data element_type="f16" offset="886" shape="1" size="2"/>
			<output>
				<port id="1" precision="FP16">
					<dim>1</dim>
				</port>
			</output>
		</layer>
		<layer id="138" name="22652269_const" type="Const" version="opset1">
			<data element_type="f16" offset="58892" shape="32,1,1,1" size="64"/>
			<output>
				<port id="1" precision="FP16">
					<dim>32</dim>
					<dim>1</dim>
					<dim>1</dim>
					<dim>1</dim>
				</port>
			</output>
		</layer>
		<layer id="139" name="22662270_const" type="Const" version="opset1">
			<data element_type="f16" offset="58956" shape="32,1,1,1" size="64"/>
			<output>
				<port id="1" precision="FP16">
					<dim>32</dim>
					<dim>1</dim>
					<dim>1</dim>
					<dim>1</dim>
				</port>
			</output>
		</layer>
		<layer id="140" name="ConvNdBackward26/WithoutBiases/fq_weights_1" type="FakeQuantize" version="opset1">
			<data levels="255"/>
			<input>
				<port id="0">
					<dim>32</dim>
					<dim>128</dim>
					<dim>1</dim>
					<dim>1</dim>
				</port>
				<port id="1">
					<dim>1</dim>
				</port>
				<port id="2">
					<dim>1</dim>
				</port>
				<port id="3">
					<dim>32</dim>
					<dim>1</dim>
					<dim>1</dim>
					<dim>1</dim>
				</port>
				<port id="4">
					<dim>32</dim>
					<dim>1</dim>
					<dim>1</dim>
					<dim>1</dim>
				</port>
			</input>
			<output>
				<port id="5" precision="FP16">
					<dim>32</dim>
					<dim>128</dim>
					<dim>1</dim>
					<dim>1</dim>
				</port>
			</output>
		</layer>
		<layer id="141" name="ConvNdBackward26/WithoutBiases" type="Convolution" version="opset1">
			<data dilations="1,1" output_padding="0,0" pads_begin="0,0" pads_end="0,0" strides="1,1"/>
			<input>
				<port id="0">
					<dim>1</dim>
					<dim>128</dim>
					<dim>128</dim>
					<dim>256</dim>
				</port>
				<port id="1">
					<dim>32</dim>
					<dim>128</dim>
					<dim>1</dim>
					<dim>1</dim>
				</port>
			</input>
			<output>
				<port id="2" precision="FP16">
					<dim>1</dim>
					<dim>32</dim>
					<dim>128</dim>
					<dim>256</dim>
				</port>
			</output>
		</layer>
		<layer id="142" name="ConvNdBackward26/Dims3122/copy_const415_const" type="Const" version="opset1">
			<data element_type="f16" offset="59020" shape="1,32,1,1" size="64"/>
			<output>
				<port id="1" precision="FP16">
					<dim>1</dim>
					<dim>32</dim>
					<dim>1</dim>
					<dim>1</dim>
				</port>
			</output>
		</layer>
		<layer id="143" name="ConvNdBackward26" type="Add" version="opset1">
			<input>
				<port id="0">
					<dim>1</dim>
					<dim>32</dim>
					<dim>128</dim>
					<dim>256</dim>
				</port>
				<port id="1">
					<dim>1</dim>
					<dim>32</dim>
					<dim>1</dim>
					<dim>1</dim>
				</port>
			</input>
			<output>
				<port id="2" precision="FP16">
					<dim>1</dim>
					<dim>32</dim>
					<dim>128</dim>
					<dim>256</dim>
				</port>
			</output>
		</layer>
		<layer id="144" name="ThresholdBackward28" type="ReLU" version="opset1">
			<input>
				<port id="0">
					<dim>1</dim>
					<dim>32</dim>
					<dim>128</dim>
					<dim>256</dim>
				</port>
			</input>
			<output>
				<port id="1" precision="FP16">
					<dim>1</dim>
					<dim>32</dim>
					<dim>128</dim>
					<dim>256</dim>
				</port>
			</output>
		</layer>
		<layer id="145" name="29832987_const" type="Const" version="opset1">
			<data element_type="f16" offset="884" shape="" size="2"/>
			<output>
				<port id="1" precision="FP16"/>
			</output>
		</layer>
		<layer id="146" name="29842988_const" type="Const" version="opset1">
			<data element_type="f16" offset="59084" shape="" size="2"/>
			<output>
				<port id="1" precision="FP16"/>
			</output>
		</layer>
		<layer id="147" name="29852989_const" type="Const" version="opset1">
			<data element_type="f16" offset="884" shape="" size="2"/>
			<output>
				<port id="1" precision="FP16"/>
			</output>
		</layer>
		<layer id="148" name="29862990_const" type="Const" version="opset1">
			<data element_type="f16" offset="59084" shape="" size="2"/>
			<output>
				<port id="1" precision="FP16"/>
			</output>
		</layer>
		<layer id="149" name="ConvNdBackward29/WithoutBiases/fq_input_0" type="FakeQuantize" version="opset1">
			<data levels="256"/>
			<input>
				<port id="0">
					<dim>1</dim>
					<dim>32</dim>
					<dim>128</dim>
					<dim>256</dim>
				</port>
				<port id="1"/>
				<port id="2"/>
				<port id="3"/>
				<port id="4"/>
			</input>
			<output>
				<port id="5" precision="FP16">
					<dim>1</dim>
					<dim>32</dim>
					<dim>128</dim>
					<dim>256</dim>
				</port>
			</output>
		</layer>
		<layer id="150" name="ConvNdBackward29/WithoutBiases/fq_weights_1/Convert_to_float/Cast_07051_const" type="Const" version="opset1">
			<data element_type="u8" offset="59086" shape="32,32,3,3" size="9216"/>
			<output>
				<port id="1" precision="U8">
					<dim>32</dim>
					<dim>32</dim>
					<dim>3</dim>
					<dim>3</dim>
				</port>
			</output>
		</layer>
		<layer id="151" name="ConvNdBackward29/WithoutBiases/fq_weights_1/Convert_to_float" type="Convert" version="opset1">
			<data destination_type="f16"/>
			<input>
				<port id="0">
					<dim>32</dim>
					<dim>32</dim>
					<dim>3</dim>
					<dim>3</dim>
				</port>
			</input>
			<output>
				<port id="1" precision="FP16">
					<dim>32</dim>
					<dim>32</dim>
					<dim>3</dim>
					<dim>3</dim>
				</port>
			</output>
		</layer>
		<layer id="152" name="ConvNdBackward29/WithoutBiases/fq_weights_1/Copy/out_low5703_const" type="Const" version="opset1">
			<data element_type="f16" offset="884" shape="1" size="2"/>
			<output>
				<port id="1" precision="FP16">
					<dim>1</dim>
				</port>
			</output>
		</layer>
		<layer id="153" name="ConvNdBackward29/WithoutBiases/fq_weights_1/Copy/out_high5704_const" type="Const" version="opset1">
			<data element_type="f16" offset="886" shape="1" size="2"/>
			<output>
				<port id="1" precision="FP16">
					<dim>1</dim>
				</port>
			</output>
		</layer>
		<layer id="154" name="29952999_const" type="Const" version="opset1">
			<data element_type="f16" offset="68302" shape="32,1,1,1" size="64"/>
			<output>
				<port id="1" precision="FP16">
					<dim>32</dim>
					<dim>1</dim>
					<dim>1</dim>
					<dim>1</dim>
				</port>
			</output>
		</layer>
		<layer id="155" name="29963000_const" type="Const" version="opset1">
			<data element_type="f16" offset="68366" shape="32,1,1,1" size="64"/>
			<output>
				<port id="1" precision="FP16">
					<dim>32</dim>
					<dim>1</dim>
					<dim>1</dim>
					<dim>1</dim>
				</port>
			</output>
		</layer>
		<layer id="156" name="ConvNdBackward29/WithoutBiases/fq_weights_1" type="FakeQuantize" version="opset1">
			<data levels="255"/>
			<input>
				<port id="0">
					<dim>32</dim>
					<dim>32</dim>
					<dim>3</dim>
					<dim>3</dim>
				</port>
				<port id="1">
					<dim>1</dim>
				</port>
				<port id="2">
					<dim>1</dim>
				</port>
				<port id="3">
					<dim>32</dim>
					<dim>1</dim>
					<dim>1</dim>
					<dim>1</dim>
				</port>
				<port id="4">
					<dim>32</dim>
					<dim>1</dim>
					<dim>1</dim>
					<dim>1</dim>
				</port>
			</input>
			<output>
				<port id="5" precision="FP16">
					<dim>32</dim>
					<dim>32</dim>
					<dim>3</dim>
					<dim>3</dim>
				</port>
			</output>
		</layer>
		<layer id="157" name="ConvNdBackward29/WithoutBiases" type="Convolution" version="opset1">
			<data dilations="1,1" output_padding="0,0" pads_begin="1,1" pads_end="1,1" strides="1,1"/>
			<input>
				<port id="0">
					<dim>1</dim>
					<dim>32</dim>
					<dim>128</dim>
					<dim>256</dim>
				</port>
				<port id="1">
					<dim>32</dim>
					<dim>32</dim>
					<dim>3</dim>
					<dim>3</dim>
				</port>
			</input>
			<output>
				<port id="2" precision="FP16">
					<dim>1</dim>
					<dim>32</dim>
					<dim>128</dim>
					<dim>256</dim>
				</port>
			</output>
		</layer>
		<layer id="158" name="ConvNdBackward29/Dims3098/copy_const420_const" type="Const" version="opset1">
			<data element_type="f16" offset="68430" shape="1,32,1,1" size="64"/>
			<output>
				<port id="1" precision="FP16">
					<dim>1</dim>
					<dim>32</dim>
					<dim>1</dim>
					<dim>1</dim>
				</port>
			</output>
		</layer>
		<layer id="159" name="ConvNdBackward29" type="Add" version="opset1">
			<input>
				<port id="0">
					<dim>1</dim>
					<dim>32</dim>
					<dim>128</dim>
					<dim>256</dim>
				</port>
				<port id="1">
					<dim>1</dim>
					<dim>32</dim>
					<dim>1</dim>
					<dim>1</dim>
				</port>
			</input>
			<output>
				<port id="2" precision="FP16">
					<dim>1</dim>
					<dim>32</dim>
					<dim>128</dim>
					<dim>256</dim>
				</port>
			</output>
		</layer>
		<layer id="160" name="ThresholdBackward31" type="ReLU" version="opset1">
			<input>
				<port id="0">
					<dim>1</dim>
					<dim>32</dim>
					<dim>128</dim>
					<dim>256</dim>
				</port>
			</input>
			<output>
				<port id="1" precision="FP16">
					<dim>1</dim>
					<dim>32</dim>
					<dim>128</dim>
					<dim>256</dim>
				</port>
			</output>
		</layer>
		<layer id="161" name="24532457_const" type="Const" version="opset1">
			<data element_type="f16" offset="884" shape="" size="2"/>
			<output>
				<port id="1" precision="FP16"/>
			</output>
		</layer>
		<layer id="162" name="24542458_const" type="Const" version="opset1">
			<data element_type="f16" offset="68494" shape="" size="2"/>
			<output>
				<port id="1" precision="FP16"/>
			</output>
		</layer>
		<layer id="163" name="24552459_const" type="Const" version="opset1">
			<data element_type="f16" offset="884" shape="" size="2"/>
			<output>
				<port id="1" precision="FP16"/>
			</output>
		</layer>
		<layer id="164" name="24562460_const" type="Const" version="opset1">
			<data element_type="f16" offset="68494" shape="" size="2"/>
			<output>
				<port id="1" precision="FP16"/>
			</output>
		</layer>
		<layer id="165" name="ConvNdBackward32/WithoutBiases/fq_input_0" type="FakeQuantize" version="opset1">
			<data levels="256"/>
			<input>
				<port id="0">
					<dim>1</dim>
					<dim>32</dim>
					<dim>128</dim>
					<dim>256</dim>
				</port>
				<port id="1"/>
				<port id="2"/>
				<port id="3"/>
				<port id="4"/>
			</input>
			<output>
				<port id="5" precision="FP16">
					<dim>1</dim>
					<dim>32</dim>
					<dim>128</dim>
					<dim>256</dim>
				</port>
			</output>
		</layer>
		<layer id="166" name="ConvNdBackward32/WithoutBiases/fq_weights_1/Convert_to_float/Cast_07061_const" type="Const" version="opset1">
			<data element_type="u8" offset="68496" shape="128,32,1,1" size="4096"/>
			<output>
				<port id="1" precision="U8">
					<dim>128</dim>
					<dim>32</dim>
					<dim>1</dim>
					<dim>1</dim>
				</port>
			</output>
		</layer>
		<layer id="167" name="ConvNdBackward32/WithoutBiases/fq_weights_1/Convert_to_float" type="Convert" version="opset1">
			<data destination_type="f16"/>
			<input>
				<port id="0">
					<dim>128</dim>
					<dim>32</dim>
					<dim>1</dim>
					<dim>1</dim>
				</port>
			</input>
			<output>
				<port id="1" precision="FP16">
					<dim>128</dim>
					<dim>32</dim>
					<dim>1</dim>
					<dim>1</dim>
				</port>
			</output>
		</layer>
		<layer id="168" name="ConvNdBackward32/WithoutBiases/fq_weights_1/Copy/out_low6023_const" type="Const" version="opset1">
			<data element_type="f16" offset="884" shape="1" size="2"/>
			<output>
				<port id="1" precision="FP16">
					<dim>1</dim>
				</port>
			</output>
		</layer>
		<layer id="169" name="ConvNdBackward32/WithoutBiases/fq_weights_1/Copy/out_high6024_const" type="Const" version="opset1">
			<data element_type="f16" offset="886" shape="1" size="2"/>
			<output>
				<port id="1" precision="FP16">
					<dim>1</dim>
				</port>
			</output>
		</layer>
		<layer id="170" name="24652469_const" type="Const" version="opset1">
			<data element_type="f16" offset="72592" shape="128,1,1,1" size="256"/>
			<output>
				<port id="1" precision="FP16">
					<dim>128</dim>
					<dim>1</dim>
					<dim>1</dim>
					<dim>1</dim>
				</port>
			</output>
		</layer>
		<layer id="171" name="24662470_const" type="Const" version="opset1">
			<data element_type="f16" offset="72848" shape="128,1,1,1" size="256"/>
			<output>
				<port id="1" precision="FP16">
					<dim>128</dim>
					<dim>1</dim>
					<dim>1</dim>
					<dim>1</dim>
				</port>
			</output>
		</layer>
		<layer id="172" name="ConvNdBackward32/WithoutBiases/fq_weights_1" type="FakeQuantize" version="opset1">
			<data levels="255"/>
			<input>
				<port id="0">
					<dim>128</dim>
					<dim>32</dim>
					<dim>1</dim>
					<dim>1</dim>
				</port>
				<port id="1">
					<dim>1</dim>
				</port>
				<port id="2">
					<dim>1</dim>
				</port>
				<port id="3">
					<dim>128</dim>
					<dim>1</dim>
					<dim>1</dim>
					<dim>1</dim>
				</port>
				<port id="4">
					<dim>128</dim>
					<dim>1</dim>
					<dim>1</dim>
					<dim>1</dim>
				</port>
			</input>
			<output>
				<port id="5" precision="FP16">
					<dim>128</dim>
					<dim>32</dim>
					<dim>1</dim>
					<dim>1</dim>
				</port>
			</output>
		</layer>
		<layer id="173" name="ConvNdBackward32/WithoutBiases" type="Convolution" version="opset1">
			<data dilations="1,1" output_padding="0,0" pads_begin="0,0" pads_end="0,0" strides="1,1"/>
			<input>
				<port id="0">
					<dim>1</dim>
					<dim>32</dim>
					<dim>128</dim>
					<dim>256</dim>
				</port>
				<port id="1">
					<dim>128</dim>
					<dim>32</dim>
					<dim>1</dim>
					<dim>1</dim>
				</port>
			</input>
			<output>
				<port id="2" precision="FP16">
					<dim>1</dim>
					<dim>128</dim>
					<dim>128</dim>
					<dim>256</dim>
				</port>
			</output>
		</layer>
		<layer id="174" name="ConvNdBackward32/Dims3062/copy_const425_const" type="Const" version="opset1">
			<data element_type="f16" offset="73104" shape="1,128,1,1" size="256"/>
			<output>
				<port id="1" precision="FP16">
					<dim>1</dim>
					<dim>128</dim>
					<dim>1</dim>
					<dim>1</dim>
				</port>
			</output>
		</layer>
		<layer id="175" name="ConvNdBackward32" type="Add" version="opset1">
			<input>
				<port id="0">
					<dim>1</dim>
					<dim>128</dim>
					<dim>128</dim>
					<dim>256</dim>
				</port>
				<port id="1">
					<dim>1</dim>
					<dim>128</dim>
					<dim>1</dim>
					<dim>1</dim>
				</port>
			</input>
			<output>
				<port id="2" precision="FP16">
					<dim>1</dim>
					<dim>128</dim>
					<dim>128</dim>
					<dim>256</dim>
				</port>
			</output>
		</layer>
		<layer id="176" name="11831187_const" type="Const" version="opset1">
			<data element_type="f16" offset="73360" shape="" size="2"/>
			<output>
				<port id="1" precision="FP16"/>
			</output>
		</layer>
		<layer id="177" name="11841188_const" type="Const" version="opset1">
			<data element_type="f16" offset="73362" shape="" size="2"/>
			<output>
				<port id="1" precision="FP16"/>
			</output>
		</layer>
		<layer id="178" name="11851189_const" type="Const" version="opset1">
			<data element_type="f16" offset="73360" shape="" size="2"/>
			<output>
				<port id="1" precision="FP16"/>
			</output>
		</layer>
		<layer id="179" name="11861190_const" type="Const" version="opset1">
			<data element_type="f16" offset="73362" shape="" size="2"/>
			<output>
				<port id="1" precision="FP16"/>
			</output>
		</layer>
		<layer id="180" name="AddBackward135/fq_input_0" type="FakeQuantize" version="opset1">
			<data levels="256"/>
			<input>
				<port id="0">
					<dim>1</dim>
					<dim>128</dim>
					<dim>128</dim>
					<dim>256</dim>
				</port>
				<port id="1"/>
				<port id="2"/>
				<port id="3"/>
				<port id="4"/>
			</input>
			<output>
				<port id="5" precision="FP16">
					<dim>1</dim>
					<dim>128</dim>
					<dim>128</dim>
					<dim>256</dim>
				</port>
			</output>
		</layer>
		<layer id="181" name="AddBackward135" type="Add" version="opset1">
			<input>
				<port id="0">
					<dim>1</dim>
					<dim>128</dim>
					<dim>128</dim>
					<dim>256</dim>
				</port>
				<port id="1">
					<dim>1</dim>
					<dim>128</dim>
					<dim>128</dim>
					<dim>256</dim>
				</port>
			</input>
			<output>
				<port id="2" precision="FP16">
					<dim>1</dim>
					<dim>128</dim>
					<dim>128</dim>
					<dim>256</dim>
				</port>
			</output>
		</layer>
		<layer id="182" name="ThresholdBackward36" type="ReLU" version="opset1">
			<input>
				<port id="0">
					<dim>1</dim>
					<dim>128</dim>
					<dim>128</dim>
					<dim>256</dim>
				</port>
			</input>
			<output>
				<port id="1" precision="FP16">
					<dim>1</dim>
					<dim>128</dim>
					<dim>128</dim>
					<dim>256</dim>
				</port>
			</output>
		</layer>
		<layer id="183" name="25432547_const" type="Const" version="opset1">
			<data element_type="f16" offset="884" shape="" size="2"/>
			<output>
				<port id="1" precision="FP16"/>
			</output>
		</layer>
		<layer id="184" name="25442548_const" type="Const" version="opset1">
			<data element_type="f16" offset="73364" shape="" size="2"/>
			<output>
				<port id="1" precision="FP16"/>
			</output>
		</layer>
		<layer id="185" name="25452549_const" type="Const" version="opset1">
			<data element_type="f16" offset="884" shape="" size="2"/>
			<output>
				<port id="1" precision="FP16"/>
			</output>
		</layer>
		<layer id="186" name="25462550_const" type="Const" version="opset1">
			<data element_type="f16" offset="73364" shape="" size="2"/>
			<output>
				<port id="1" precision="FP16"/>
			</output>
		</layer>
		<layer id="187" name="ConvNdBackward37/WithoutBiases/fq_input_0" type="FakeQuantize" version="opset1">
			<data levels="256"/>
			<input>
				<port id="0">
					<dim>1</dim>
					<dim>128</dim>
					<dim>128</dim>
					<dim>256</dim>
				</port>
				<port id="1"/>
				<port id="2"/>
				<port id="3"/>
				<port id="4"/>
			</input>
			<output>
				<port id="5" precision="FP16">
					<dim>1</dim>
					<dim>128</dim>
					<dim>128</dim>
					<dim>256</dim>
				</port>
			</output>
		</layer>
		<layer id="188" name="ConvNdBackward37/WithoutBiases/fq_weights_1/Convert_to_float/Cast_06985_const" type="Const" version="opset1">
			<data element_type="u8" offset="73366" shape="32,128,1,1" size="4096"/>
			<output>
				<port id="1" precision="U8">
					<dim>32</dim>
					<dim>128</dim>
					<dim>1</dim>
					<dim>1</dim>
				</port>
			</output>
		</layer>
		<layer id="189" name="ConvNdBackward37/WithoutBiases/fq_weights_1/Convert_to_float" type="Convert" version="opset1">
			<data destination_type="f16"/>
			<input>
				<port id="0">
					<dim>32</dim>
					<dim>128</dim>
					<dim>1</dim>
					<dim>1</dim>
				</port>
			</input>
			<output>
				<port id="1" precision="FP16">
					<dim>32</dim>
					<dim>128</dim>
					<dim>1</dim>
					<dim>1</dim>
				</port>
			</output>
		</layer>
		<layer id="190" name="ConvNdBackward37/WithoutBiases/fq_weights_1/Copy/out_low5815_const" type="Const" version="opset1">
			<data element_type="f16" offset="884" shape="1" size="2"/>
			<output>
				<port id="1" precision="FP16">
					<dim>1</dim>
				</port>
			</output>
		</layer>
		<layer id="191" name="ConvNdBackward37/WithoutBiases/fq_weights_1/Copy/out_high5816_const" type="Const" version="opset1">
			<data element_type="f16" offset="886" shape="1" size="2"/>
			<output>
				<port id="1" precision="FP16">
					<dim>1</dim>
				</port>
			</output>
		</layer>
		<layer id="192" name="25552559_const" type="Const" version="opset1">
			<data element_type="f16" offset="77462" shape="32,1,1,1" size="64"/>
			<output>
				<port id="1" precision="FP16">
					<dim>32</dim>
					<dim>1</dim>
					<dim>1</dim>
					<dim>1</dim>
				</port>
			</output>
		</layer>
		<layer id="193" name="25562560_const" type="Const" version="opset1">
			<data element_type="f16" offset="77526" shape="32,1,1,1" size="64"/>
			<output>
				<port id="1" precision="FP16">
					<dim>32</dim>
					<dim>1</dim>
					<dim>1</dim>
					<dim>1</dim>
				</port>
			</output>
		</layer>
		<layer id="194" name="ConvNdBackward37/WithoutBiases/fq_weights_1" type="FakeQuantize" version="opset1">
			<data levels="255"/>
			<input>
				<port id="0">
					<dim>32</dim>
					<dim>128</dim>
					<dim>1</dim>
					<dim>1</dim>
				</port>
				<port id="1">
					<dim>1</dim>
				</port>
				<port id="2">
					<dim>1</dim>
				</port>
				<port id="3">
					<dim>32</dim>
					<dim>1</dim>
					<dim>1</dim>
					<dim>1</dim>
				</port>
				<port id="4">
					<dim>32</dim>
					<dim>1</dim>
					<dim>1</dim>
					<dim>1</dim>
				</port>
			</input>
			<output>
				<port id="5" precision="FP16">
					<dim>32</dim>
					<dim>128</dim>
					<dim>1</dim>
					<dim>1</dim>
				</port>
			</output>
		</layer>
		<layer id="195" name="ConvNdBackward37/WithoutBiases" type="Convolution" version="opset1">
			<data dilations="1,1" output_padding="0,0" pads_begin="0,0" pads_end="0,0" strides="1,1"/>
			<input>
				<port id="0">
					<dim>1</dim>
					<dim>128</dim>
					<dim>128</dim>
					<dim>256</dim>
				</port>
				<port id="1">
					<dim>32</dim>
					<dim>128</dim>
					<dim>1</dim>
					<dim>1</dim>
				</port>
			</input>
			<output>
				<port id="2" precision="FP16">
					<dim>1</dim>
					<dim>32</dim>
					<dim>128</dim>
					<dim>256</dim>
				</port>
			</output>
		</layer>
		<layer id="196" name="ConvNdBackward37/Dims3164/copy_const431_const" type="Const" version="opset1">
			<data element_type="f16" offset="77590" shape="1,32,1,1" size="64"/>
			<output>
				<port id="1" precision="FP16">
					<dim>1</dim>
					<dim>32</dim>
					<dim>1</dim>
					<dim>1</dim>
				</port>
			</output>
		</layer>
		<layer id="197" name="ConvNdBackward37" type="Add" version="opset1">
			<input>
				<port id="0">
					<dim>1</dim>
					<dim>32</dim>
					<dim>128</dim>
					<dim>256</dim>
				</port>
				<port id="1">
					<dim>1</dim>
					<dim>32</dim>
					<dim>1</dim>
					<dim>1</dim>
				</port>
			</input>
			<output>
				<port id="2" precision="FP16">
					<dim>1</dim>
					<dim>32</dim>
					<dim>128</dim>
					<dim>256</dim>
				</port>
			</output>
		</layer>
		<layer id="198" name="ThresholdBackward39" type="ReLU" version="opset1">
			<input>
				<port id="0">
					<dim>1</dim>
					<dim>32</dim>
					<dim>128</dim>
					<dim>256</dim>
				</port>
			</input>
			<output>
				<port id="1" precision="FP16">
					<dim>1</dim>
					<dim>32</dim>
					<dim>128</dim>
					<dim>256</dim>
				</port>
			</output>
		</layer>
		<layer id="199" name="25632567_const" type="Const" version="opset1">
			<data element_type="f16" offset="884" shape="" size="2"/>
			<output>
				<port id="1" precision="FP16"/>
			</output>
		</layer>
		<layer id="200" name="25642568_const" type="Const" version="opset1">
			<data element_type="f16" offset="77654" shape="" size="2"/>
			<output>
				<port id="1" precision="FP16"/>
			</output>
		</layer>
		<layer id="201" name="25652569_const" type="Const" version="opset1">
			<data element_type="f16" offset="884" shape="" size="2"/>
			<output>
				<port id="1" precision="FP16"/>
			</output>
		</layer>
		<layer id="202" name="25662570_const" type="Const" version="opset1">
			<data element_type="f16" offset="77654" shape="" size="2"/>
			<output>
				<port id="1" precision="FP16"/>
			</output>
		</layer>
		<layer id="203" name="ConvNdBackward40/WithoutBiases/fq_input_0" type="FakeQuantize" version="opset1">
			<data levels="256"/>
			<input>
				<port id="0">
					<dim>1</dim>
					<dim>32</dim>
					<dim>128</dim>
					<dim>256</dim>
				</port>
				<port id="1"/>
				<port id="2"/>
				<port id="3"/>
				<port id="4"/>
			</input>
			<output>
				<port id="5" precision="FP16">
					<dim>1</dim>
					<dim>32</dim>
					<dim>128</dim>
					<dim>256</dim>
				</port>
			</output>
		</layer>
		<layer id="204" name="ConvNdBackward40/WithoutBiases/fq_weights_1/Convert_to_float/Cast_06959_const" type="Const" version="opset1">
			<data element_type="u8" offset="77656" shape="32,32,3,3" size="9216"/>
			<output>
				<port id="1" precision="U8">
					<dim>32</dim>
					<dim>32</dim>
					<dim>3</dim>
					<dim>3</dim>
				</port>
			</output>
		</layer>
		<layer id="205" name="ConvNdBackward40/WithoutBiases/fq_weights_1/Convert_to_float" type="Convert" version="opset1">
			<data destination_type="f16"/>
			<input>
				<port id="0">
					<dim>32</dim>
					<dim>32</dim>
					<dim>3</dim>
					<dim>3</dim>
				</port>
			</input>
			<output>
				<port id="1" precision="FP16">
					<dim>32</dim>
					<dim>32</dim>
					<dim>3</dim>
					<dim>3</dim>
				</port>
			</output>
		</layer>
		<layer id="206" name="ConvNdBackward40/WithoutBiases/fq_weights_1/Copy/out_low5823_const" type="Const" version="opset1">
			<data element_type="f16" offset="884" shape="1" size="2"/>
			<output>
				<port id="1" precision="FP16">
					<dim>1</dim>
				</port>
			</output>
		</layer>
		<layer id="207" name="ConvNdBackward40/WithoutBiases/fq_weights_1/Copy/out_high5824_const" type="Const" version="opset1">
			<data element_type="f16" offset="886" shape="1" size="2"/>
			<output>
				<port id="1" precision="FP16">
					<dim>1</dim>
				</port>
			</output>
		</layer>
		<layer id="208" name="25752579_const" type="Const" version="opset1">
			<data element_type="f16" offset="86872" shape="32,1,1,1" size="64"/>
			<output>
				<port id="1" precision="FP16">
					<dim>32</dim>
					<dim>1</dim>
					<dim>1</dim>
					<dim>1</dim>
				</port>
			</output>
		</layer>
		<layer id="209" name="25762580_const" type="Const" version="opset1">
			<data element_type="f16" offset="86936" shape="32,1,1,1" size="64"/>
			<output>
				<port id="1" precision="FP16">
					<dim>32</dim>
					<dim>1</dim>
					<dim>1</dim>
					<dim>1</dim>
				</port>
			</output>
		</layer>
		<layer id="210" name="ConvNdBackward40/WithoutBiases/fq_weights_1" type="FakeQuantize" version="opset1">
			<data levels="255"/>
			<input>
				<port id="0">
					<dim>32</dim>
					<dim>32</dim>
					<dim>3</dim>
					<dim>3</dim>
				</port>
				<port id="1">
					<dim>1</dim>
				</port>
				<port id="2">
					<dim>1</dim>
				</port>
				<port id="3">
					<dim>32</dim>
					<dim>1</dim>
					<dim>1</dim>
					<dim>1</dim>
				</port>
				<port id="4">
					<dim>32</dim>
					<dim>1</dim>
					<dim>1</dim>
					<dim>1</dim>
				</port>
			</input>
			<output>
				<port id="5" precision="FP16">
					<dim>32</dim>
					<dim>32</dim>
					<dim>3</dim>
					<dim>3</dim>
				</port>
			</output>
		</layer>
		<layer id="211" name="ConvNdBackward40/WithoutBiases" type="Convolution" version="opset1">
			<data dilations="1,1" output_padding="0,0" pads_begin="1,1" pads_end="1,1" strides="2,2"/>
			<input>
				<port id="0">
					<dim>1</dim>
					<dim>32</dim>
					<dim>128</dim>
					<dim>256</dim>
				</port>
				<port id="1">
					<dim>32</dim>
					<dim>32</dim>
					<dim>3</dim>
					<dim>3</dim>
				</port>
			</input>
			<output>
				<port id="2" precision="FP16">
					<dim>1</dim>
					<dim>32</dim>
					<dim>64</dim>
					<dim>128</dim>
				</port>
			</output>
		</layer>
		<layer id="212" name="ConvNdBackward40/Dims3188/copy_const436_const" type="Const" version="opset1">
			<data element_type="f16" offset="87000" shape="1,32,1,1" size="64"/>
			<output>
				<port id="1" precision="FP16">
					<dim>1</dim>
					<dim>32</dim>
					<dim>1</dim>
					<dim>1</dim>
				</port>
			</output>
		</layer>
		<layer id="213" name="ConvNdBackward40" type="Add" version="opset1">
			<input>
				<port id="0">
					<dim>1</dim>
					<dim>32</dim>
					<dim>64</dim>
					<dim>128</dim>
				</port>
				<port id="1">
					<dim>1</dim>
					<dim>32</dim>
					<dim>1</dim>
					<dim>1</dim>
				</port>
			</input>
			<output>
				<port id="2" precision="FP16">
					<dim>1</dim>
					<dim>32</dim>
					<dim>64</dim>
					<dim>128</dim>
				</port>
			</output>
		</layer>
		<layer id="214" name="ThresholdBackward42" type="ReLU" version="opset1">
			<input>
				<port id="0">
					<dim>1</dim>
					<dim>32</dim>
					<dim>64</dim>
					<dim>128</dim>
				</port>
			</input>
			<output>
				<port id="1" precision="FP16">
					<dim>1</dim>
					<dim>32</dim>
					<dim>64</dim>
					<dim>128</dim>
				</port>
			</output>
		</layer>
		<layer id="215" name="19731977_const" type="Const" version="opset1">
			<data element_type="f16" offset="884" shape="" size="2"/>
			<output>
				<port id="1" precision="FP16"/>
			</output>
		</layer>
		<layer id="216" name="19741978_const" type="Const" version="opset1">
			<data element_type="f16" offset="87064" shape="" size="2"/>
			<output>
				<port id="1" precision="FP16"/>
			</output>
		</layer>
		<layer id="217" name="19751979_const" type="Const" version="opset1">
			<data element_type="f16" offset="884" shape="" size="2"/>
			<output>
				<port id="1" precision="FP16"/>
			</output>
		</layer>
		<layer id="218" name="19761980_const" type="Const" version="opset1">
			<data element_type="f16" offset="87064" shape="" size="2"/>
			<output>
				<port id="1" precision="FP16"/>
			</output>
		</layer>
		<layer id="219" name="ConvNdBackward43/WithoutBiases/fq_input_0" type="FakeQuantize" version="opset1">
			<data levels="256"/>
			<input>
				<port id="0">
					<dim>1</dim>
					<dim>32</dim>
					<dim>64</dim>
					<dim>128</dim>
				</port>
				<port id="1"/>
				<port id="2"/>
				<port id="3"/>
				<port id="4"/>
			</input>
			<output>
				<port id="5" precision="FP16">
					<dim>1</dim>
					<dim>32</dim>
					<dim>64</dim>
					<dim>128</dim>
				</port>
			</output>
		</layer>
		<layer id="220" name="ConvNdBackward43/WithoutBiases/fq_weights_1/Convert_to_float/Cast_06935_const" type="Const" version="opset1">
			<data element_type="u8" offset="87066" shape="128,32,1,1" size="4096"/>
			<output>
				<port id="1" precision="U8">
					<dim>128</dim>
					<dim>32</dim>
					<dim>1</dim>
					<dim>1</dim>
				</port>
			</output>
		</layer>
		<layer id="221" name="ConvNdBackward43/WithoutBiases/fq_weights_1/Convert_to_float" type="Convert" version="opset1">
			<data destination_type="f16"/>
			<input>
				<port id="0">
					<dim>128</dim>
					<dim>32</dim>
					<dim>1</dim>
					<dim>1</dim>
				</port>
			</input>
			<output>
				<port id="1" precision="FP16">
					<dim>128</dim>
					<dim>32</dim>
					<dim>1</dim>
					<dim>1</dim>
				</port>
			</output>
		</layer>
		<layer id="222" name="ConvNdBackward43/WithoutBiases/fq_weights_1/Copy/out_low5759_const" type="Const" version="opset1">
			<data element_type="f16" offset="884" shape="1" size="2"/>
			<output>
				<port id="1" precision="FP16">
					<dim>1</dim>
				</port>
			</output>
		</layer>
		<layer id="223" name="ConvNdBackward43/WithoutBiases/fq_weights_1/Copy/out_high5760_const" type="Const" version="opset1">
			<data element_type="f16" offset="886" shape="1" size="2"/>
			<output>
				<port id="1" precision="FP16">
					<dim>1</dim>
				</port>
			</output>
		</layer>
		<layer id="224" name="19851989_const" type="Const" version="opset1">
			<data element_type="f16" offset="91162" shape="128,1,1,1" size="256"/>
			<output>
				<port id="1" precision="FP16">
					<dim>128</dim>
					<dim>1</dim>
					<dim>1</dim>
					<dim>1</dim>
				</port>
			</output>
		</layer>
		<layer id="225" name="19861990_const" type="Const" version="opset1">
			<data element_type="f16" offset="91418" shape="128,1,1,1" size="256"/>
			<output>
				<port id="1" precision="FP16">
					<dim>128</dim>
					<dim>1</dim>
					<dim>1</dim>
					<dim>1</dim>
				</port>
			</output>
		</layer>
		<layer id="226" name="ConvNdBackward43/WithoutBiases/fq_weights_1" type="FakeQuantize" version="opset1">
			<data levels="255"/>
			<input>
				<port id="0">
					<dim>128</dim>
					<dim>32</dim>
					<dim>1</dim>
					<dim>1</dim>
				</port>
				<port id="1">
					<dim>1</dim>
				</port>
				<port id="2">
					<dim>1</dim>
				</port>
				<port id="3">
					<dim>128</dim>
					<dim>1</dim>
					<dim>1</dim>
					<dim>1</dim>
				</port>
				<port id="4">
					<dim>128</dim>
					<dim>1</dim>
					<dim>1</dim>
					<dim>1</dim>
				</port>
			</input>
			<output>
				<port id="5" precision="FP16">
					<dim>128</dim>
					<dim>32</dim>
					<dim>1</dim>
					<dim>1</dim>
				</port>
			</output>
		</layer>
		<layer id="227" name="ConvNdBackward43/WithoutBiases" type="Convolution" version="opset1">
			<data dilations="1,1" output_padding="0,0" pads_begin="0,0" pads_end="0,0" strides="1,1"/>
			<input>
				<port id="0">
					<dim>1</dim>
					<dim>32</dim>
					<dim>64</dim>
					<dim>128</dim>
				</port>
				<port id="1">
					<dim>128</dim>
					<dim>32</dim>
					<dim>1</dim>
					<dim>1</dim>
				</port>
			</input>
			<output>
				<port id="2" precision="FP16">
					<dim>1</dim>
					<dim>128</dim>
					<dim>64</dim>
					<dim>128</dim>
				</port>
			</output>
		</layer>
		<layer id="228" name="ConvNdBackward43/Dims3086/copy_const441_const" type="Const" version="opset1">
			<data element_type="f16" offset="91674" shape="1,128,1,1" size="256"/>
			<output>
				<port id="1" precision="FP16">
					<dim>1</dim>
					<dim>128</dim>
					<dim>1</dim>
					<dim>1</dim>
				</port>
			</output>
		</layer>
		<layer id="229" name="ConvNdBackward43" type="Add" version="opset1">
			<input>
				<port id="0">
					<dim>1</dim>
					<dim>128</dim>
					<dim>64</dim>
					<dim>128</dim>
				</port>
				<port id="1">
					<dim>1</dim>
					<dim>128</dim>
					<dim>1</dim>
					<dim>1</dim>
				</port>
			</input>
			<output>
				<port id="2" precision="FP16">
					<dim>1</dim>
					<dim>128</dim>
					<dim>64</dim>
					<dim>128</dim>
				</port>
			</output>
		</layer>
		<layer id="230" name="22932297_const" type="Const" version="opset1">
			<data element_type="f16" offset="91930" shape="" size="2"/>
			<output>
				<port id="1" precision="FP16"/>
			</output>
		</layer>
		<layer id="231" name="22942298_const" type="Const" version="opset1">
			<data element_type="f16" offset="91932" shape="" size="2"/>
			<output>
				<port id="1" precision="FP16"/>
			</output>
		</layer>
		<layer id="232" name="22952299_const" type="Const" version="opset1">
			<data element_type="f16" offset="91930" shape="" size="2"/>
			<output>
				<port id="1" precision="FP16"/>
			</output>
		</layer>
		<layer id="233" name="22962300_const" type="Const" version="opset1">
			<data element_type="f16" offset="91932" shape="" size="2"/>
			<output>
				<port id="1" precision="FP16"/>
			</output>
		</layer>
		<layer id="234" name="AddBackward146/fq_input_0" type="FakeQuantize" version="opset1">
			<data levels="256"/>
			<input>
				<port id="0">
					<dim>1</dim>
					<dim>128</dim>
					<dim>64</dim>
					<dim>128</dim>
				</port>
				<port id="1"/>
				<port id="2"/>
				<port id="3"/>
				<port id="4"/>
			</input>
			<output>
				<port id="5" precision="FP16">
					<dim>1</dim>
					<dim>128</dim>
					<dim>64</dim>
					<dim>128</dim>
				</port>
			</output>
		</layer>
		<layer id="235" name="Pooling_" type="MaxPool" version="opset1">
			<data kernel="1,1" pads_begin="0,0" pads_end="0,0" strides="2,2"/>
			<input>
				<port id="0">
					<dim>1</dim>
					<dim>128</dim>
					<dim>128</dim>
					<dim>256</dim>
				</port>
			</input>
			<output>
				<port id="1" precision="FP16">
					<dim>1</dim>
					<dim>128</dim>
					<dim>64</dim>
					<dim>128</dim>
				</port>
			</output>
		</layer>
		<layer id="236" name="AddBackward146" type="Add" version="opset1">
			<input>
				<port id="0">
					<dim>1</dim>
					<dim>128</dim>
					<dim>64</dim>
					<dim>128</dim>
				</port>
				<port id="1">
					<dim>1</dim>
					<dim>128</dim>
					<dim>64</dim>
					<dim>128</dim>
				</port>
			</input>
			<output>
				<port id="2" precision="FP16">
					<dim>1</dim>
					<dim>128</dim>
					<dim>64</dim>
					<dim>128</dim>
				</port>
			</output>
		</layer>
		<layer id="237" name="ThresholdBackward47" type="ReLU" version="opset1">
			<input>
				<port id="0">
					<dim>1</dim>
					<dim>128</dim>
					<dim>64</dim>
					<dim>128</dim>
				</port>
			</input>
			<output>
				<port id="1" precision="FP16">
					<dim>1</dim>
					<dim>128</dim>
					<dim>64</dim>
					<dim>128</dim>
				</port>
			</output>
		</layer>
		<layer id="238" name="22232227_const" type="Const" version="opset1">
			<data element_type="f16" offset="884" shape="" size="2"/>
			<output>
				<port id="1" precision="FP16"/>
			</output>
		</layer>
		<layer id="239" name="22242228_const" type="Const" version="opset1">
			<data element_type="f16" offset="91934" shape="" size="2"/>
			<output>
				<port id="1" precision="FP16"/>
			</output>
		</layer>
		<layer id="240" name="22252229_const" type="Const" version="opset1">
			<data element_type="f16" offset="884" shape="" size="2"/>
			<output>
				<port id="1" precision="FP16"/>
			</output>
		</layer>
		<layer id="241" name="22262230_const" type="Const" version="opset1">
			<data element_type="f16" offset="91934" shape="" size="2"/>
			<output>
				<port id="1" precision="FP16"/>
			</output>
		</layer>
		<layer id="242" name="ConvNdBackward48/WithoutBiases/fq_input_0" type="FakeQuantize" version="opset1">
			<data levels="256"/>
			<input>
				<port id="0">
					<dim>1</dim>
					<dim>128</dim>
					<dim>64</dim>
					<dim>128</dim>
				</port>
				<port id="1"/>
				<port id="2"/>
				<port id="3"/>
				<port id="4"/>
			</input>
			<output>
				<port id="5" precision="FP16">
					<dim>1</dim>
					<dim>128</dim>
					<dim>64</dim>
					<dim>128</dim>
				</port>
			</output>
		</layer>
		<layer id="243" name="ConvNdBackward48/WithoutBiases/fq_weights_1/Convert_to_float/Cast_06993_const" type="Const" version="opset1">
			<data element_type="u8" offset="91936" shape="64,128,1,1" size="8192"/>
			<output>
				<port id="1" precision="U8">
					<dim>64</dim>
					<dim>128</dim>
					<dim>1</dim>
					<dim>1</dim>
				</port>
			</output>
		</layer>
		<layer id="244" name="ConvNdBackward48/WithoutBiases/fq_weights_1/Convert_to_float" type="Convert" version="opset1">
			<data destination_type="f16"/>
			<input>
				<port id="0">
					<dim>64</dim>
					<dim>128</dim>
					<dim>1</dim>
					<dim>1</dim>
				</port>
			</input>
			<output>
				<port id="1" precision="FP16">
					<dim>64</dim>
					<dim>128</dim>
					<dim>1</dim>
					<dim>1</dim>
				</port>
			</output>
		</layer>
		<layer id="245" name="ConvNdBackward48/WithoutBiases/fq_weights_1/Copy/out_low5767_const" type="Const" version="opset1">
			<data element_type="f16" offset="884" shape="1" size="2"/>
			<output>
				<port id="1" precision="FP16">
					<dim>1</dim>
				</port>
			</output>
		</layer>
		<layer id="246" name="ConvNdBackward48/WithoutBiases/fq_weights_1/Copy/out_high5768_const" type="Const" version="opset1">
			<data element_type="f16" offset="886" shape="1" size="2"/>
			<output>
				<port id="1" precision="FP16">
					<dim>1</dim>
				</port>
			</output>
		</layer>
		<layer id="247" name="22352239_const" type="Const" version="opset1">
			<data element_type="f16" offset="100128" shape="64,1,1,1" size="128"/>
			<output>
				<port id="1" precision="FP16">
					<dim>64</dim>
					<dim>1</dim>
					<dim>1</dim>
					<dim>1</dim>
				</port>
			</output>
		</layer>
		<layer id="248" name="22362240_const" type="Const" version="opset1">
			<data element_type="f16" offset="100256" shape="64,1,1,1" size="128"/>
			<output>
				<port id="1" precision="FP16">
					<dim>64</dim>
					<dim>1</dim>
					<dim>1</dim>
					<dim>1</dim>
				</port>
			</output>
		</layer>
		<layer id="249" name="ConvNdBackward48/WithoutBiases/fq_weights_1" type="FakeQuantize" version="opset1">
			<data levels="255"/>
			<input>
				<port id="0">
					<dim>64</dim>
					<dim>128</dim>
					<dim>1</dim>
					<dim>1</dim>
				</port>
				<port id="1">
					<dim>1</dim>
				</port>
				<port id="2">
					<dim>1</dim>
				</port>
				<port id="3">
					<dim>64</dim>
					<dim>1</dim>
					<dim>1</dim>
					<dim>1</dim>
				</port>
				<port id="4">
					<dim>64</dim>
					<dim>1</dim>
					<dim>1</dim>
					<dim>1</dim>
				</port>
			</input>
			<output>
				<port id="5" precision="FP16">
					<dim>64</dim>
					<dim>128</dim>
					<dim>1</dim>
					<dim>1</dim>
				</port>
			</output>
		</layer>
		<layer id="250" name="ConvNdBackward48/WithoutBiases" type="Convolution" version="opset1">
			<data dilations="1,1" output_padding="0,0" pads_begin="0,0" pads_end="0,0" strides="1,1"/>
			<input>
				<port id="0">
					<dim>1</dim>
					<dim>128</dim>
					<dim>64</dim>
					<dim>128</dim>
				</port>
				<port id="1">
					<dim>64</dim>
					<dim>128</dim>
					<dim>1</dim>
					<dim>1</dim>
				</port>
			</input>
			<output>
				<port id="2" precision="FP16">
					<dim>1</dim>
					<dim>64</dim>
					<dim>64</dim>
					<dim>128</dim>
				</port>
			</output>
		</layer>
		<layer id="251" name="ConvNdBackward48/Dims3074/copy_const448_const" type="Const" version="opset1">
			<data element_type="f16" offset="100384" shape="1,64,1,1" size="128"/>
			<output>
				<port id="1" precision="FP16">
					<dim>1</dim>
					<dim>64</dim>
					<dim>1</dim>
					<dim>1</dim>
				</port>
			</output>
		</layer>
		<layer id="252" name="ConvNdBackward48" type="Add" version="opset1">
			<input>
				<port id="0">
					<dim>1</dim>
					<dim>64</dim>
					<dim>64</dim>
					<dim>128</dim>
				</port>
				<port id="1">
					<dim>1</dim>
					<dim>64</dim>
					<dim>1</dim>
					<dim>1</dim>
				</port>
			</input>
			<output>
				<port id="2" precision="FP16">
					<dim>1</dim>
					<dim>64</dim>
					<dim>64</dim>
					<dim>128</dim>
				</port>
			</output>
		</layer>
		<layer id="253" name="ThresholdBackward50" type="ReLU" version="opset1">
			<input>
				<port id="0">
					<dim>1</dim>
					<dim>64</dim>
					<dim>64</dim>
					<dim>128</dim>
				</port>
			</input>
			<output>
				<port id="1" precision="FP16">
					<dim>1</dim>
					<dim>64</dim>
					<dim>64</dim>
					<dim>128</dim>
				</port>
			</output>
		</layer>
		<layer id="254" name="15531557_const" type="Const" version="opset1">
			<data element_type="f16" offset="884" shape="" size="2"/>
			<output>
				<port id="1" precision="FP16"/>
			</output>
		</layer>
		<layer id="255" name="15541558_const" type="Const" version="opset1">
			<data element_type="f16" offset="100512" shape="" size="2"/>
			<output>
				<port id="1" precision="FP16"/>
			</output>
		</layer>
		<layer id="256" name="15551559_const" type="Const" version="opset1">
			<data element_type="f16" offset="884" shape="" size="2"/>
			<output>
				<port id="1" precision="FP16"/>
			</output>
		</layer>
		<layer id="257" name="15561560_const" type="Const" version="opset1">
			<data element_type="f16" offset="100512" shape="" size="2"/>
			<output>
				<port id="1" precision="FP16"/>
			</output>
		</layer>
		<layer id="258" name="ConvNdBackward51/WithoutBiases/fq_input_0" type="FakeQuantize" version="opset1">
			<data levels="256"/>
			<input>
				<port id="0">
					<dim>1</dim>
					<dim>64</dim>
					<dim>64</dim>
					<dim>128</dim>
				</port>
				<port id="1"/>
				<port id="2"/>
				<port id="3"/>
				<port id="4"/>
			</input>
			<output>
				<port id="5" precision="FP16">
					<dim>1</dim>
					<dim>64</dim>
					<dim>64</dim>
					<dim>128</dim>
				</port>
			</output>
		</layer>
		<layer id="259" name="ConvNdBackward51/WithoutBiases/fq_weights_1/Convert_to_float/Cast_06953_const" type="Const" version="opset1">
			<data element_type="u8" offset="100514" shape="64,64,3,3" size="36864"/>
			<output>
				<port id="1" precision="U8">
					<dim>64</dim>
					<dim>64</dim>
					<dim>3</dim>
					<dim>3</dim>
				</port>
			</output>
		</layer>
		<layer id="260" name="ConvNdBackward51/WithoutBiases/fq_weights_1/Convert_to_float" type="Convert" version="opset1">
			<data destination_type="f16"/>
			<input>
				<port id="0">
					<dim>64</dim>
					<dim>64</dim>
					<dim>3</dim>
					<dim>3</dim>
				</port>
			</input>
			<output>
				<port id="1" precision="FP16">
					<dim>64</dim>
					<dim>64</dim>
					<dim>3</dim>
					<dim>3</dim>
				</port>
			</output>
		</layer>
		<layer id="261" name="ConvNdBackward51/WithoutBiases/fq_weights_1/Copy/out_low5943_const" type="Const" version="opset1">
			<data element_type="f16" offset="884" shape="1" size="2"/>
			<output>
				<port id="1" precision="FP16">
					<dim>1</dim>
				</port>
			</output>
		</layer>
		<layer id="262" name="ConvNdBackward51/WithoutBiases/fq_weights_1/Copy/out_high5944_const" type="Const" version="opset1">
			<data element_type="f16" offset="886" shape="1" size="2"/>
			<output>
				<port id="1" precision="FP16">
					<dim>1</dim>
				</port>
			</output>
		</layer>
		<layer id="263" name="15651569_const" type="Const" version="opset1">
			<data element_type="f16" offset="137378" shape="64,1,1,1" size="128"/>
			<output>
				<port id="1" precision="FP16">
					<dim>64</dim>
					<dim>1</dim>
					<dim>1</dim>
					<dim>1</dim>
				</port>
			</output>
		</layer>
		<layer id="264" name="15661570_const" type="Const" version="opset1">
			<data element_type="f16" offset="137506" shape="64,1,1,1" size="128"/>
			<output>
				<port id="1" precision="FP16">
					<dim>64</dim>
					<dim>1</dim>
					<dim>1</dim>
					<dim>1</dim>
				</port>
			</output>
		</layer>
		<layer id="265" name="ConvNdBackward51/WithoutBiases/fq_weights_1" type="FakeQuantize" version="opset1">
			<data levels="255"/>
			<input>
				<port id="0">
					<dim>64</dim>
					<dim>64</dim>
					<dim>3</dim>
					<dim>3</dim>
				</port>
				<port id="1">
					<dim>1</dim>
				</port>
				<port id="2">
					<dim>1</dim>
				</port>
				<port id="3">
					<dim>64</dim>
					<dim>1</dim>
					<dim>1</dim>
					<dim>1</dim>
				</port>
				<port id="4">
					<dim>64</dim>
					<dim>1</dim>
					<dim>1</dim>
					<dim>1</dim>
				</port>
			</input>
			<output>
				<port id="5" precision="FP16">
					<dim>64</dim>
					<dim>64</dim>
					<dim>3</dim>
					<dim>3</dim>
				</port>
			</output>
		</layer>
		<layer id="266" name="ConvNdBackward51/WithoutBiases" type="Convolution" version="opset1">
			<data dilations="1,1" output_padding="0,0" pads_begin="1,1" pads_end="1,1" strides="1,1"/>
			<input>
				<port id="0">
					<dim>1</dim>
					<dim>64</dim>
					<dim>64</dim>
					<dim>128</dim>
				</port>
				<port id="1">
					<dim>64</dim>
					<dim>64</dim>
					<dim>3</dim>
					<dim>3</dim>
				</port>
			</input>
			<output>
				<port id="2" precision="FP16">
					<dim>1</dim>
					<dim>64</dim>
					<dim>64</dim>
					<dim>128</dim>
				</port>
			</output>
		</layer>
		<layer id="267" name="ConvNdBackward51/Dims3038/copy_const453_const" type="Const" version="opset1">
			<data element_type="f16" offset="137634" shape="1,64,1,1" size="128"/>
			<output>
				<port id="1" precision="FP16">
					<dim>1</dim>
					<dim>64</dim>
					<dim>1</dim>
					<dim>1</dim>
				</port>
			</output>
		</layer>
		<layer id="268" name="ConvNdBackward51" type="Add" version="opset1">
			<input>
				<port id="0">
					<dim>1</dim>
					<dim>64</dim>
					<dim>64</dim>
					<dim>128</dim>
				</port>
				<port id="1">
					<dim>1</dim>
					<dim>64</dim>
					<dim>1</dim>
					<dim>1</dim>
				</port>
			</input>
			<output>
				<port id="2" precision="FP16">
					<dim>1</dim>
					<dim>64</dim>
					<dim>64</dim>
					<dim>128</dim>
				</port>
			</output>
		</layer>
		<layer id="269" name="ThresholdBackward53" type="ReLU" version="opset1">
			<input>
				<port id="0">
					<dim>1</dim>
					<dim>64</dim>
					<dim>64</dim>
					<dim>128</dim>
				</port>
			</input>
			<output>
				<port id="1" precision="FP16">
					<dim>1</dim>
					<dim>64</dim>
					<dim>64</dim>
					<dim>128</dim>
				</port>
			</output>
		</layer>
		<layer id="270" name="24932497_const" type="Const" version="opset1">
			<data element_type="f16" offset="884" shape="" size="2"/>
			<output>
				<port id="1" precision="FP16"/>
			</output>
		</layer>
		<layer id="271" name="24942498_const" type="Const" version="opset1">
			<data element_type="f16" offset="137762" shape="" size="2"/>
			<output>
				<port id="1" precision="FP16"/>
			</output>
		</layer>
		<layer id="272" name="24952499_const" type="Const" version="opset1">
			<data element_type="f16" offset="884" shape="" size="2"/>
			<output>
				<port id="1" precision="FP16"/>
			</output>
		</layer>
		<layer id="273" name="24962500_const" type="Const" version="opset1">
			<data element_type="f16" offset="137762" shape="" size="2"/>
			<output>
				<port id="1" precision="FP16"/>
			</output>
		</layer>
		<layer id="274" name="ConvNdBackward54/WithoutBiases/fq_input_0" type="FakeQuantize" version="opset1">
			<data levels="256"/>
			<input>
				<port id="0">
					<dim>1</dim>
					<dim>64</dim>
					<dim>64</dim>
					<dim>128</dim>
				</port>
				<port id="1"/>
				<port id="2"/>
				<port id="3"/>
				<port id="4"/>
			</input>
			<output>
				<port id="5" precision="FP16">
					<dim>1</dim>
					<dim>64</dim>
					<dim>64</dim>
					<dim>128</dim>
				</port>
			</output>
		</layer>
		<layer id="275" name="ConvNdBackward54/WithoutBiases/fq_weights_1/Convert_to_float/Cast_07059_const" type="Const" version="opset1">
			<data element_type="u8" offset="137764" shape="256,64,1,1" size="16384"/>
			<output>
				<port id="1" precision="U8">
					<dim>256</dim>
					<dim>64</dim>
					<dim>1</dim>
					<dim>1</dim>
				</port>
			</output>
		</layer>
		<layer id="276" name="ConvNdBackward54/WithoutBiases/fq_weights_1/Convert_to_float" type="Convert" version="opset1">
			<data destination_type="f16"/>
			<input>
				<port id="0">
					<dim>256</dim>
					<dim>64</dim>
					<dim>1</dim>
					<dim>1</dim>
				</port>
			</input>
			<output>
				<port id="1" precision="FP16">
					<dim>256</dim>
					<dim>64</dim>
					<dim>1</dim>
					<dim>1</dim>
				</port>
			</output>
		</layer>
		<layer id="277" name="ConvNdBackward54/WithoutBiases/fq_weights_1/Copy/out_low5919_const" type="Const" version="opset1">
			<data element_type="f16" offset="884" shape="1" size="2"/>
			<output>
				<port id="1" precision="FP16">
					<dim>1</dim>
				</port>
			</output>
		</layer>
		<layer id="278" name="ConvNdBackward54/WithoutBiases/fq_weights_1/Copy/out_high5920_const" type="Const" version="opset1">
			<data element_type="f16" offset="886" shape="1" size="2"/>
			<output>
				<port id="1" precision="FP16">
					<dim>1</dim>
				</port>
			</output>
		</layer>
		<layer id="279" name="25052509_const" type="Const" version="opset1">
			<data element_type="f16" offset="154148" shape="256,1,1,1" size="512"/>
			<output>
				<port id="1" precision="FP16">
					<dim>256</dim>
					<dim>1</dim>
					<dim>1</dim>
					<dim>1</dim>
				</port>
			</output>
		</layer>
		<layer id="280" name="25062510_const" type="Const" version="opset1">
			<data element_type="f16" offset="154660" shape="256,1,1,1" size="512"/>
			<output>
				<port id="1" precision="FP16">
					<dim>256</dim>
					<dim>1</dim>
					<dim>1</dim>
					<dim>1</dim>
				</port>
			</output>
		</layer>
		<layer id="281" name="ConvNdBackward54/WithoutBiases/fq_weights_1" type="FakeQuantize" version="opset1">
			<data levels="255"/>
			<input>
				<port id="0">
					<dim>256</dim>
					<dim>64</dim>
					<dim>1</dim>
					<dim>1</dim>
				</port>
				<port id="1">
					<dim>1</dim>
				</port>
				<port id="2">
					<dim>1</dim>
				</port>
				<port id="3">
					<dim>256</dim>
					<dim>1</dim>
					<dim>1</dim>
					<dim>1</dim>
				</port>
				<port id="4">
					<dim>256</dim>
					<dim>1</dim>
					<dim>1</dim>
					<dim>1</dim>
				</port>
			</input>
			<output>
				<port id="5" precision="FP16">
					<dim>256</dim>
					<dim>64</dim>
					<dim>1</dim>
					<dim>1</dim>
				</port>
			</output>
		</layer>
		<layer id="282" name="ConvNdBackward54/WithoutBiases" type="Convolution" version="opset1">
			<data dilations="1,1" output_padding="0,0" pads_begin="0,0" pads_end="0,0" strides="1,1"/>
			<input>
				<port id="0">
					<dim>1</dim>
					<dim>64</dim>
					<dim>64</dim>
					<dim>128</dim>
				</port>
				<port id="1">
					<dim>256</dim>
					<dim>64</dim>
					<dim>1</dim>
					<dim>1</dim>
				</port>
			</input>
			<output>
				<port id="2" precision="FP16">
					<dim>1</dim>
					<dim>256</dim>
					<dim>64</dim>
					<dim>128</dim>
				</port>
			</output>
		</layer>
		<layer id="283" name="ConvNdBackward54/Dims3026/copy_const458_const" type="Const" version="opset1">
			<data element_type="f16" offset="155172" shape="1,256,1,1" size="512"/>
			<output>
				<port id="1" precision="FP16">
					<dim>1</dim>
					<dim>256</dim>
					<dim>1</dim>
					<dim>1</dim>
				</port>
			</output>
		</layer>
		<layer id="284" name="ConvNdBackward54" type="Add" version="opset1">
			<input>
				<port id="0">
					<dim>1</dim>
					<dim>256</dim>
					<dim>64</dim>
					<dim>128</dim>
				</port>
				<port id="1">
					<dim>1</dim>
					<dim>256</dim>
					<dim>1</dim>
					<dim>1</dim>
				</port>
			</input>
			<output>
				<port id="2" precision="FP16">
					<dim>1</dim>
					<dim>256</dim>
					<dim>64</dim>
					<dim>128</dim>
				</port>
			</output>
		</layer>
		<layer id="285" name="20732077_const" type="Const" version="opset1">
			<data element_type="f16" offset="155684" shape="" size="2"/>
			<output>
				<port id="1" precision="FP16"/>
			</output>
		</layer>
		<layer id="286" name="20742078_const" type="Const" version="opset1">
			<data element_type="f16" offset="155686" shape="" size="2"/>
			<output>
				<port id="1" precision="FP16"/>
			</output>
		</layer>
		<layer id="287" name="20752079_const" type="Const" version="opset1">
			<data element_type="f16" offset="155684" shape="" size="2"/>
			<output>
				<port id="1" precision="FP16"/>
			</output>
		</layer>
		<layer id="288" name="20762080_const" type="Const" version="opset1">
			<data element_type="f16" offset="155686" shape="" size="2"/>
			<output>
				<port id="1" precision="FP16"/>
			</output>
		</layer>
		<layer id="289" name="AddBackward159/fq_input_0" type="FakeQuantize" version="opset1">
			<data levels="256"/>
			<input>
				<port id="0">
					<dim>1</dim>
					<dim>256</dim>
					<dim>64</dim>
					<dim>128</dim>
				</port>
				<port id="1"/>
				<port id="2"/>
				<port id="3"/>
				<port id="4"/>
			</input>
			<output>
				<port id="5" precision="FP16">
					<dim>1</dim>
					<dim>256</dim>
					<dim>64</dim>
					<dim>128</dim>
				</port>
			</output>
		</layer>
		<layer id="290" name="ConvNdBackward57/WithoutBiases/fq_weights_1/Convert_to_float/Cast_07009_const" type="Const" version="opset1">
			<data element_type="u8" offset="155688" shape="256,128,1,1" size="32768"/>
			<output>
				<port id="1" precision="U8">
					<dim>256</dim>
					<dim>128</dim>
					<dim>1</dim>
					<dim>1</dim>
				</port>
			</output>
		</layer>
		<layer id="291" name="ConvNdBackward57/WithoutBiases/fq_weights_1/Convert_to_float" type="Convert" version="opset1">
			<data destination_type="f16"/>
			<input>
				<port id="0">
					<dim>256</dim>
					<dim>128</dim>
					<dim>1</dim>
					<dim>1</dim>
				</port>
			</input>
			<output>
				<port id="1" precision="FP16">
					<dim>256</dim>
					<dim>128</dim>
					<dim>1</dim>
					<dim>1</dim>
				</port>
			</output>
		</layer>
		<layer id="292" name="ConvNdBackward57/WithoutBiases/fq_weights_1/Copy/out_low5807_const" type="Const" version="opset1">
			<data element_type="f16" offset="884" shape="1" size="2"/>
			<output>
				<port id="1" precision="FP16">
					<dim>1</dim>
				</port>
			</output>
		</layer>
		<layer id="293" name="ConvNdBackward57/WithoutBiases/fq_weights_1/Copy/out_high5808_const" type="Const" version="opset1">
			<data element_type="f16" offset="886" shape="1" size="2"/>
			<output>
				<port id="1" precision="FP16">
					<dim>1</dim>
				</port>
			</output>
		</layer>
		<layer id="294" name="24252429_const" type="Const" version="opset1">
			<data element_type="f16" offset="188456" shape="256,1,1,1" size="512"/>
			<output>
				<port id="1" precision="FP16">
					<dim>256</dim>
					<dim>1</dim>
					<dim>1</dim>
					<dim>1</dim>
				</port>
			</output>
		</layer>
		<layer id="295" name="24262430_const" type="Const" version="opset1">
			<data element_type="f16" offset="188968" shape="256,1,1,1" size="512"/>
			<output>
				<port id="1" precision="FP16">
					<dim>256</dim>
					<dim>1</dim>
					<dim>1</dim>
					<dim>1</dim>
				</port>
			</output>
		</layer>
		<layer id="296" name="ConvNdBackward57/WithoutBiases/fq_weights_1" type="FakeQuantize" version="opset1">
			<data levels="255"/>
			<input>
				<port id="0">
					<dim>256</dim>
					<dim>128</dim>
					<dim>1</dim>
					<dim>1</dim>
				</port>
				<port id="1">
					<dim>1</dim>
				</port>
				<port id="2">
					<dim>1</dim>
				</port>
				<port id="3">
					<dim>256</dim>
					<dim>1</dim>
					<dim>1</dim>
					<dim>1</dim>
				</port>
				<port id="4">
					<dim>256</dim>
					<dim>1</dim>
					<dim>1</dim>
					<dim>1</dim>
				</port>
			</input>
			<output>
				<port id="5" precision="FP16">
					<dim>256</dim>
					<dim>128</dim>
					<dim>1</dim>
					<dim>1</dim>
				</port>
			</output>
		</layer>
		<layer id="297" name="ConvNdBackward57/WithoutBiases" type="Convolution" version="opset1">
			<data dilations="1,1" output_padding="0,0" pads_begin="0,0" pads_end="0,0" strides="1,1"/>
			<input>
				<port id="0">
					<dim>1</dim>
					<dim>128</dim>
					<dim>64</dim>
					<dim>128</dim>
				</port>
				<port id="1">
					<dim>256</dim>
					<dim>128</dim>
					<dim>1</dim>
					<dim>1</dim>
				</port>
			</input>
			<output>
				<port id="2" precision="FP16">
					<dim>1</dim>
					<dim>256</dim>
					<dim>64</dim>
					<dim>128</dim>
				</port>
			</output>
		</layer>
		<layer id="298" name="ConvNdBackward57/Dims3092/copy_const462_const" type="Const" version="opset1">
			<data element_type="f16" offset="189480" shape="1,256,1,1" size="512"/>
			<output>
				<port id="1" precision="FP16">
					<dim>1</dim>
					<dim>256</dim>
					<dim>1</dim>
					<dim>1</dim>
				</port>
			</output>
		</layer>
		<layer id="299" name="ConvNdBackward57" type="Add" version="opset1">
			<input>
				<port id="0">
					<dim>1</dim>
					<dim>256</dim>
					<dim>64</dim>
					<dim>128</dim>
				</port>
				<port id="1">
					<dim>1</dim>
					<dim>256</dim>
					<dim>1</dim>
					<dim>1</dim>
				</port>
			</input>
			<output>
				<port id="2" precision="FP16">
					<dim>1</dim>
					<dim>256</dim>
					<dim>64</dim>
					<dim>128</dim>
				</port>
			</output>
		</layer>
		<layer id="300" name="20832087_const" type="Const" version="opset1">
			<data element_type="f16" offset="189992" shape="" size="2"/>
			<output>
				<port id="1" precision="FP16"/>
			</output>
		</layer>
		<layer id="301" name="20842088_const" type="Const" version="opset1">
			<data element_type="f16" offset="189994" shape="" size="2"/>
			<output>
				<port id="1" precision="FP16"/>
			</output>
		</layer>
		<layer id="302" name="20852089_const" type="Const" version="opset1">
			<data element_type="f16" offset="189992" shape="" size="2"/>
			<output>
				<port id="1" precision="FP16"/>
			</output>
		</layer>
		<layer id="303" name="20862090_const" type="Const" version="opset1">
			<data element_type="f16" offset="189994" shape="" size="2"/>
			<output>
				<port id="1" precision="FP16"/>
			</output>
		</layer>
		<layer id="304" name="AddBackward159/fq_input_1" type="FakeQuantize" version="opset1">
			<data levels="256"/>
			<input>
				<port id="0">
					<dim>1</dim>
					<dim>256</dim>
					<dim>64</dim>
					<dim>128</dim>
				</port>
				<port id="1"/>
				<port id="2"/>
				<port id="3"/>
				<port id="4"/>
			</input>
			<output>
				<port id="5" precision="FP16">
					<dim>1</dim>
					<dim>256</dim>
					<dim>64</dim>
					<dim>128</dim>
				</port>
			</output>
		</layer>
		<layer id="305" name="AddBackward159" type="Add" version="opset1">
			<input>
				<port id="0">
					<dim>1</dim>
					<dim>256</dim>
					<dim>64</dim>
					<dim>128</dim>
				</port>
				<port id="1">
					<dim>1</dim>
					<dim>256</dim>
					<dim>64</dim>
					<dim>128</dim>
				</port>
			</input>
			<output>
				<port id="2" precision="FP16">
					<dim>1</dim>
					<dim>256</dim>
					<dim>64</dim>
					<dim>128</dim>
				</port>
			</output>
		</layer>
		<layer id="306" name="ThresholdBackward60" type="ReLU" version="opset1">
			<input>
				<port id="0">
					<dim>1</dim>
					<dim>256</dim>
					<dim>64</dim>
					<dim>128</dim>
				</port>
			</input>
			<output>
				<port id="1" precision="FP16">
					<dim>1</dim>
					<dim>256</dim>
					<dim>64</dim>
					<dim>128</dim>
				</port>
			</output>
		</layer>
		<layer id="307" name="24032407_const" type="Const" version="opset1">
			<data element_type="f16" offset="884" shape="" size="2"/>
			<output>
				<port id="1" precision="FP16"/>
			</output>
		</layer>
		<layer id="308" name="24042408_const" type="Const" version="opset1">
			<data element_type="f16" offset="189996" shape="" size="2"/>
			<output>
				<port id="1" precision="FP16"/>
			</output>
		</layer>
		<layer id="309" name="24052409_const" type="Const" version="opset1">
			<data element_type="f16" offset="884" shape="" size="2"/>
			<output>
				<port id="1" precision="FP16"/>
			</output>
		</layer>
		<layer id="310" name="24062410_const" type="Const" version="opset1">
			<data element_type="f16" offset="189996" shape="" size="2"/>
			<output>
				<port id="1" precision="FP16"/>
			</output>
		</layer>
		<layer id="311" name="AvgPool2DBackward61/fq_input_0" type="FakeQuantize" version="opset1">
			<data levels="256"/>
			<input>
				<port id="0">
					<dim>1</dim>
					<dim>256</dim>
					<dim>64</dim>
					<dim>128</dim>
				</port>
				<port id="1"/>
				<port id="2"/>
				<port id="3"/>
				<port id="4"/>
			</input>
			<output>
				<port id="5" precision="FP16">
					<dim>1</dim>
					<dim>256</dim>
					<dim>64</dim>
					<dim>128</dim>
				</port>
			</output>
		</layer>
		<layer id="312" name="AvgPool2DBackward61" type="AvgPool" version="opset1">
			<data exclude-pad="false" kernel="2,2" pads_begin="0,0" pads_end="0,0" rounding_type="ceil" strides="2,2"/>
			<input>
				<port id="0">
					<dim>1</dim>
					<dim>256</dim>
					<dim>64</dim>
					<dim>128</dim>
				</port>
			</input>
			<output>
				<port id="1" precision="FP16">
					<dim>1</dim>
					<dim>256</dim>
					<dim>32</dim>
					<dim>64</dim>
				</port>
			</output>
		</layer>
		<layer id="313" name="17431747_const" type="Const" version="opset1">
			<data element_type="f16" offset="884" shape="" size="2"/>
			<output>
				<port id="1" precision="FP16"/>
			</output>
		</layer>
		<layer id="314" name="17441748_const" type="Const" version="opset1">
			<data element_type="f16" offset="189998" shape="" size="2"/>
			<output>
				<port id="1" precision="FP16"/>
			</output>
		</layer>
		<layer id="315" name="17451749_const" type="Const" version="opset1">
			<data element_type="f16" offset="884" shape="" size="2"/>
			<output>
				<port id="1" precision="FP16"/>
			</output>
		</layer>
		<layer id="316" name="17461750_const" type="Const" version="opset1">
			<data element_type="f16" offset="189998" shape="" size="2"/>
			<output>
				<port id="1" precision="FP16"/>
			</output>
		</layer>
		<layer id="317" name="AddBackward171/fq_input_1" type="FakeQuantize" version="opset1">
			<data levels="256"/>
			<input>
				<port id="0">
					<dim>1</dim>
					<dim>256</dim>
					<dim>32</dim>
					<dim>64</dim>
				</port>
				<port id="1"/>
				<port id="2"/>
				<port id="3"/>
				<port id="4"/>
			</input>
			<output>
				<port id="5" precision="FP16">
					<dim>1</dim>
					<dim>256</dim>
					<dim>32</dim>
					<dim>64</dim>
				</port>
			</output>
		</layer>
		<layer id="318" name="ConvNdBackward62/WithoutBiases/fq_weights_1/Convert_to_float/Cast_06975_const" type="Const" version="opset1">
			<data element_type="u8" offset="190000" shape="64,256,1,1" size="16384"/>
			<output>
				<port id="1" precision="U8">
					<dim>64</dim>
					<dim>256</dim>
					<dim>1</dim>
					<dim>1</dim>
				</port>
			</output>
		</layer>
		<layer id="319" name="ConvNdBackward62/WithoutBiases/fq_weights_1/Convert_to_float" type="Convert" version="opset1">
			<data destination_type="f16"/>
			<input>
				<port id="0">
					<dim>64</dim>
					<dim>256</dim>
					<dim>1</dim>
					<dim>1</dim>
				</port>
			</input>
			<output>
				<port id="1" precision="FP16">
					<dim>64</dim>
					<dim>256</dim>
					<dim>1</dim>
					<dim>1</dim>
				</port>
			</output>
		</layer>
		<layer id="320" name="ConvNdBackward62/WithoutBiases/fq_weights_1/Copy/out_low5751_const" type="Const" version="opset1">
			<data element_type="f16" offset="884" shape="1" size="2"/>
			<output>
				<port id="1" precision="FP16">
					<dim>1</dim>
				</port>
			</output>
		</layer>
		<layer id="321" name="ConvNdBackward62/WithoutBiases/fq_weights_1/Copy/out_high5752_const" type="Const" version="opset1">
			<data element_type="f16" offset="886" shape="1" size="2"/>
			<output>
				<port id="1" precision="FP16">
					<dim>1</dim>
				</port>
			</output>
		</layer>
		<layer id="322" name="23952399_const" type="Const" version="opset1">
			<data element_type="f16" offset="206384" shape="64,1,1,1" size="128"/>
			<output>
				<port id="1" precision="FP16">
					<dim>64</dim>
					<dim>1</dim>
					<dim>1</dim>
					<dim>1</dim>
				</port>
			</output>
		</layer>
		<layer id="323" name="23962400_const" type="Const" version="opset1">
			<data element_type="f16" offset="206512" shape="64,1,1,1" size="128"/>
			<output>
				<port id="1" precision="FP16">
					<dim>64</dim>
					<dim>1</dim>
					<dim>1</dim>
					<dim>1</dim>
				</port>
			</output>
		</layer>
		<layer id="324" name="ConvNdBackward62/WithoutBiases/fq_weights_1" type="FakeQuantize" version="opset1">
			<data levels="255"/>
			<input>
				<port id="0">
					<dim>64</dim>
					<dim>256</dim>
					<dim>1</dim>
					<dim>1</dim>
				</port>
				<port id="1">
					<dim>1</dim>
				</port>
				<port id="2">
					<dim>1</dim>
				</port>
				<port id="3">
					<dim>64</dim>
					<dim>1</dim>
					<dim>1</dim>
					<dim>1</dim>
				</port>
				<port id="4">
					<dim>64</dim>
					<dim>1</dim>
					<dim>1</dim>
					<dim>1</dim>
				</port>
			</input>
			<output>
				<port id="5" precision="FP16">
					<dim>64</dim>
					<dim>256</dim>
					<dim>1</dim>
					<dim>1</dim>
				</port>
			</output>
		</layer>
		<layer id="325" name="ConvNdBackward62/WithoutBiases" type="Convolution" version="opset1">
			<data dilations="1,1" output_padding="0,0" pads_begin="0,0" pads_end="0,0" strides="1,1"/>
			<input>
				<port id="0">
					<dim>1</dim>
					<dim>256</dim>
					<dim>32</dim>
					<dim>64</dim>
				</port>
				<port id="1">
					<dim>64</dim>
					<dim>256</dim>
					<dim>1</dim>
					<dim>1</dim>
				</port>
			</input>
			<output>
				<port id="2" precision="FP16">
					<dim>1</dim>
					<dim>64</dim>
					<dim>32</dim>
					<dim>64</dim>
				</port>
			</output>
		</layer>
		<layer id="326" name="ConvNdBackward62/Dims3254/copy_const469_const" type="Const" version="opset1">
			<data element_type="f16" offset="206640" shape="1,64,1,1" size="128"/>
			<output>
				<port id="1" precision="FP16">
					<dim>1</dim>
					<dim>64</dim>
					<dim>1</dim>
					<dim>1</dim>
				</port>
			</output>
		</layer>
		<layer id="327" name="ConvNdBackward62" type="Add" version="opset1">
			<input>
				<port id="0">
					<dim>1</dim>
					<dim>64</dim>
					<dim>32</dim>
					<dim>64</dim>
				</port>
				<port id="1">
					<dim>1</dim>
					<dim>64</dim>
					<dim>1</dim>
					<dim>1</dim>
				</port>
			</input>
			<output>
				<port id="2" precision="FP16">
					<dim>1</dim>
					<dim>64</dim>
					<dim>32</dim>
					<dim>64</dim>
				</port>
			</output>
		</layer>
		<layer id="328" name="ThresholdBackward64" type="ReLU" version="opset1">
			<input>
				<port id="0">
					<dim>1</dim>
					<dim>64</dim>
					<dim>32</dim>
					<dim>64</dim>
				</port>
			</input>
			<output>
				<port id="1" precision="FP16">
					<dim>1</dim>
					<dim>64</dim>
					<dim>32</dim>
					<dim>64</dim>
				</port>
			</output>
		</layer>
		<layer id="329" name="15131517_const" type="Const" version="opset1">
			<data element_type="f16" offset="884" shape="" size="2"/>
			<output>
				<port id="1" precision="FP16"/>
			</output>
		</layer>
		<layer id="330" name="15141518_const" type="Const" version="opset1">
			<data element_type="f16" offset="206768" shape="" size="2"/>
			<output>
				<port id="1" precision="FP16"/>
			</output>
		</layer>
		<layer id="331" name="15151519_const" type="Const" version="opset1">
			<data element_type="f16" offset="884" shape="" size="2"/>
			<output>
				<port id="1" precision="FP16"/>
			</output>
		</layer>
		<layer id="332" name="15161520_const" type="Const" version="opset1">
			<data element_type="f16" offset="206768" shape="" size="2"/>
			<output>
				<port id="1" precision="FP16"/>
			</output>
		</layer>
		<layer id="333" name="ConvNdBackward65/WithoutBiases/fq_input_0" type="FakeQuantize" version="opset1">
			<data levels="256"/>
			<input>
				<port id="0">
					<dim>1</dim>
					<dim>64</dim>
					<dim>32</dim>
					<dim>64</dim>
				</port>
				<port id="1"/>
				<port id="2"/>
				<port id="3"/>
				<port id="4"/>
			</input>
			<output>
				<port id="5" precision="FP16">
					<dim>1</dim>
					<dim>64</dim>
					<dim>32</dim>
					<dim>64</dim>
				</port>
			</output>
		</layer>
		<layer id="334" name="ConvNdBackward65/WithoutBiases/fq_weights_1/Convert_to_float/Cast_06957_const" type="Const" version="opset1">
			<data element_type="u8" offset="206770" shape="64,64,3,3" size="36864"/>
			<output>
				<port id="1" precision="U8">
					<dim>64</dim>
					<dim>64</dim>
					<dim>3</dim>
					<dim>3</dim>
				</port>
			</output>
		</layer>
		<layer id="335" name="ConvNdBackward65/WithoutBiases/fq_weights_1/Convert_to_float" type="Convert" version="opset1">
			<data destination_type="f16"/>
			<input>
				<port id="0">
					<dim>64</dim>
					<dim>64</dim>
					<dim>3</dim>
					<dim>3</dim>
				</port>
			</input>
			<output>
				<port id="1" precision="FP16">
					<dim>64</dim>
					<dim>64</dim>
					<dim>3</dim>
					<dim>3</dim>
				</port>
			</output>
		</layer>
		<layer id="336" name="ConvNdBackward65/WithoutBiases/fq_weights_1/Copy/out_low5719_const" type="Const" version="opset1">
			<data element_type="f16" offset="884" shape="1" size="2"/>
			<output>
				<port id="1" precision="FP16">
					<dim>1</dim>
				</port>
			</output>
		</layer>
		<layer id="337" name="ConvNdBackward65/WithoutBiases/fq_weights_1/Copy/out_high5720_const" type="Const" version="opset1">
			<data element_type="f16" offset="886" shape="1" size="2"/>
			<output>
				<port id="1" precision="FP16">
					<dim>1</dim>
				</port>
			</output>
		</layer>
		<layer id="338" name="15251529_const" type="Const" version="opset1">
			<data element_type="f16" offset="243634" shape="64,1,1,1" size="128"/>
			<output>
				<port id="1" precision="FP16">
					<dim>64</dim>
					<dim>1</dim>
					<dim>1</dim>
					<dim>1</dim>
				</port>
			</output>
		</layer>
		<layer id="339" name="15261530_const" type="Const" version="opset1">
			<data element_type="f16" offset="243762" shape="64,1,1,1" size="128"/>
			<output>
				<port id="1" precision="FP16">
					<dim>64</dim>
					<dim>1</dim>
					<dim>1</dim>
					<dim>1</dim>
				</port>
			</output>
		</layer>
		<layer id="340" name="ConvNdBackward65/WithoutBiases/fq_weights_1" type="FakeQuantize" version="opset1">
			<data levels="255"/>
			<input>
				<port id="0">
					<dim>64</dim>
					<dim>64</dim>
					<dim>3</dim>
					<dim>3</dim>
				</port>
				<port id="1">
					<dim>1</dim>
				</port>
				<port id="2">
					<dim>1</dim>
				</port>
				<port id="3">
					<dim>64</dim>
					<dim>1</dim>
					<dim>1</dim>
					<dim>1</dim>
				</port>
				<port id="4">
					<dim>64</dim>
					<dim>1</dim>
					<dim>1</dim>
					<dim>1</dim>
				</port>
			</input>
			<output>
				<port id="5" precision="FP16">
					<dim>64</dim>
					<dim>64</dim>
					<dim>3</dim>
					<dim>3</dim>
				</port>
			</output>
		</layer>
		<layer id="341" name="ConvNdBackward65/WithoutBiases" type="Convolution" version="opset1">
			<data dilations="1,1" output_padding="0,0" pads_begin="1,1" pads_end="1,1" strides="1,1"/>
			<input>
				<port id="0">
					<dim>1</dim>
					<dim>64</dim>
					<dim>32</dim>
					<dim>64</dim>
				</port>
				<port id="1">
					<dim>64</dim>
					<dim>64</dim>
					<dim>3</dim>
					<dim>3</dim>
				</port>
			</input>
			<output>
				<port id="2" precision="FP16">
					<dim>1</dim>
					<dim>64</dim>
					<dim>32</dim>
					<dim>64</dim>
				</port>
			</output>
		</layer>
		<layer id="342" name="ConvNdBackward65/Dims3242/copy_const474_const" type="Const" version="opset1">
			<data element_type="f16" offset="243890" shape="1,64,1,1" size="128"/>
			<output>
				<port id="1" precision="FP16">
					<dim>1</dim>
					<dim>64</dim>
					<dim>1</dim>
					<dim>1</dim>
				</port>
			</output>
		</layer>
		<layer id="343" name="ConvNdBackward65" type="Add" version="opset1">
			<input>
				<port id="0">
					<dim>1</dim>
					<dim>64</dim>
					<dim>32</dim>
					<dim>64</dim>
				</port>
				<port id="1">
					<dim>1</dim>
					<dim>64</dim>
					<dim>1</dim>
					<dim>1</dim>
				</port>
			</input>
			<output>
				<port id="2" precision="FP16">
					<dim>1</dim>
					<dim>64</dim>
					<dim>32</dim>
					<dim>64</dim>
				</port>
			</output>
		</layer>
		<layer id="344" name="ThresholdBackward67" type="ReLU" version="opset1">
			<input>
				<port id="0">
					<dim>1</dim>
					<dim>64</dim>
					<dim>32</dim>
					<dim>64</dim>
				</port>
			</input>
			<output>
				<port id="1" precision="FP16">
					<dim>1</dim>
					<dim>64</dim>
					<dim>32</dim>
					<dim>64</dim>
				</port>
			</output>
		</layer>
		<layer id="345" name="20132017_const" type="Const" version="opset1">
			<data element_type="f16" offset="884" shape="" size="2"/>
			<output>
				<port id="1" precision="FP16"/>
			</output>
		</layer>
		<layer id="346" name="20142018_const" type="Const" version="opset1">
			<data element_type="f16" offset="244018" shape="" size="2"/>
			<output>
				<port id="1" precision="FP16"/>
			</output>
		</layer>
		<layer id="347" name="20152019_const" type="Const" version="opset1">
			<data element_type="f16" offset="884" shape="" size="2"/>
			<output>
				<port id="1" precision="FP16"/>
			</output>
		</layer>
		<layer id="348" name="20162020_const" type="Const" version="opset1">
			<data element_type="f16" offset="244018" shape="" size="2"/>
			<output>
				<port id="1" precision="FP16"/>
			</output>
		</layer>
		<layer id="349" name="ConvNdBackward68/WithoutBiases/fq_input_0" type="FakeQuantize" version="opset1">
			<data levels="256"/>
			<input>
				<port id="0">
					<dim>1</dim>
					<dim>64</dim>
					<dim>32</dim>
					<dim>64</dim>
				</port>
				<port id="1"/>
				<port id="2"/>
				<port id="3"/>
				<port id="4"/>
			</input>
			<output>
				<port id="5" precision="FP16">
					<dim>1</dim>
					<dim>64</dim>
					<dim>32</dim>
					<dim>64</dim>
				</port>
			</output>
		</layer>
		<layer id="350" name="ConvNdBackward68/WithoutBiases/fq_weights_1/Convert_to_float/Cast_07037_const" type="Const" version="opset1">
			<data element_type="u8" offset="244020" shape="256,64,1,1" size="16384"/>
			<output>
				<port id="1" precision="U8">
					<dim>256</dim>
					<dim>64</dim>
					<dim>1</dim>
					<dim>1</dim>
				</port>
			</output>
		</layer>
		<layer id="351" name="ConvNdBackward68/WithoutBiases/fq_weights_1/Convert_to_float" type="Convert" version="opset1">
			<data destination_type="f16"/>
			<input>
				<port id="0">
					<dim>256</dim>
					<dim>64</dim>
					<dim>1</dim>
					<dim>1</dim>
				</port>
			</input>
			<output>
				<port id="1" precision="FP16">
					<dim>256</dim>
					<dim>64</dim>
					<dim>1</dim>
					<dim>1</dim>
				</port>
			</output>
		</layer>
		<layer id="352" name="ConvNdBackward68/WithoutBiases/fq_weights_1/Copy/out_low6063_const" type="Const" version="opset1">
			<data element_type="f16" offset="884" shape="1" size="2"/>
			<output>
				<port id="1" precision="FP16">
					<dim>1</dim>
				</port>
			</output>
		</layer>
		<layer id="353" name="ConvNdBackward68/WithoutBiases/fq_weights_1/Copy/out_high6064_const" type="Const" version="opset1">
			<data element_type="f16" offset="886" shape="1" size="2"/>
			<output>
				<port id="1" precision="FP16">
					<dim>1</dim>
				</port>
			</output>
		</layer>
		<layer id="354" name="20252029_const" type="Const" version="opset1">
			<data element_type="f16" offset="260404" shape="256,1,1,1" size="512"/>
			<output>
				<port id="1" precision="FP16">
					<dim>256</dim>
					<dim>1</dim>
					<dim>1</dim>
					<dim>1</dim>
				</port>
			</output>
		</layer>
		<layer id="355" name="20262030_const" type="Const" version="opset1">
			<data element_type="f16" offset="260916" shape="256,1,1,1" size="512"/>
			<output>
				<port id="1" precision="FP16">
					<dim>256</dim>
					<dim>1</dim>
					<dim>1</dim>
					<dim>1</dim>
				</port>
			</output>
		</layer>
		<layer id="356" name="ConvNdBackward68/WithoutBiases/fq_weights_1" type="FakeQuantize" version="opset1">
			<data levels="255"/>
			<input>
				<port id="0">
					<dim>256</dim>
					<dim>64</dim>
					<dim>1</dim>
					<dim>1</dim>
				</port>
				<port id="1">
					<dim>1</dim>
				</port>
				<port id="2">
					<dim>1</dim>
				</port>
				<port id="3">
					<dim>256</dim>
					<dim>1</dim>
					<dim>1</dim>
					<dim>1</dim>
				</port>
				<port id="4">
					<dim>256</dim>
					<dim>1</dim>
					<dim>1</dim>
					<dim>1</dim>
				</port>
			</input>
			<output>
				<port id="5" precision="FP16">
					<dim>256</dim>
					<dim>64</dim>
					<dim>1</dim>
					<dim>1</dim>
				</port>
			</output>
		</layer>
		<layer id="357" name="ConvNdBackward68/WithoutBiases" type="Convolution" version="opset1">
			<data dilations="1,1" output_padding="0,0" pads_begin="0,0" pads_end="0,0" strides="1,1"/>
			<input>
				<port id="0">
					<dim>1</dim>
					<dim>64</dim>
					<dim>32</dim>
					<dim>64</dim>
				</port>
				<port id="1">
					<dim>256</dim>
					<dim>64</dim>
					<dim>1</dim>
					<dim>1</dim>
				</port>
			</input>
			<output>
				<port id="2" precision="FP16">
					<dim>1</dim>
					<dim>256</dim>
					<dim>32</dim>
					<dim>64</dim>
				</port>
			</output>
		</layer>
		<layer id="358" name="ConvNdBackward68/Dims2918/copy_const479_const" type="Const" version="opset1">
			<data element_type="f16" offset="261428" shape="1,256,1,1" size="512"/>
			<output>
				<port id="1" precision="FP16">
					<dim>1</dim>
					<dim>256</dim>
					<dim>1</dim>
					<dim>1</dim>
				</port>
			</output>
		</layer>
		<layer id="359" name="ConvNdBackward68" type="Add" version="opset1">
			<input>
				<port id="0">
					<dim>1</dim>
					<dim>256</dim>
					<dim>32</dim>
					<dim>64</dim>
				</port>
				<port id="1">
					<dim>1</dim>
					<dim>256</dim>
					<dim>1</dim>
					<dim>1</dim>
				</port>
			</input>
			<output>
				<port id="2" precision="FP16">
					<dim>1</dim>
					<dim>256</dim>
					<dim>32</dim>
					<dim>64</dim>
				</port>
			</output>
		</layer>
		<layer id="360" name="17331737_const" type="Const" version="opset1">
			<data element_type="f16" offset="261940" shape="" size="2"/>
			<output>
				<port id="1" precision="FP16"/>
			</output>
		</layer>
		<layer id="361" name="17341738_const" type="Const" version="opset1">
			<data element_type="f16" offset="261942" shape="" size="2"/>
			<output>
				<port id="1" precision="FP16"/>
			</output>
		</layer>
		<layer id="362" name="17351739_const" type="Const" version="opset1">
			<data element_type="f16" offset="261940" shape="" size="2"/>
			<output>
				<port id="1" precision="FP16"/>
			</output>
		</layer>
		<layer id="363" name="17361740_const" type="Const" version="opset1">
			<data element_type="f16" offset="261942" shape="" size="2"/>
			<output>
				<port id="1" precision="FP16"/>
			</output>
		</layer>
		<layer id="364" name="AddBackward171/fq_input_0" type="FakeQuantize" version="opset1">
			<data levels="256"/>
			<input>
				<port id="0">
					<dim>1</dim>
					<dim>256</dim>
					<dim>32</dim>
					<dim>64</dim>
				</port>
				<port id="1"/>
				<port id="2"/>
				<port id="3"/>
				<port id="4"/>
			</input>
			<output>
				<port id="5" precision="FP16">
					<dim>1</dim>
					<dim>256</dim>
					<dim>32</dim>
					<dim>64</dim>
				</port>
			</output>
		</layer>
		<layer id="365" name="AddBackward171" type="Add" version="opset1">
			<input>
				<port id="0">
					<dim>1</dim>
					<dim>256</dim>
					<dim>32</dim>
					<dim>64</dim>
				</port>
				<port id="1">
					<dim>1</dim>
					<dim>256</dim>
					<dim>32</dim>
					<dim>64</dim>
				</port>
			</input>
			<output>
				<port id="2" precision="FP16">
					<dim>1</dim>
					<dim>256</dim>
					<dim>32</dim>
					<dim>64</dim>
				</port>
			</output>
		</layer>
		<layer id="366" name="ThresholdBackward72" type="ReLU" version="opset1">
			<input>
				<port id="0">
					<dim>1</dim>
					<dim>256</dim>
					<dim>32</dim>
					<dim>64</dim>
				</port>
			</input>
			<output>
				<port id="1" precision="FP16">
					<dim>1</dim>
					<dim>256</dim>
					<dim>32</dim>
					<dim>64</dim>
				</port>
			</output>
		</layer>
		<layer id="367" name="27532757_const" type="Const" version="opset1">
			<data element_type="f16" offset="884" shape="" size="2"/>
			<output>
				<port id="1" precision="FP16"/>
			</output>
		</layer>
		<layer id="368" name="27542758_const" type="Const" version="opset1">
			<data element_type="f16" offset="261944" shape="" size="2"/>
			<output>
				<port id="1" precision="FP16"/>
			</output>
		</layer>
		<layer id="369" name="27552759_const" type="Const" version="opset1">
			<data element_type="f16" offset="884" shape="" size="2"/>
			<output>
				<port id="1" precision="FP16"/>
			</output>
		</layer>
		<layer id="370" name="27562760_const" type="Const" version="opset1">
			<data element_type="f16" offset="261944" shape="" size="2"/>
			<output>
				<port id="1" precision="FP16"/>
			</output>
		</layer>
		<layer id="371" name="AddBackward182/fq_input_1" type="FakeQuantize" version="opset1">
			<data levels="256"/>
			<input>
				<port id="0">
					<dim>1</dim>
					<dim>256</dim>
					<dim>32</dim>
					<dim>64</dim>
				</port>
				<port id="1"/>
				<port id="2"/>
				<port id="3"/>
				<port id="4"/>
			</input>
			<output>
				<port id="5" precision="FP16">
					<dim>1</dim>
					<dim>256</dim>
					<dim>32</dim>
					<dim>64</dim>
				</port>
			</output>
		</layer>
		<layer id="372" name="ConvNdBackward73/WithoutBiases/fq_weights_1/Convert_to_float/Cast_07013_const" type="Const" version="opset1">
			<data element_type="u8" offset="261946" shape="64,256,1,1" size="16384"/>
			<output>
				<port id="1" precision="U8">
					<dim>64</dim>
					<dim>256</dim>
					<dim>1</dim>
					<dim>1</dim>
				</port>
			</output>
		</layer>
		<layer id="373" name="ConvNdBackward73/WithoutBiases/fq_weights_1/Convert_to_float" type="Convert" version="opset1">
			<data destination_type="f16"/>
			<input>
				<port id="0">
					<dim>64</dim>
					<dim>256</dim>
					<dim>1</dim>
					<dim>1</dim>
				</port>
			</input>
			<output>
				<port id="1" precision="FP16">
					<dim>64</dim>
					<dim>256</dim>
					<dim>1</dim>
					<dim>1</dim>
				</port>
			</output>
		</layer>
		<layer id="374" name="ConvNdBackward73/WithoutBiases/fq_weights_1/Copy/out_low6055_const" type="Const" version="opset1">
			<data element_type="f16" offset="884" shape="1" size="2"/>
			<output>
				<port id="1" precision="FP16">
					<dim>1</dim>
				</port>
			</output>
		</layer>
		<layer id="375" name="ConvNdBackward73/WithoutBiases/fq_weights_1/Copy/out_high6056_const" type="Const" version="opset1">
			<data element_type="f16" offset="886" shape="1" size="2"/>
			<output>
				<port id="1" precision="FP16">
					<dim>1</dim>
				</port>
			</output>
		</layer>
		<layer id="376" name="27352739_const" type="Const" version="opset1">
			<data element_type="f16" offset="278330" shape="64,1,1,1" size="128"/>
			<output>
				<port id="1" precision="FP16">
					<dim>64</dim>
					<dim>1</dim>
					<dim>1</dim>
					<dim>1</dim>
				</port>
			</output>
		</layer>
		<layer id="377" name="27362740_const" type="Const" version="opset1">
			<data element_type="f16" offset="278458" shape="64,1,1,1" size="128"/>
			<output>
				<port id="1" precision="FP16">
					<dim>64</dim>
					<dim>1</dim>
					<dim>1</dim>
					<dim>1</dim>
				</port>
			</output>
		</layer>
		<layer id="378" name="ConvNdBackward73/WithoutBiases/fq_weights_1" type="FakeQuantize" version="opset1">
			<data levels="255"/>
			<input>
				<port id="0">
					<dim>64</dim>
					<dim>256</dim>
					<dim>1</dim>
					<dim>1</dim>
				</port>
				<port id="1">
					<dim>1</dim>
				</port>
				<port id="2">
					<dim>1</dim>
				</port>
				<port id="3">
					<dim>64</dim>
					<dim>1</dim>
					<dim>1</dim>
					<dim>1</dim>
				</port>
				<port id="4">
					<dim>64</dim>
					<dim>1</dim>
					<dim>1</dim>
					<dim>1</dim>
				</port>
			</input>
			<output>
				<port id="5" precision="FP16">
					<dim>64</dim>
					<dim>256</dim>
					<dim>1</dim>
					<dim>1</dim>
				</port>
			</output>
		</layer>
		<layer id="379" name="ConvNdBackward73/WithoutBiases" type="Convolution" version="opset1">
			<data dilations="1,1" output_padding="0,0" pads_begin="0,0" pads_end="0,0" strides="1,1"/>
			<input>
				<port id="0">
					<dim>1</dim>
					<dim>256</dim>
					<dim>32</dim>
					<dim>64</dim>
				</port>
				<port id="1">
					<dim>64</dim>
					<dim>256</dim>
					<dim>1</dim>
					<dim>1</dim>
				</port>
			</input>
			<output>
				<port id="2" precision="FP16">
					<dim>1</dim>
					<dim>64</dim>
					<dim>32</dim>
					<dim>64</dim>
				</port>
			</output>
		</layer>
		<layer id="380" name="ConvNdBackward73/Dims3068/copy_const485_const" type="Const" version="opset1">
			<data element_type="f16" offset="278586" shape="1,64,1,1" size="128"/>
			<output>
				<port id="1" precision="FP16">
					<dim>1</dim>
					<dim>64</dim>
					<dim>1</dim>
					<dim>1</dim>
				</port>
			</output>
		</layer>
		<layer id="381" name="ConvNdBackward73" type="Add" version="opset1">
			<input>
				<port id="0">
					<dim>1</dim>
					<dim>64</dim>
					<dim>32</dim>
					<dim>64</dim>
				</port>
				<port id="1">
					<dim>1</dim>
					<dim>64</dim>
					<dim>1</dim>
					<dim>1</dim>
				</port>
			</input>
			<output>
				<port id="2" precision="FP16">
					<dim>1</dim>
					<dim>64</dim>
					<dim>32</dim>
					<dim>64</dim>
				</port>
			</output>
		</layer>
		<layer id="382" name="ThresholdBackward75" type="ReLU" version="opset1">
			<input>
				<port id="0">
					<dim>1</dim>
					<dim>64</dim>
					<dim>32</dim>
					<dim>64</dim>
				</port>
			</input>
			<output>
				<port id="1" precision="FP16">
					<dim>1</dim>
					<dim>64</dim>
					<dim>32</dim>
					<dim>64</dim>
				</port>
			</output>
		</layer>
		<layer id="383" name="12031207_const" type="Const" version="opset1">
			<data element_type="f16" offset="884" shape="" size="2"/>
			<output>
				<port id="1" precision="FP16"/>
			</output>
		</layer>
		<layer id="384" name="12041208_const" type="Const" version="opset1">
			<data element_type="f16" offset="278714" shape="" size="2"/>
			<output>
				<port id="1" precision="FP16"/>
			</output>
		</layer>
		<layer id="385" name="12051209_const" type="Const" version="opset1">
			<data element_type="f16" offset="884" shape="" size="2"/>
			<output>
				<port id="1" precision="FP16"/>
			</output>
		</layer>
		<layer id="386" name="12061210_const" type="Const" version="opset1">
			<data element_type="f16" offset="278714" shape="" size="2"/>
			<output>
				<port id="1" precision="FP16"/>
			</output>
		</layer>
		<layer id="387" name="ConvNdBackward76/WithoutBiases/fq_input_0" type="FakeQuantize" version="opset1">
			<data levels="256"/>
			<input>
				<port id="0">
					<dim>1</dim>
					<dim>64</dim>
					<dim>32</dim>
					<dim>64</dim>
				</port>
				<port id="1"/>
				<port id="2"/>
				<port id="3"/>
				<port id="4"/>
			</input>
			<output>
				<port id="5" precision="FP16">
					<dim>1</dim>
					<dim>64</dim>
					<dim>32</dim>
					<dim>64</dim>
				</port>
			</output>
		</layer>
		<layer id="388" name="ConvNdBackward76/WithoutBiases/fq_weights_1/Convert_to_float/Cast_06925_const" type="Const" version="opset1">
			<data element_type="u8" offset="278716" shape="64,64,3,3" size="36864"/>
			<output>
				<port id="1" precision="U8">
					<dim>64</dim>
					<dim>64</dim>
					<dim>3</dim>
					<dim>3</dim>
				</port>
			</output>
		</layer>
		<layer id="389" name="ConvNdBackward76/WithoutBiases/fq_weights_1/Convert_to_float" type="Convert" version="opset1">
			<data destination_type="f16"/>
			<input>
				<port id="0">
					<dim>64</dim>
					<dim>64</dim>
					<dim>3</dim>
					<dim>3</dim>
				</port>
			</input>
			<output>
				<port id="1" precision="FP16">
					<dim>64</dim>
					<dim>64</dim>
					<dim>3</dim>
					<dim>3</dim>
				</port>
			</output>
		</layer>
		<layer id="390" name="ConvNdBackward76/WithoutBiases/fq_weights_1/Copy/out_low5879_const" type="Const" version="opset1">
			<data element_type="f16" offset="884" shape="1" size="2"/>
			<output>
				<port id="1" precision="FP16">
					<dim>1</dim>
				</port>
			</output>
		</layer>
		<layer id="391" name="ConvNdBackward76/WithoutBiases/fq_weights_1/Copy/out_high5880_const" type="Const" version="opset1">
			<data element_type="f16" offset="886" shape="1" size="2"/>
			<output>
				<port id="1" precision="FP16">
					<dim>1</dim>
				</port>
			</output>
		</layer>
		<layer id="392" name="12151219_const" type="Const" version="opset1">
			<data element_type="f16" offset="315580" shape="64,1,1,1" size="128"/>
			<output>
				<port id="1" precision="FP16">
					<dim>64</dim>
					<dim>1</dim>
					<dim>1</dim>
					<dim>1</dim>
				</port>
			</output>
		</layer>
		<layer id="393" name="12161220_const" type="Const" version="opset1">
			<data element_type="f16" offset="315708" shape="64,1,1,1" size="128"/>
			<output>
				<port id="1" precision="FP16">
					<dim>64</dim>
					<dim>1</dim>
					<dim>1</dim>
					<dim>1</dim>
				</port>
			</output>
		</layer>
		<layer id="394" name="ConvNdBackward76/WithoutBiases/fq_weights_1" type="FakeQuantize" version="opset1">
			<data levels="255"/>
			<input>
				<port id="0">
					<dim>64</dim>
					<dim>64</dim>
					<dim>3</dim>
					<dim>3</dim>
				</port>
				<port id="1">
					<dim>1</dim>
				</port>
				<port id="2">
					<dim>1</dim>
				</port>
				<port id="3">
					<dim>64</dim>
					<dim>1</dim>
					<dim>1</dim>
					<dim>1</dim>
				</port>
				<port id="4">
					<dim>64</dim>
					<dim>1</dim>
					<dim>1</dim>
					<dim>1</dim>
				</port>
			</input>
			<output>
				<port id="5" precision="FP16">
					<dim>64</dim>
					<dim>64</dim>
					<dim>3</dim>
					<dim>3</dim>
				</port>
			</output>
		</layer>
		<layer id="395" name="ConvNdBackward76/WithoutBiases" type="Convolution" version="opset1">
			<data dilations="1,1" output_padding="0,0" pads_begin="1,1" pads_end="1,1" strides="1,1"/>
			<input>
				<port id="0">
					<dim>1</dim>
					<dim>64</dim>
					<dim>32</dim>
					<dim>64</dim>
				</port>
				<port id="1">
					<dim>64</dim>
					<dim>64</dim>
					<dim>3</dim>
					<dim>3</dim>
				</port>
			</input>
			<output>
				<port id="2" precision="FP16">
					<dim>1</dim>
					<dim>64</dim>
					<dim>32</dim>
					<dim>64</dim>
				</port>
			</output>
		</layer>
		<layer id="396" name="ConvNdBackward76/Dims3008/copy_const490_const" type="Const" version="opset1">
			<data element_type="f16" offset="315836" shape="1,64,1,1" size="128"/>
			<output>
				<port id="1" precision="FP16">
					<dim>1</dim>
					<dim>64</dim>
					<dim>1</dim>
					<dim>1</dim>
				</port>
			</output>
		</layer>
		<layer id="397" name="ConvNdBackward76" type="Add" version="opset1">
			<input>
				<port id="0">
					<dim>1</dim>
					<dim>64</dim>
					<dim>32</dim>
					<dim>64</dim>
				</port>
				<port id="1">
					<dim>1</dim>
					<dim>64</dim>
					<dim>1</dim>
					<dim>1</dim>
				</port>
			</input>
			<output>
				<port id="2" precision="FP16">
					<dim>1</dim>
					<dim>64</dim>
					<dim>32</dim>
					<dim>64</dim>
				</port>
			</output>
		</layer>
		<layer id="398" name="ThresholdBackward78" type="ReLU" version="opset1">
			<input>
				<port id="0">
					<dim>1</dim>
					<dim>64</dim>
					<dim>32</dim>
					<dim>64</dim>
				</port>
			</input>
			<output>
				<port id="1" precision="FP16">
					<dim>1</dim>
					<dim>64</dim>
					<dim>32</dim>
					<dim>64</dim>
				</port>
			</output>
		</layer>
		<layer id="399" name="13931397_const" type="Const" version="opset1">
			<data element_type="f16" offset="884" shape="" size="2"/>
			<output>
				<port id="1" precision="FP16"/>
			</output>
		</layer>
		<layer id="400" name="13941398_const" type="Const" version="opset1">
			<data element_type="f16" offset="315964" shape="" size="2"/>
			<output>
				<port id="1" precision="FP16"/>
			</output>
		</layer>
		<layer id="401" name="13951399_const" type="Const" version="opset1">
			<data element_type="f16" offset="884" shape="" size="2"/>
			<output>
				<port id="1" precision="FP16"/>
			</output>
		</layer>
		<layer id="402" name="13961400_const" type="Const" version="opset1">
			<data element_type="f16" offset="315964" shape="" size="2"/>
			<output>
				<port id="1" precision="FP16"/>
			</output>
		</layer>
		<layer id="403" name="ConvNdBackward79/WithoutBiases/fq_input_0" type="FakeQuantize" version="opset1">
			<data levels="256"/>
			<input>
				<port id="0">
					<dim>1</dim>
					<dim>64</dim>
					<dim>32</dim>
					<dim>64</dim>
				</port>
				<port id="1"/>
				<port id="2"/>
				<port id="3"/>
				<port id="4"/>
			</input>
			<output>
				<port id="5" precision="FP16">
					<dim>1</dim>
					<dim>64</dim>
					<dim>32</dim>
					<dim>64</dim>
				</port>
			</output>
		</layer>
		<layer id="404" name="ConvNdBackward79/WithoutBiases/fq_weights_1/Convert_to_float/Cast_06979_const" type="Const" version="opset1">
			<data element_type="u8" offset="315966" shape="256,64,1,1" size="16384"/>
			<output>
				<port id="1" precision="U8">
					<dim>256</dim>
					<dim>64</dim>
					<dim>1</dim>
					<dim>1</dim>
				</port>
			</output>
		</layer>
		<layer id="405" name="ConvNdBackward79/WithoutBiases/fq_weights_1/Convert_to_float" type="Convert" version="opset1">
			<data destination_type="f16"/>
			<input>
				<port id="0">
					<dim>256</dim>
					<dim>64</dim>
					<dim>1</dim>
					<dim>1</dim>
				</port>
			</input>
			<output>
				<port id="1" precision="FP16">
					<dim>256</dim>
					<dim>64</dim>
					<dim>1</dim>
					<dim>1</dim>
				</port>
			</output>
		</layer>
		<layer id="406" name="ConvNdBackward79/WithoutBiases/fq_weights_1/Copy/out_low5615_const" type="Const" version="opset1">
			<data element_type="f16" offset="884" shape="1" size="2"/>
			<output>
				<port id="1" precision="FP16">
					<dim>1</dim>
				</port>
			</output>
		</layer>
		<layer id="407" name="ConvNdBackward79/WithoutBiases/fq_weights_1/Copy/out_high5616_const" type="Const" version="opset1">
			<data element_type="f16" offset="886" shape="1" size="2"/>
			<output>
				<port id="1" precision="FP16">
					<dim>1</dim>
				</port>
			</output>
		</layer>
		<layer id="408" name="14051409_const" type="Const" version="opset1">
			<data element_type="f16" offset="332350" shape="256,1,1,1" size="512"/>
			<output>
				<port id="1" precision="FP16">
					<dim>256</dim>
					<dim>1</dim>
					<dim>1</dim>
					<dim>1</dim>
				</port>
			</output>
		</layer>
		<layer id="409" name="14061410_const" type="Const" version="opset1">
			<data element_type="f16" offset="332862" shape="256,1,1,1" size="512"/>
			<output>
				<port id="1" precision="FP16">
					<dim>256</dim>
					<dim>1</dim>
					<dim>1</dim>
					<dim>1</dim>
				</port>
			</output>
		</layer>
		<layer id="410" name="ConvNdBackward79/WithoutBiases/fq_weights_1" type="FakeQuantize" version="opset1">
			<data levels="255"/>
			<input>
				<port id="0">
					<dim>256</dim>
					<dim>64</dim>
					<dim>1</dim>
					<dim>1</dim>
				</port>
				<port id="1">
					<dim>1</dim>
				</port>
				<port id="2">
					<dim>1</dim>
				</port>
				<port id="3">
					<dim>256</dim>
					<dim>1</dim>
					<dim>1</dim>
					<dim>1</dim>
				</port>
				<port id="4">
					<dim>256</dim>
					<dim>1</dim>
					<dim>1</dim>
					<dim>1</dim>
				</port>
			</input>
			<output>
				<port id="5" precision="FP16">
					<dim>256</dim>
					<dim>64</dim>
					<dim>1</dim>
					<dim>1</dim>
				</port>
			</output>
		</layer>
		<layer id="411" name="ConvNdBackward79/WithoutBiases" type="Convolution" version="opset1">
			<data dilations="1,1" output_padding="0,0" pads_begin="0,0" pads_end="0,0" strides="1,1"/>
			<input>
				<port id="0">
					<dim>1</dim>
					<dim>64</dim>
					<dim>32</dim>
					<dim>64</dim>
				</port>
				<port id="1">
					<dim>256</dim>
					<dim>64</dim>
					<dim>1</dim>
					<dim>1</dim>
				</port>
			</input>
			<output>
				<port id="2" precision="FP16">
					<dim>1</dim>
					<dim>256</dim>
					<dim>32</dim>
					<dim>64</dim>
				</port>
			</output>
		</layer>
		<layer id="412" name="ConvNdBackward79/Dims2888/copy_const495_const" type="Const" version="opset1">
			<data element_type="f16" offset="333374" shape="1,256,1,1" size="512"/>
			<output>
				<port id="1" precision="FP16">
					<dim>1</dim>
					<dim>256</dim>
					<dim>1</dim>
					<dim>1</dim>
				</port>
			</output>
		</layer>
		<layer id="413" name="ConvNdBackward79" type="Add" version="opset1">
			<input>
				<port id="0">
					<dim>1</dim>
					<dim>256</dim>
					<dim>32</dim>
					<dim>64</dim>
				</port>
				<port id="1">
					<dim>1</dim>
					<dim>256</dim>
					<dim>1</dim>
					<dim>1</dim>
				</port>
			</input>
			<output>
				<port id="2" precision="FP16">
					<dim>1</dim>
					<dim>256</dim>
					<dim>32</dim>
					<dim>64</dim>
				</port>
			</output>
		</layer>
		<layer id="414" name="27432747_const" type="Const" version="opset1">
			<data element_type="f16" offset="333886" shape="" size="2"/>
			<output>
				<port id="1" precision="FP16"/>
			</output>
		</layer>
		<layer id="415" name="27442748_const" type="Const" version="opset1">
			<data element_type="f16" offset="333888" shape="" size="2"/>
			<output>
				<port id="1" precision="FP16"/>
			</output>
		</layer>
		<layer id="416" name="27452749_const" type="Const" version="opset1">
			<data element_type="f16" offset="333886" shape="" size="2"/>
			<output>
				<port id="1" precision="FP16"/>
			</output>
		</layer>
		<layer id="417" name="27462750_const" type="Const" version="opset1">
			<data element_type="f16" offset="333888" shape="" size="2"/>
			<output>
				<port id="1" precision="FP16"/>
			</output>
		</layer>
		<layer id="418" name="AddBackward182/fq_input_0" type="FakeQuantize" version="opset1">
			<data levels="256"/>
			<input>
				<port id="0">
					<dim>1</dim>
					<dim>256</dim>
					<dim>32</dim>
					<dim>64</dim>
				</port>
				<port id="1"/>
				<port id="2"/>
				<port id="3"/>
				<port id="4"/>
			</input>
			<output>
				<port id="5" precision="FP16">
					<dim>1</dim>
					<dim>256</dim>
					<dim>32</dim>
					<dim>64</dim>
				</port>
			</output>
		</layer>
		<layer id="419" name="AddBackward182" type="Add" version="opset1">
			<input>
				<port id="0">
					<dim>1</dim>
					<dim>256</dim>
					<dim>32</dim>
					<dim>64</dim>
				</port>
				<port id="1">
					<dim>1</dim>
					<dim>256</dim>
					<dim>32</dim>
					<dim>64</dim>
				</port>
			</input>
			<output>
				<port id="2" precision="FP16">
					<dim>1</dim>
					<dim>256</dim>
					<dim>32</dim>
					<dim>64</dim>
				</port>
			</output>
		</layer>
		<layer id="420" name="ThresholdBackward83" type="ReLU" version="opset1">
			<input>
				<port id="0">
					<dim>1</dim>
					<dim>256</dim>
					<dim>32</dim>
					<dim>64</dim>
				</port>
			</input>
			<output>
				<port id="1" precision="FP16">
					<dim>1</dim>
					<dim>256</dim>
					<dim>32</dim>
					<dim>64</dim>
				</port>
			</output>
		</layer>
		<layer id="421" name="13631367_const" type="Const" version="opset1">
			<data element_type="f16" offset="884" shape="" size="2"/>
			<output>
				<port id="1" precision="FP16"/>
			</output>
		</layer>
		<layer id="422" name="13641368_const" type="Const" version="opset1">
			<data element_type="f16" offset="333890" shape="" size="2"/>
			<output>
				<port id="1" precision="FP16"/>
			</output>
		</layer>
		<layer id="423" name="13651369_const" type="Const" version="opset1">
			<data element_type="f16" offset="884" shape="" size="2"/>
			<output>
				<port id="1" precision="FP16"/>
			</output>
		</layer>
		<layer id="424" name="13661370_const" type="Const" version="opset1">
			<data element_type="f16" offset="333890" shape="" size="2"/>
			<output>
				<port id="1" precision="FP16"/>
			</output>
		</layer>
		<layer id="425" name="AddBackward193/fq_input_1" type="FakeQuantize" version="opset1">
			<data levels="256"/>
			<input>
				<port id="0">
					<dim>1</dim>
					<dim>256</dim>
					<dim>32</dim>
					<dim>64</dim>
				</port>
				<port id="1"/>
				<port id="2"/>
				<port id="3"/>
				<port id="4"/>
			</input>
			<output>
				<port id="5" precision="FP16">
					<dim>1</dim>
					<dim>256</dim>
					<dim>32</dim>
					<dim>64</dim>
				</port>
			</output>
		</layer>
		<layer id="426" name="ConvNdBackward84/WithoutBiases/fq_weights_1/Convert_to_float/Cast_06949_const" type="Const" version="opset1">
			<data element_type="u8" offset="333892" shape="64,256,1,1" size="16384"/>
			<output>
				<port id="1" precision="U8">
					<dim>64</dim>
					<dim>256</dim>
					<dim>1</dim>
					<dim>1</dim>
				</port>
…
		<edge from-layer="622" from-port="1" to-layer="625" to-port="2"/>
		<edge from-layer="623" from-port="1" to-layer="625" to-port="3"/>
		<edge from-layer="624" from-port="1" to-layer="625" to-port="4"/>
		<edge from-layer="618" from-port="5" to-layer="626" to-port="0"/>
		<edge from-layer="625" from-port="5" to-layer="626" to-port="1"/>
		<edge from-layer="626" from-port="2" to-layer="628" to-port="0"/>
		<edge from-layer="627" from-port="1" to-layer="628" to-port="1"/>
		<edge from-layer="628" from-port="2" to-layer="629" to-port="0"/>
		<edge from-layer="629" from-port="1" to-layer="634" to-port="0"/>
		<edge from-layer="630" from-port="1" to-layer="634" to-port="1"/>
		<edge from-layer="631" from-port="1" to-layer="634" to-port="2"/>
		<edge from-layer="632" from-port="1" to-layer="634" to-port="3"/>
		<edge from-layer="633" from-port="1" to-layer="634" to-port="4"/>
		<edge from-layer="635" from-port="1" to-layer="636" to-port="0"/>
		<edge from-layer="636" from-port="1" to-layer="641" to-port="0"/>
		<edge from-layer="637" from-port="1" to-layer="641" to-port="1"/>
		<edge from-layer="638" from-port="1" to-layer="641" to-port="2"/>
		<edge from-layer="639" from-port="1" to-layer="641" to-port="3"/>
		<edge from-layer="640" from-port="1" to-layer="641" to-port="4"/>
		<edge from-layer="634" from-port="5" to-layer="642" to-port="0"/>
		<edge from-layer="641" from-port="5" to-layer="642" to-port="1"/>
		<edge from-layer="642" from-port="2" to-layer="644" to-port="0"/>
		<edge from-layer="643" from-port="1" to-layer="644" to-port="1"/>
		<edge from-layer="644" from-port="2" to-layer="649" to-port="0"/>
		<edge from-layer="645" from-port="1" to-layer="649" to-port="1"/>
		<edge from-layer="646" from-port="1" to-layer="649" to-port="2"/>
		<edge from-layer="647" from-port="1" to-layer="649" to-port="3"/>
		<edge from-layer="648" from-port="1" to-layer="649" to-port="4"/>
		<edge from-layer="649" from-port="5" to-layer="650" to-port="0"/>
		<edge from-layer="602" from-port="5" to-layer="650" to-port="1"/>
		<edge from-layer="650" from-port="2" to-layer="651" to-port="0"/>
		<edge from-layer="651" from-port="1" to-layer="656" to-port="0"/>
		<edge from-layer="652" from-port="1" to-layer="656" to-port="1"/>
		<edge from-layer="653" from-port="1" to-layer="656" to-port="2"/>
		<edge from-layer="654" from-port="1" to-layer="656" to-port="3"/>
		<edge from-layer="655" from-port="1" to-layer="656" to-port="4"/>
		<edge from-layer="657" from-port="1" to-layer="658" to-port="0"/>
		<edge from-layer="658" from-port="1" to-layer="663" to-port="0"/>
		<edge from-layer="659" from-port="1" to-layer="663" to-port="1"/>
		<edge from-layer="660" from-port="1" to-layer="663" to-port="2"/>
		<edge from-layer="661" from-port="1" to-layer="663" to-port="3"/>
		<edge from-layer="662" from-port="1" to-layer="663" to-port="4"/>
		<edge from-layer="656" from-port="5" to-layer="664" to-port="0"/>
		<edge from-layer="663" from-port="5" to-layer="664" to-port="1"/>
		<edge from-layer="664" from-port="2" to-layer="666" to-port="0"/>
		<edge from-layer="665" from-port="1" to-layer="666" to-port="1"/>
		<edge from-layer="666" from-port="2" to-layer="667" to-port="0"/>
		<edge from-layer="667" from-port="1" to-layer="672" to-port="0"/>
		<edge from-layer="668" from-port="1" to-layer="672" to-port="1"/>
		<edge from-layer="669" from-port="1" to-layer="672" to-port="2"/>
		<edge from-layer="670" from-port="1" to-layer="672" to-port="3"/>
		<edge from-layer="671" from-port="1" to-layer="672" to-port="4"/>
		<edge from-layer="673" from-port="1" to-layer="674" to-port="0"/>
		<edge from-layer="674" from-port="1" to-layer="679" to-port="0"/>
		<edge from-layer="675" from-port="1" to-layer="679" to-port="1"/>
		<edge from-layer="676" from-port="1" to-layer="679" to-port="2"/>
		<edge from-layer="677" from-port="1" to-layer="679" to-port="3"/>
		<edge from-layer="678" from-port="1" to-layer="679" to-port="4"/>
		<edge from-layer="672" from-port="5" to-layer="680" to-port="0"/>
		<edge from-layer="679" from-port="5" to-layer="680" to-port="1"/>
		<edge from-layer="680" from-port="2" to-layer="682" to-port="0"/>
		<edge from-layer="681" from-port="1" to-layer="682" to-port="1"/>
		<edge from-layer="682" from-port="2" to-layer="683" to-port="0"/>
		<edge from-layer="683" from-port="1" to-layer="688" to-port="0"/>
		<edge from-layer="684" from-port="1" to-layer="688" to-port="1"/>
		<edge from-layer="685" from-port="1" to-layer="688" to-port="2"/>
		<edge from-layer="686" from-port="1" to-layer="688" to-port="3"/>
		<edge from-layer="687" from-port="1" to-layer="688" to-port="4"/>
		<edge from-layer="689" from-port="1" to-layer="690" to-port="0"/>
		<edge from-layer="690" from-port="1" to-layer="695" to-port="0"/>
		<edge from-layer="691" from-port="1" to-layer="695" to-port="1"/>
		<edge from-layer="692" from-port="1" to-layer="695" to-port="2"/>
		<edge from-layer="693" from-port="1" to-layer="695" to-port="3"/>
		<edge from-layer="694" from-port="1" to-layer="695" to-port="4"/>
		<edge from-layer="688" from-port="5" to-layer="696" to-port="0"/>
		<edge from-layer="695" from-port="5" to-layer="696" to-port="1"/>
		<edge from-layer="696" from-port="2" to-layer="698" to-port="0"/>
		<edge from-layer="697" from-port="1" to-layer="698" to-port="1"/>
		<edge from-layer="698" from-port="2" to-layer="703" to-port="0"/>
		<edge from-layer="699" from-port="1" to-layer="703" to-port="1"/>
		<edge from-layer="700" from-port="1" to-layer="703" to-port="2"/>
		<edge from-layer="701" from-port="1" to-layer="703" to-port="3"/>
		<edge from-layer="702" from-port="1" to-layer="703" to-port="4"/>
		<edge from-layer="703" from-port="5" to-layer="704" to-port="0"/>
		<edge from-layer="656" from-port="5" to-layer="704" to-port="1"/>
		<edge from-layer="704" from-port="2" to-layer="705" to-port="0"/>
		<edge from-layer="705" from-port="1" to-layer="710" to-port="0"/>
		<edge from-layer="706" from-port="1" to-layer="710" to-port="1"/>
		<edge from-layer="707" from-port="1" to-layer="710" to-port="2"/>
		<edge from-layer="708" from-port="1" to-layer="710" to-port="3"/>
		<edge from-layer="709" from-port="1" to-layer="710" to-port="4"/>
		<edge from-layer="711" from-port="1" to-layer="712" to-port="0"/>
		<edge from-layer="712" from-port="1" to-layer="717" to-port="0"/>
		<edge from-layer="713" from-port="1" to-layer="717" to-port="1"/>
		<edge from-layer="714" from-port="1" to-layer="717" to-port="2"/>
		<edge from-layer="715" from-port="1" to-layer="717" to-port="3"/>
		<edge from-layer="716" from-port="1" to-layer="717" to-port="4"/>
		<edge from-layer="710" from-port="5" to-layer="718" to-port="0"/>
		<edge from-layer="717" from-port="5" to-layer="718" to-port="1"/>
		<edge from-layer="718" from-port="2" to-layer="720" to-port="0"/>
		<edge from-layer="719" from-port="1" to-layer="720" to-port="1"/>
		<edge from-layer="720" from-port="2" to-layer="721" to-port="0"/>
		<edge from-layer="721" from-port="1" to-layer="726" to-port="0"/>
		<edge from-layer="722" from-port="1" to-layer="726" to-port="1"/>
		<edge from-layer="723" from-port="1" to-layer="726" to-port="2"/>
		<edge from-layer="724" from-port="1" to-layer="726" to-port="3"/>
		<edge from-layer="725" from-port="1" to-layer="726" to-port="4"/>
		<edge from-layer="727" from-port="1" to-layer="728" to-port="0"/>
		<edge from-layer="728" from-port="1" to-layer="733" to-port="0"/>
		<edge from-layer="729" from-port="1" to-layer="733" to-port="1"/>
		<edge from-layer="730" from-port="1" to-layer="733" to-port="2"/>
		<edge from-layer="731" from-port="1" to-layer="733" to-port="3"/>
		<edge from-layer="732" from-port="1" to-layer="733" to-port="4"/>
		<edge from-layer="726" from-port="5" to-layer="734" to-port="0"/>
		<edge from-layer="733" from-port="5" to-layer="734" to-port="1"/>
		<edge from-layer="734" from-port="2" to-layer="736" to-port="0"/>
		<edge from-layer="735" from-port="1" to-layer="736" to-port="1"/>
		<edge from-layer="736" from-port="2" to-layer="737" to-port="0"/>
		<edge from-layer="737" from-port="1" to-layer="742" to-port="0"/>
		<edge from-layer="738" from-port="1" to-layer="742" to-port="1"/>
		<edge from-layer="739" from-port="1" to-layer="742" to-port="2"/>
		<edge from-layer="740" from-port="1" to-layer="742" to-port="3"/>
		<edge from-layer="741" from-port="1" to-layer="742" to-port="4"/>
		<edge from-layer="743" from-port="1" to-layer="744" to-port="0"/>
		<edge from-layer="744" from-port="1" to-layer="749" to-port="0"/>
		<edge from-layer="745" from-port="1" to-layer="749" to-port="1"/>
		<edge from-layer="746" from-port="1" to-layer="749" to-port="2"/>
		<edge from-layer="747" from-port="1" to-layer="749" to-port="3"/>
		<edge from-layer="748" from-port="1" to-layer="749" to-port="4"/>
		<edge from-layer="742" from-port="5" to-layer="750" to-port="0"/>
		<edge from-layer="749" from-port="5" to-layer="750" to-port="1"/>
		<edge from-layer="750" from-port="2" to-layer="752" to-port="0"/>
		<edge from-layer="751" from-port="1" to-layer="752" to-port="1"/>
		<edge from-layer="752" from-port="2" to-layer="757" to-port="0"/>
		<edge from-layer="753" from-port="1" to-layer="757" to-port="1"/>
		<edge from-layer="754" from-port="1" to-layer="757" to-port="2"/>
		<edge from-layer="755" from-port="1" to-layer="757" to-port="3"/>
		<edge from-layer="756" from-port="1" to-layer="757" to-port="4"/>
		<edge from-layer="757" from-port="5" to-layer="758" to-port="0"/>
		<edge from-layer="710" from-port="5" to-layer="758" to-port="1"/>
		<edge from-layer="758" from-port="2" to-layer="759" to-port="0"/>
		<edge from-layer="759" from-port="1" to-layer="764" to-port="0"/>
		<edge from-layer="760" from-port="1" to-layer="764" to-port="1"/>
		<edge from-layer="761" from-port="1" to-layer="764" to-port="2"/>
		<edge from-layer="762" from-port="1" to-layer="764" to-port="3"/>
		<edge from-layer="763" from-port="1" to-layer="764" to-port="4"/>
		<edge from-layer="765" from-port="1" to-layer="766" to-port="0"/>
		<edge from-layer="766" from-port="1" to-layer="771" to-port="0"/>
		<edge from-layer="767" from-port="1" to-layer="771" to-port="1"/>
		<edge from-layer="768" from-port="1" to-layer="771" to-port="2"/>
		<edge from-layer="769" from-port="1" to-layer="771" to-port="3"/>
		<edge from-layer="770" from-port="1" to-layer="771" to-port="4"/>
		<edge from-layer="764" from-port="5" to-layer="772" to-port="0"/>
		<edge from-layer="771" from-port="5" to-layer="772" to-port="1"/>
		<edge from-layer="772" from-port="2" to-layer="774" to-port="0"/>
		<edge from-layer="773" from-port="1" to-layer="774" to-port="1"/>
		<edge from-layer="774" from-port="2" to-layer="775" to-port="0"/>
		<edge from-layer="775" from-port="1" to-layer="780" to-port="0"/>
		<edge from-layer="776" from-port="1" to-layer="780" to-port="1"/>
		<edge from-layer="777" from-port="1" to-layer="780" to-port="2"/>
		<edge from-layer="778" from-port="1" to-layer="780" to-port="3"/>
		<edge from-layer="779" from-port="1" to-layer="780" to-port="4"/>
		<edge from-layer="781" from-port="1" to-layer="782" to-port="0"/>
		<edge from-layer="782" from-port="1" to-layer="787" to-port="0"/>
		<edge from-layer="783" from-port="1" to-layer="787" to-port="1"/>
		<edge from-layer="784" from-port="1" to-layer="787" to-port="2"/>
		<edge from-layer="785" from-port="1" to-layer="787" to-port="3"/>
		<edge from-layer="786" from-port="1" to-layer="787" to-port="4"/>
		<edge from-layer="780" from-port="5" to-layer="788" to-port="0"/>
		<edge from-layer="787" from-port="5" to-layer="788" to-port="1"/>
		<edge from-layer="788" from-port="2" to-layer="790" to-port="0"/>
		<edge from-layer="789" from-port="1" to-layer="790" to-port="1"/>
		<edge from-layer="790" from-port="2" to-layer="791" to-port="0"/>
		<edge from-layer="791" from-port="1" to-layer="796" to-port="0"/>
		<edge from-layer="792" from-port="1" to-layer="796" to-port="1"/>
		<edge from-layer="793" from-port="1" to-layer="796" to-port="2"/>
		<edge from-layer="794" from-port="1" to-layer="796" to-port="3"/>
		<edge from-layer="795" from-port="1" to-layer="796" to-port="4"/>
		<edge from-layer="797" from-port="1" to-layer="798" to-port="0"/>
		<edge from-layer="798" from-port="1" to-layer="803" to-port="0"/>
		<edge from-layer="799" from-port="1" to-layer="803" to-port="1"/>
		<edge from-layer="800" from-port="1" to-layer="803" to-port="2"/>
		<edge from-layer="801" from-port="1" to-layer="803" to-port="3"/>
		<edge from-layer="802" from-port="1" to-layer="803" to-port="4"/>
		<edge from-layer="796" from-port="5" to-layer="804" to-port="0"/>
		<edge from-layer="803" from-port="5" to-layer="804" to-port="1"/>
		<edge from-layer="804" from-port="2" to-layer="806" to-port="0"/>
		<edge from-layer="805" from-port="1" to-layer="806" to-port="1"/>
		<edge from-layer="806" from-port="2" to-layer="811" to-port="0"/>
		<edge from-layer="807" from-port="1" to-layer="811" to-port="1"/>
		<edge from-layer="808" from-port="1" to-layer="811" to-port="2"/>
		<edge from-layer="809" from-port="1" to-layer="811" to-port="3"/>
		<edge from-layer="810" from-port="1" to-layer="811" to-port="4"/>
		<edge from-layer="811" from-port="5" to-layer="812" to-port="0"/>
		<edge from-layer="764" from-port="5" to-layer="812" to-port="1"/>
		<edge from-layer="812" from-port="2" to-layer="813" to-port="0"/>
		<edge from-layer="813" from-port="1" to-layer="818" to-port="0"/>
		<edge from-layer="814" from-port="1" to-layer="818" to-port="1"/>
		<edge from-layer="815" from-port="1" to-layer="818" to-port="2"/>
		<edge from-layer="816" from-port="1" to-layer="818" to-port="3"/>
		<edge from-layer="817" from-port="1" to-layer="818" to-port="4"/>
		<edge from-layer="819" from-port="1" to-layer="820" to-port="0"/>
		<edge from-layer="820" from-port="1" to-layer="825" to-port="0"/>
		<edge from-layer="821" from-port="1" to-layer="825" to-port="1"/>
		<edge from-layer="822" from-port="1" to-layer="825" to-port="2"/>
		<edge from-layer="823" from-port="1" to-layer="825" to-port="3"/>
		<edge from-layer="824" from-port="1" to-layer="825" to-port="4"/>
		<edge from-layer="818" from-port="5" to-layer="826" to-port="0"/>
		<edge from-layer="825" from-port="5" to-layer="826" to-port="1"/>
		<edge from-layer="826" from-port="2" to-layer="828" to-port="0"/>
		<edge from-layer="827" from-port="1" to-layer="828" to-port="1"/>
		<edge from-layer="828" from-port="2" to-layer="829" to-port="0"/>
		<edge from-layer="829" from-port="1" to-layer="834" to-port="0"/>
		<edge from-layer="830" from-port="1" to-layer="834" to-port="1"/>
		<edge from-layer="831" from-port="1" to-layer="834" to-port="2"/>
		<edge from-layer="832" from-port="1" to-layer="834" to-port="3"/>
		<edge from-layer="833" from-port="1" to-layer="834" to-port="4"/>
		<edge from-layer="835" from-port="1" to-layer="836" to-port="0"/>
		<edge from-layer="836" from-port="1" to-layer="841" to-port="0"/>
		<edge from-layer="837" from-port="1" to-layer="841" to-port="1"/>
		<edge from-layer="838" from-port="1" to-layer="841" to-port="2"/>
		<edge from-layer="839" from-port="1" to-layer="841" to-port="3"/>
		<edge from-layer="840" from-port="1" to-layer="841" to-port="4"/>
		<edge from-layer="834" from-port="5" to-layer="842" to-port="0"/>
		<edge from-layer="841" from-port="5" to-layer="842" to-port="1"/>
		<edge from-layer="842" from-port="2" to-layer="844" to-port="0"/>
		<edge from-layer="843" from-port="1" to-layer="844" to-port="1"/>
		<edge from-layer="844" from-port="2" to-layer="845" to-port="0"/>
		<edge from-layer="845" from-port="1" to-layer="850" to-port="0"/>
		<edge from-layer="846" from-port="1" to-layer="850" to-port="1"/>
		<edge from-layer="847" from-port="1" to-layer="850" to-port="2"/>
		<edge from-layer="848" from-port="1" to-layer="850" to-port="3"/>
		<edge from-layer="849" from-port="1" to-layer="850" to-port="4"/>
		<edge from-layer="851" from-port="1" to-layer="852" to-port="0"/>
		<edge from-layer="852" from-port="1" to-layer="857" to-port="0"/>
		<edge from-layer="853" from-port="1" to-layer="857" to-port="1"/>
		<edge from-layer="854" from-port="1" to-layer="857" to-port="2"/>
		<edge from-layer="855" from-port="1" to-layer="857" to-port="3"/>
		<edge from-layer="856" from-port="1" to-layer="857" to-port="4"/>
		<edge from-layer="850" from-port="5" to-layer="858" to-port="0"/>
		<edge from-layer="857" from-port="5" to-layer="858" to-port="1"/>
		<edge from-layer="858" from-port="2" to-layer="860" to-port="0"/>
		<edge from-layer="859" from-port="1" to-layer="860" to-port="1"/>
		<edge from-layer="860" from-port="2" to-layer="865" to-port="0"/>
		<edge from-layer="861" from-port="1" to-layer="865" to-port="1"/>
		<edge from-layer="862" from-port="1" to-layer="865" to-port="2"/>
		<edge from-layer="863" from-port="1" to-layer="865" to-port="3"/>
		<edge from-layer="864" from-port="1" to-layer="865" to-port="4"/>
		<edge from-layer="866" from-port="1" to-layer="867" to-port="0"/>
		<edge from-layer="867" from-port="1" to-layer="872" to-port="0"/>
		<edge from-layer="868" from-port="1" to-layer="872" to-port="1"/>
		<edge from-layer="869" from-port="1" to-layer="872" to-port="2"/>
		<edge from-layer="870" from-port="1" to-layer="872" to-port="3"/>
		<edge from-layer="871" from-port="1" to-layer="872" to-port="4"/>
		<edge from-layer="818" from-port="5" to-layer="873" to-port="0"/>
		<edge from-layer="872" from-port="5" to-layer="873" to-port="1"/>
		<edge from-layer="873" from-port="2" to-layer="875" to-port="0"/>
		<edge from-layer="874" from-port="1" to-layer="875" to-port="1"/>
		<edge from-layer="875" from-port="2" to-layer="880" to-port="0"/>
		<edge from-layer="876" from-port="1" to-layer="880" to-port="1"/>
		<edge from-layer="877" from-port="1" to-layer="880" to-port="2"/>
		<edge from-layer="878" from-port="1" to-layer="880" to-port="3"/>
		<edge from-layer="879" from-port="1" to-layer="880" to-port="4"/>
		<edge from-layer="865" from-port="5" to-layer="881" to-port="0"/>
		<edge from-layer="880" from-port="5" to-layer="881" to-port="1"/>
		<edge from-layer="881" from-port="2" to-layer="882" to-port="0"/>
		<edge from-layer="882" from-port="1" to-layer="887" to-port="0"/>
		<edge from-layer="883" from-port="1" to-layer="887" to-port="1"/>
		<edge from-layer="884" from-port="1" to-layer="887" to-port="2"/>
		<edge from-layer="885" from-port="1" to-layer="887" to-port="3"/>
		<edge from-layer="886" from-port="1" to-layer="887" to-port="4"/>
		<edge from-layer="888" from-port="1" to-layer="889" to-port="0"/>
		<edge from-layer="889" from-port="1" to-layer="894" to-port="0"/>
		<edge from-layer="890" from-port="1" to-layer="894" to-port="1"/>
		<edge from-layer="891" from-port="1" to-layer="894" to-port="2"/>
		<edge from-layer="892" from-port="1" to-layer="894" to-port="3"/>
		<edge from-layer="893" from-port="1" to-layer="894" to-port="4"/>
		<edge from-layer="887" from-port="5" to-layer="895" to-port="0"/>
		<edge from-layer="894" from-port="5" to-layer="895" to-port="1"/>
		<edge from-layer="895" from-port="2" to-layer="897" to-port="0"/>
		<edge from-layer="896" from-port="1" to-layer="897" to-port="1"/>
		<edge from-layer="897" from-port="2" to-layer="898" to-port="0"/>
		<edge from-layer="898" from-port="1" to-layer="903" to-port="0"/>
		<edge from-layer="899" from-port="1" to-layer="903" to-port="1"/>
		<edge from-layer="900" from-port="1" to-layer="903" to-port="2"/>
		<edge from-layer="901" from-port="1" to-layer="903" to-port="3"/>
		<edge from-layer="902" from-port="1" to-layer="903" to-port="4"/>
		<edge from-layer="904" from-port="1" to-layer="905" to-port="0"/>
		<edge from-layer="905" from-port="1" to-layer="910" to-port="0"/>
		<edge from-layer="906" from-port="1" to-layer="910" to-port="1"/>
		<edge from-layer="907" from-port="1" to-layer="910" to-port="2"/>
		<edge from-layer="908" from-port="1" to-layer="910" to-port="3"/>
		<edge from-layer="909" from-port="1" to-layer="910" to-port="4"/>
		<edge from-layer="903" from-port="5" to-layer="911" to-port="0"/>
		<edge from-layer="910" from-port="5" to-layer="911" to-port="1"/>
		<edge from-layer="911" from-port="2" to-layer="913" to-port="0"/>
		<edge from-layer="912" from-port="1" to-layer="913" to-port="1"/>
		<edge from-layer="913" from-port="2" to-layer="914" to-port="0"/>
		<edge from-layer="914" from-port="1" to-layer="919" to-port="0"/>
		<edge from-layer="915" from-port="1" to-layer="919" to-port="1"/>
		<edge from-layer="916" from-port="1" to-layer="919" to-port="2"/>
		<edge from-layer="917" from-port="1" to-layer="919" to-port="3"/>
		<edge from-layer="918" from-port="1" to-layer="919" to-port="4"/>
		<edge from-layer="920" from-port="1" to-layer="921" to-port="0"/>
		<edge from-layer="921" from-port="1" to-layer="926" to-port="0"/>
		<edge from-layer="922" from-port="1" to-layer="926" to-port="1"/>
		<edge from-layer="923" from-port="1" to-layer="926" to-port="2"/>
		<edge from-layer="924" from-port="1" to-layer="926" to-port="3"/>
		<edge from-layer="925" from-port="1" to-layer="926" to-port="4"/>
		<edge from-layer="919" from-port="5" to-layer="927" to-port="0"/>
		<edge from-layer="926" from-port="5" to-layer="927" to-port="1"/>
		<edge from-layer="927" from-port="2" to-layer="929" to-port="0"/>
		<edge from-layer="928" from-port="1" to-layer="929" to-port="1"/>
		<edge from-layer="929" from-port="2" to-layer="934" to-port="0"/>
		<edge from-layer="930" from-port="1" to-layer="934" to-port="1"/>
		<edge from-layer="931" from-port="1" to-layer="934" to-port="2"/>
		<edge from-layer="932" from-port="1" to-layer="934" to-port="3"/>
		<edge from-layer="933" from-port="1" to-layer="934" to-port="4"/>
		<edge from-layer="934" from-port="5" to-layer="935" to-port="0"/>
		<edge from-layer="887" from-port="5" to-layer="935" to-port="1"/>
		<edge from-layer="935" from-port="2" to-layer="936" to-port="0"/>
		<edge from-layer="936" from-port="1" to-layer="941" to-port="0"/>
		<edge from-layer="937" from-port="1" to-layer="941" to-port="1"/>
		<edge from-layer="938" from-port="1" to-layer="941" to-port="2"/>
		<edge from-layer="939" from-port="1" to-layer="941" to-port="3"/>
		<edge from-layer="940" from-port="1" to-layer="941" to-port="4"/>
		<edge from-layer="942" from-port="1" to-layer="943" to-port="0"/>
		<edge from-layer="943" from-port="1" to-layer="948" to-port="0"/>
		<edge from-layer="944" from-port="1" to-layer="948" to-port="1"/>
		<edge from-layer="945" from-port="1" to-layer="948" to-port="2"/>
		<edge from-layer="946" from-port="1" to-layer="948" to-port="3"/>
		<edge from-layer="947" from-port="1" to-layer="948" to-port="4"/>
		<edge from-layer="941" from-port="5" to-layer="949" to-port="0"/>
		<edge from-layer="948" from-port="5" to-layer="949" to-port="1"/>
		<edge from-layer="949" from-port="2" to-layer="951" to-port="0"/>
		<edge from-layer="950" from-port="1" to-layer="951" to-port="1"/>
		<edge from-layer="951" from-port="2" to-layer="952" to-port="0"/>
		<edge from-layer="952" from-port="1" to-layer="957" to-port="0"/>
		<edge from-layer="953" from-port="1" to-layer="957" to-port="1"/>
		<edge from-layer="954" from-port="1" to-layer="957" to-port="2"/>
		<edge from-layer="955" from-port="1" to-layer="957" to-port="3"/>
		<edge from-layer="956" from-port="1" to-layer="957" to-port="4"/>
		<edge from-layer="958" from-port="1" to-layer="959" to-port="0"/>
		<edge from-layer="959" from-port="1" to-layer="964" to-port="0"/>
		<edge from-layer="960" from-port="1" to-layer="964" to-port="1"/>
		<edge from-layer="961" from-port="1" to-layer="964" to-port="2"/>
		<edge from-layer="962" from-port="1" to-layer="964" to-port="3"/>
		<edge from-layer="963" from-port="1" to-layer="964" to-port="4"/>
		<edge from-layer="957" from-port="5" to-layer="965" to-port="0"/>
		<edge from-layer="964" from-port="5" to-layer="965" to-port="1"/>
		<edge from-layer="965" from-port="2" to-layer="967" to-port="0"/>
		<edge from-layer="966" from-port="1" to-layer="967" to-port="1"/>
		<edge from-layer="967" from-port="2" to-layer="968" to-port="0"/>
		<edge from-layer="968" from-port="1" to-layer="973" to-port="0"/>
		<edge from-layer="969" from-port="1" to-layer="973" to-port="1"/>
		<edge from-layer="970" from-port="1" to-layer="973" to-port="2"/>
		<edge from-layer="971" from-port="1" to-layer="973" to-port="3"/>
		<edge from-layer="972" from-port="1" to-layer="973" to-port="4"/>
		<edge from-layer="974" from-port="1" to-layer="975" to-port="0"/>
		<edge from-layer="975" from-port="1" to-layer="980" to-port="0"/>
		<edge from-layer="976" from-port="1" to-layer="980" to-port="1"/>
		<edge from-layer="977" from-port="1" to-layer="980" to-port="2"/>
		<edge from-layer="978" from-port="1" to-layer="980" to-port="3"/>
		<edge from-layer="979" from-port="1" to-layer="980" to-port="4"/>
		<edge from-layer="973" from-port="5" to-layer="981" to-port="0"/>
		<edge from-layer="980" from-port="5" to-layer="981" to-port="1"/>
		<edge from-layer="981" from-port="2" to-layer="983" to-port="0"/>
		<edge from-layer="982" from-port="1" to-layer="983" to-port="1"/>
		<edge from-layer="983" from-port="2" to-layer="988" to-port="0"/>
		<edge from-layer="984" from-port="1" to-layer="988" to-port="1"/>
		<edge from-layer="985" from-port="1" to-layer="988" to-port="2"/>
		<edge from-layer="986" from-port="1" to-layer="988" to-port="3"/>
		<edge from-layer="987" from-port="1" to-layer="988" to-port="4"/>
		<edge from-layer="988" from-port="5" to-layer="989" to-port="0"/>
		<edge from-layer="941" from-port="5" to-layer="989" to-port="1"/>
		<edge from-layer="989" from-port="2" to-layer="990" to-port="0"/>
		<edge from-layer="990" from-port="1" to-layer="995" to-port="0"/>
		<edge from-layer="991" from-port="1" to-layer="995" to-port="1"/>
		<edge from-layer="992" from-port="1" to-layer="995" to-port="2"/>
		<edge from-layer="993" from-port="1" to-layer="995" to-port="3"/>
		<edge from-layer="994" from-port="1" to-layer="995" to-port="4"/>
		<edge from-layer="995" from-port="5" to-layer="996" to-port="0"/>
		<edge from-layer="996" from-port="1" to-layer="1001" to-port="0"/>
		<edge from-layer="997" from-port="1" to-layer="1001" to-port="1"/>
		<edge from-layer="998" from-port="1" to-layer="1001" to-port="2"/>
		<edge from-layer="999" from-port="1" to-layer="1001" to-port="3"/>
		<edge from-layer="1000" from-port="1" to-layer="1001" to-port="4"/>
		<edge from-layer="1001" from-port="5" to-layer="1003" to-port="0"/>
		<edge from-layer="1002" from-port="1" to-layer="1003" to-port="1"/>
		<edge from-layer="1003" from-port="2" to-layer="1008" to-port="0"/>
		<edge from-layer="1004" from-port="1" to-layer="1008" to-port="1"/>
		<edge from-layer="1005" from-port="1" to-layer="1008" to-port="2"/>
		<edge from-layer="1006" from-port="1" to-layer="1008" to-port="3"/>
		<edge from-layer="1007" from-port="1" to-layer="1008" to-port="4"/>
		<edge from-layer="995" from-port="5" to-layer="1009" to-port="0"/>
		<edge from-layer="1008" from-port="5" to-layer="1009" to-port="1"/>
		<edge from-layer="1009" from-port="2" to-layer="1014" to-port="0"/>
		<edge from-layer="1010" from-port="1" to-layer="1014" to-port="1"/>
		<edge from-layer="1011" from-port="1" to-layer="1014" to-port="2"/>
		<edge from-layer="1012" from-port="1" to-layer="1014" to-port="3"/>
		<edge from-layer="1013" from-port="1" to-layer="1014" to-port="4"/>
		<edge from-layer="995" from-port="5" to-layer="1015" to-port="0"/>
		<edge from-layer="1015" from-port="1" to-layer="1020" to-port="0"/>
		<edge from-layer="1016" from-port="1" to-layer="1020" to-port="1"/>
		<edge from-layer="1017" from-port="1" to-layer="1020" to-port="2"/>
		<edge from-layer="1018" from-port="1" to-layer="1020" to-port="3"/>
		<edge from-layer="1019" from-port="1" to-layer="1020" to-port="4"/>
		<edge from-layer="1020" from-port="5" to-layer="1022" to-port="0"/>
		<edge from-layer="1021" from-port="1" to-layer="1022" to-port="1"/>
		<edge from-layer="1022" from-port="2" to-layer="1027" to-port="0"/>
		<edge from-layer="1023" from-port="1" to-layer="1027" to-port="1"/>
		<edge from-layer="1024" from-port="1" to-layer="1027" to-port="2"/>
		<edge from-layer="1025" from-port="1" to-layer="1027" to-port="3"/>
		<edge from-layer="1026" from-port="1" to-layer="1027" to-port="4"/>
		<edge from-layer="1014" from-port="5" to-layer="1028" to-port="0"/>
		<edge from-layer="1027" from-port="5" to-layer="1028" to-port="1"/>
		<edge from-layer="1028" from-port="2" to-layer="1033" to-port="0"/>
		<edge from-layer="1029" from-port="1" to-layer="1033" to-port="1"/>
		<edge from-layer="1030" from-port="1" to-layer="1033" to-port="2"/>
		<edge from-layer="1031" from-port="1" to-layer="1033" to-port="3"/>
		<edge from-layer="1032" from-port="1" to-layer="1033" to-port="4"/>
		<edge from-layer="995" from-port="5" to-layer="1034" to-port="0"/>
		<edge from-layer="1034" from-port="1" to-layer="1039" to-port="0"/>
		<edge from-layer="1035" from-port="1" to-layer="1039" to-port="1"/>
		<edge from-layer="1036" from-port="1" to-layer="1039" to-port="2"/>
		<edge from-layer="1037" from-port="1" to-layer="1039" to-port="3"/>
		<edge from-layer="1038" from-port="1" to-layer="1039" to-port="4"/>
		<edge from-layer="1039" from-port="5" to-layer="1041" to-port="0"/>
		<edge from-layer="1040" from-port="1" to-layer="1041" to-port="1"/>
		<edge from-layer="1041" from-port="2" to-layer="1046" to-port="0"/>
		<edge from-layer="1042" from-port="1" to-layer="1046" to-port="1"/>
		<edge from-layer="1043" from-port="1" to-layer="1046" to-port="2"/>
		<edge from-layer="1044" from-port="1" to-layer="1046" to-port="3"/>
		<edge from-layer="1045" from-port="1" to-layer="1046" to-port="4"/>
		<edge from-layer="1033" from-port="5" to-layer="1047" to-port="0"/>
		<edge from-layer="1046" from-port="5" to-layer="1047" to-port="1"/>
		<edge from-layer="1047" from-port="2" to-layer="1052" to-port="0"/>
		<edge from-layer="1048" from-port="1" to-layer="1052" to-port="1"/>
		<edge from-layer="1049" from-port="1" to-layer="1052" to-port="2"/>
		<edge from-layer="1050" from-port="1" to-layer="1052" to-port="3"/>
		<edge from-layer="1051" from-port="1" to-layer="1052" to-port="4"/>
		<edge from-layer="995" from-port="5" to-layer="1053" to-port="0"/>
		<edge from-layer="1053" from-port="1" to-layer="1058" to-port="0"/>
		<edge from-layer="1054" from-port="1" to-layer="1058" to-port="1"/>
		<edge from-layer="1055" from-port="1" to-layer="1058" to-port="2"/>
		<edge from-layer="1056" from-port="1" to-layer="1058" to-port="3"/>
		<edge from-layer="1057" from-port="1" to-layer="1058" to-port="4"/>
		<edge from-layer="1058" from-port="5" to-layer="1060" to-port="0"/>
		<edge from-layer="1059" from-port="1" to-layer="1060" to-port="1"/>
		<edge from-layer="1060" from-port="2" to-layer="1065" to-port="0"/>
		<edge from-layer="1061" from-port="1" to-layer="1065" to-port="1"/>
		<edge from-layer="1062" from-port="1" to-layer="1065" to-port="2"/>
		<edge from-layer="1063" from-port="1" to-layer="1065" to-port="3"/>
		<edge from-layer="1064" from-port="1" to-layer="1065" to-port="4"/>
		<edge from-layer="1052" from-port="5" to-layer="1066" to-port="0"/>
		<edge from-layer="1065" from-port="5" to-layer="1066" to-port="1"/>
		<edge from-layer="1066" from-port="2" to-layer="1071" to-port="0"/>
		<edge from-layer="1067" from-port="1" to-layer="1071" to-port="1"/>
		<edge from-layer="1068" from-port="1" to-layer="1071" to-port="2"/>
		<edge from-layer="1069" from-port="1" to-layer="1071" to-port="3"/>
		<edge from-layer="1070" from-port="1" to-layer="1071" to-port="4"/>
		<edge from-layer="1072" from-port="1" to-layer="1073" to-port="0"/>
		<edge from-layer="1073" from-port="1" to-layer="1078" to-port="0"/>
		<edge from-layer="1074" from-port="1" to-layer="1078" to-port="1"/>
		<edge from-layer="1075" from-port="1" to-layer="1078" to-port="2"/>
		<edge from-layer="1076" from-port="1" to-layer="1078" to-port="3"/>
		<edge from-layer="1077" from-port="1" to-layer="1078" to-port="4"/>
		<edge from-layer="1071" from-port="5" to-layer="1079" to-port="0"/>
		<edge from-layer="1078" from-port="5" to-layer="1079" to-port="1"/>
		<edge from-layer="1079" from-port="2" to-layer="1081" to-port="0"/>
		<edge from-layer="1080" from-port="1" to-layer="1081" to-port="1"/>
		<edge from-layer="1081" from-port="2" to-layer="1082" to-port="0"/>
		<edge from-layer="1082" from-port="1" to-layer="1087" to-port="0"/>
		<edge from-layer="1083" from-port="1" to-layer="1087" to-port="1"/>
		<edge from-layer="1084" from-port="1" to-layer="1087" to-port="2"/>
		<edge from-layer="1085" from-port="1" to-layer="1087" to-port="3"/>
		<edge from-layer="1086" from-port="1" to-layer="1087" to-port="4"/>
		<edge from-layer="1087" from-port="5" to-layer="1089" to-port="0"/>
		<edge from-layer="1088" from-port="1" to-layer="1089" to-port="1"/>
		<edge from-layer="1089" from-port="2" to-layer="1094" to-port="0"/>
		<edge from-layer="1090" from-port="1" to-layer="1094" to-port="1"/>
		<edge from-layer="1091" from-port="1" to-layer="1094" to-port="2"/>
		<edge from-layer="1092" from-port="1" to-layer="1094" to-port="3"/>
		<edge from-layer="1093" from-port="1" to-layer="1094" to-port="4"/>
		<edge from-layer="1095" from-port="1" to-layer="1096" to-port="0"/>
		<edge from-layer="1096" from-port="1" to-layer="1101" to-port="0"/>
		<edge from-layer="1097" from-port="1" to-layer="1101" to-port="1"/>
		<edge from-layer="1098" from-port="1" to-layer="1101" to-port="2"/>
		<edge from-layer="1099" from-port="1" to-layer="1101" to-port="3"/>
		<edge from-layer="1100" from-port="1" to-layer="1101" to-port="4"/>
		<edge from-layer="1094" from-port="5" to-layer="1102" to-port="0"/>
		<edge from-layer="1101" from-port="5" to-layer="1102" to-port="1"/>
		<edge from-layer="1102" from-port="2" to-layer="1104" to-port="0"/>
		<edge from-layer="1103" from-port="1" to-layer="1104" to-port="1"/>
		<edge from-layer="1104" from-port="2" to-layer="1109" to-port="0"/>
		<edge from-layer="1105" from-port="1" to-layer="1109" to-port="1"/>
		<edge from-layer="1106" from-port="1" to-layer="1109" to-port="2"/>
		<edge from-layer="1107" from-port="1" to-layer="1109" to-port="3"/>
		<edge from-layer="1108" from-port="1" to-layer="1109" to-port="4"/>
		<edge from-layer="1110" from-port="1" to-layer="1111" to-port="0"/>
		<edge from-layer="1111" from-port="1" to-layer="1116" to-port="0"/>
		<edge from-layer="1112" from-port="1" to-layer="1116" to-port="1"/>
		<edge from-layer="1113" from-port="1" to-layer="1116" to-port="2"/>
		<edge from-layer="1114" from-port="1" to-layer="1116" to-port="3"/>
		<edge from-layer="1115" from-port="1" to-layer="1116" to-port="4"/>
		<edge from-layer="311" from-port="5" to-layer="1117" to-port="0"/>
		<edge from-layer="1116" from-port="5" to-layer="1117" to-port="1"/>
		<edge from-layer="1117" from-port="2" to-layer="1119" to-port="0"/>
		<edge from-layer="1118" from-port="1" to-layer="1119" to-port="1"/>
		<edge from-layer="1119" from-port="2" to-layer="1124" to-port="0"/>
		<edge from-layer="1120" from-port="1" to-layer="1124" to-port="1"/>
		<edge from-layer="1121" from-port="1" to-layer="1124" to-port="2"/>
		<edge from-layer="1122" from-port="1" to-layer="1124" to-port="3"/>
		<edge from-layer="1123" from-port="1" to-layer="1124" to-port="4"/>
		<edge from-layer="1109" from-port="5" to-layer="1125" to-port="0"/>
		<edge from-layer="1124" from-port="5" to-layer="1125" to-port="1"/>
		<edge from-layer="1125" from-port="2" to-layer="1126" to-port="0"/>
		<edge from-layer="1126" from-port="1" to-layer="1131" to-port="0"/>
		<edge from-layer="1127" from-port="1" to-layer="1131" to-port="1"/>
		<edge from-layer="1128" from-port="1" to-layer="1131" to-port="2"/>
		<edge from-layer="1129" from-port="1" to-layer="1131" to-port="3"/>
		<edge from-layer="1130" from-port="1" to-layer="1131" to-port="4"/>
		<edge from-layer="1131" from-port="5" to-layer="1133" to-port="0"/>
		<edge from-layer="1132" from-port="1" to-layer="1133" to-port="1"/>
		<edge from-layer="1133" from-port="2" to-layer="1138" to-port="0"/>
		<edge from-layer="1134" from-port="1" to-layer="1138" to-port="1"/>
		<edge from-layer="1135" from-port="1" to-layer="1138" to-port="2"/>
		<edge from-layer="1136" from-port="1" to-layer="1138" to-port="3"/>
		<edge from-layer="1137" from-port="1" to-layer="1138" to-port="4"/>
		<edge from-layer="1139" from-port="1" to-layer="1140" to-port="0"/>
		<edge from-layer="1140" from-port="1" to-layer="1145" to-port="0"/>
		<edge from-layer="1141" from-port="1" to-layer="1145" to-port="1"/>
		<edge from-layer="1142" from-port="1" to-layer="1145" to-port="2"/>
		<edge from-layer="1143" from-port="1" to-layer="1145" to-port="3"/>
		<edge from-layer="1144" from-port="1" to-layer="1145" to-port="4"/>
		<edge from-layer="1138" from-port="5" to-layer="1146" to-port="0"/>
		<edge from-layer="1145" from-port="5" to-layer="1146" to-port="1"/>
		<edge from-layer="1146" from-port="2" to-layer="1148" to-port="0"/>
		<edge from-layer="1147" from-port="1" to-layer="1148" to-port="1"/>
		<edge from-layer="1148" from-port="2" to-layer="1153" to-port="0"/>
		<edge from-layer="1149" from-port="1" to-layer="1153" to-port="1"/>
		<edge from-layer="1150" from-port="1" to-layer="1153" to-port="2"/>
		<edge from-layer="1151" from-port="1" to-layer="1153" to-port="3"/>
		<edge from-layer="1152" from-port="1" to-layer="1153" to-port="4"/>
		<edge from-layer="1154" from-port="1" to-layer="1155" to-port="0"/>
		<edge from-layer="1155" from-port="1" to-layer="1160" to-port="0"/>
		<edge from-layer="1156" from-port="1" to-layer="1160" to-port="1"/>
		<edge from-layer="1157" from-port="1" to-layer="1160" to-port="2"/>
		<edge from-layer="1158" from-port="1" to-layer="1160" to-port="3"/>
		<edge from-layer="1159" from-port="1" to-layer="1160" to-port="4"/>
		<edge from-layer="9" from-port="5" to-layer="1161" to-port="0"/>
		<edge from-layer="1160" from-port="5" to-layer="1161" to-port="1"/>
		<edge from-layer="1161" from-port="2" to-layer="1163" to-port="0"/>
		<edge from-layer="1162" from-port="1" to-layer="1163" to-port="1"/>
		<edge from-layer="1163" from-port="2" to-layer="1164" to-port="0"/>
		<edge from-layer="1164" from-port="1" to-layer="1169" to-port="0"/>
		<edge from-layer="1165" from-port="1" to-layer="1169" to-port="1"/>
		<edge from-layer="1166" from-port="1" to-layer="1169" to-port="2"/>
		<edge from-layer="1167" from-port="1" to-layer="1169" to-port="3"/>
		<edge from-layer="1168" from-port="1" to-layer="1169" to-port="4"/>
		<edge from-layer="1170" from-port="1" to-layer="1171" to-port="0"/>
		<edge from-layer="1171" from-port="1" to-layer="1176" to-port="0"/>
		<edge from-layer="1172" from-port="1" to-layer="1176" to-port="1"/>
		<edge from-layer="1173" from-port="1" to-layer="1176" to-port="2"/>
		<edge from-layer="1174" from-port="1" to-layer="1176" to-port="3"/>
		<edge from-layer="1175" from-port="1" to-layer="1176" to-port="4"/>
		<edge from-layer="1169" from-port="5" to-layer="1177" to-port="0"/>
		<edge from-layer="1176" from-port="5" to-layer="1177" to-port="1"/>
		<edge from-layer="1177" from-port="2" to-layer="1179" to-port="0"/>
		<edge from-layer="1178" from-port="1" to-layer="1179" to-port="1"/>
		<edge from-layer="1179" from-port="2" to-layer="1180" to-port="0"/>
		<edge from-layer="1180" from-port="1" to-layer="1185" to-port="0"/>
		<edge from-layer="1181" from-port="1" to-layer="1185" to-port="1"/>
		<edge from-layer="1182" from-port="1" to-layer="1185" to-port="2"/>
		<edge from-layer="1183" from-port="1" to-layer="1185" to-port="3"/>
		<edge from-layer="1184" from-port="1" to-layer="1185" to-port="4"/>
		<edge from-layer="1186" from-port="1" to-layer="1187" to-port="0"/>
		<edge from-layer="1187" from-port="1" to-layer="1192" to-port="0"/>
		<edge from-layer="1188" from-port="1" to-layer="1192" to-port="1"/>
		<edge from-layer="1189" from-port="1" to-layer="1192" to-port="2"/>
		<edge from-layer="1190" from-port="1" to-layer="1192" to-port="3"/>
		<edge from-layer="1191" from-port="1" to-layer="1192" to-port="4"/>
		<edge from-layer="1185" from-port="5" to-layer="1193" to-port="0"/>
		<edge from-layer="1192" from-port="5" to-layer="1193" to-port="1"/>
		<edge from-layer="1193" from-port="2" to-layer="1195" to-port="0"/>
		<edge from-layer="1194" from-port="1" to-layer="1195" to-port="1"/>
		<edge from-layer="1195" from-port="2" to-layer="1196" to-port="0"/>
		<edge from-layer="1196" from-port="1" to-layer="1201" to-port="0"/>
		<edge from-layer="1197" from-port="1" to-layer="1201" to-port="1"/>
		<edge from-layer="1198" from-port="1" to-layer="1201" to-port="2"/>
		<edge from-layer="1199" from-port="1" to-layer="1201" to-port="3"/>
		<edge from-layer="1200" from-port="1" to-layer="1201" to-port="4"/>
		<edge from-layer="1202" from-port="1" to-layer="1203" to-port="0"/>
		<edge from-layer="1203" from-port="1" to-layer="1208" to-port="0"/>
		<edge from-layer="1204" from-port="1" to-layer="1208" to-port="1"/>
		<edge from-layer="1205" from-port="1" to-layer="1208" to-port="2"/>
		<edge from-layer="1206" from-port="1" to-layer="1208" to-port="3"/>
		<edge from-layer="1207" from-port="1" to-layer="1208" to-port="4"/>
		<edge from-layer="1201" from-port="5" to-layer="1209" to-port="0"/>
		<edge from-layer="1208" from-port="5" to-layer="1209" to-port="1"/>
		<edge from-layer="1209" from-port="2" to-layer="1211" to-port="0"/>
		<edge from-layer="1210" from-port="1" to-layer="1211" to-port="1"/>
		<edge from-layer="1211" from-port="2" to-layer="1216" to-port="0"/>
		<edge from-layer="1212" from-port="1" to-layer="1216" to-port="1"/>
		<edge from-layer="1213" from-port="1" to-layer="1216" to-port="2"/>
		<edge from-layer="1214" from-port="1" to-layer="1216" to-port="3"/>
		<edge from-layer="1215" from-port="1" to-layer="1216" to-port="4"/>
		<edge from-layer="1153" from-port="5" to-layer="1217" to-port="0"/>
		<edge from-layer="1216" from-port="5" to-layer="1217" to-port="1"/>
		<edge from-layer="1217" from-port="2" to-layer="1218" to-port="0"/>
		<edge from-layer="1218" from-port="1" to-layer="1223" to-port="0"/>
		<edge from-layer="1219" from-port="1" to-layer="1223" to-port="1"/>
		<edge from-layer="1220" from-port="1" to-layer="1223" to-port="2"/>
		<edge from-layer="1221" from-port="1" to-layer="1223" to-port="3"/>
		<edge from-layer="1222" from-port="1" to-layer="1223" to-port="4"/>
		<edge from-layer="1223" from-port="5" to-layer="1225" to-port="0"/>
		<edge from-layer="1224" from-port="1" to-layer="1225" to-port="1"/>
		<edge from-layer="1225" from-port="2" to-layer="1230" to-port="0"/>
		<edge from-layer="1226" from-port="1" to-layer="1230" to-port="1"/>
		<edge from-layer="1227" from-port="1" to-layer="1230" to-port="2"/>
		<edge from-layer="1228" from-port="1" to-layer="1230" to-port="3"/>
		<edge from-layer="1229" from-port="1" to-layer="1230" to-port="4"/>
		<edge from-layer="1231" from-port="1" to-layer="1232" to-port="0"/>
		<edge from-layer="1232" from-port="1" to-layer="1237" to-port="0"/>
		<edge from-layer="1233" from-port="1" to-layer="1237" to-port="1"/>
		<edge from-layer="1234" from-port="1" to-layer="1237" to-port="2"/>
		<edge from-layer="1235" from-port="1" to-layer="1237" to-port="3"/>
		<edge from-layer="1236" from-port="1" to-layer="1237" to-port="4"/>
		<edge from-layer="1230" from-port="5" to-layer="1238" to-port="0"/>
		<edge from-layer="1237" from-port="5" to-layer="1238" to-port="1"/>
		<edge from-layer="1238" from-port="2" to-layer="1240" to-port="0"/>
		<edge from-layer="1239" from-port="1" to-layer="1240" to-port="1"/>
		<edge from-layer="1240" from-port="2" to-layer="1241" to-port="0"/>
		<edge from-layer="1241" from-port="1" to-layer="1246" to-port="0"/>
		<edge from-layer="1242" from-port="1" to-layer="1246" to-port="1"/>
		<edge from-layer="1243" from-port="1" to-layer="1246" to-port="2"/>
		<edge from-layer="1244" from-port="1" to-layer="1246" to-port="3"/>
		<edge from-layer="1245" from-port="1" to-layer="1246" to-port="4"/>
		<edge from-layer="1246" from-port="5" to-layer="1248" to-port="0"/>
		<edge from-layer="1247" from-port="1" to-layer="1248" to-port="1"/>
		<edge from-layer="1248" from-port="2" to-layer="1250" to-port="0"/>
		<edge from-layer="1249" from-port="1" to-layer="1250" to-port="1"/>
		<edge from-layer="1250" from-port="2" to-layer="1252" to-port="0"/>
		<edge from-layer="1251" from-port="1" to-layer="1252" to-port="1"/>
		<edge from-layer="1252" from-port="3" to-layer="1253" to-port="0"/>
	</edges>
	<meta_data>
		<MO_version value="unknown version"/>
		<cli_parameters>
			<blobs_as_inputs value="True"/>
			<caffe_parser_path value="DIR"/>
			<data_type value="FP16"/>
			<disable_nhwc_to_nchw value="False"/>
			<disable_omitting_optional value="False"/>
			<disable_resnet_optimization value="False"/>
			<disable_weights_compression value="False"/>
			<enable_concat_optimization value="False"/>
			<enable_flattening_nested_params value="False"/>
			<enable_ssd_gluoncv value="False"/>
			<extensions value="DIR"/>
			<framework value="caffe"/>
			<freeze_placeholder_with_value value="{}"/>
			<generate_deprecated_IR_V2 value="False"/>
			<generate_deprecated_IR_V7 value="False"/>
			<generate_experimental_IR_V10 value="True"/>
			<input value="data"/>
			<input_model value="DIR/model.caffemodel"/>
			<input_model_is_text value="False"/>
			<input_proto value="DIR/model.prototxt"/>
			<input_shape value="[1,3,1024,2048]"/>
			<k value="DIR/CustomLayersMapping.xml"/>
			<keep_quantize_ops_in_IR value="True"/>
			<keep_shape_ops value="False"/>
			<legacy_mxnet_model value="False"/>
			<log_level value="ERROR"/>
			<mean_scale_values value="{}"/>
			<mean_values value="()"/>
			<model_name value="semantic-segmentation-adas-0001"/>
			<move_to_preprocess value="False"/>
			<output value="['argmax']"/>
			<output_dir value="DIR"/>
			<placeholder_data_types value="{}"/>
			<placeholder_shapes value="{'data': array([   1,    3, 1024, 2048])}"/>
			<progress value="False"/>
			<remove_memory value="False"/>
			<remove_output_softmax value="False"/>
			<reverse_input_channels value="False"/>
			<save_params_from_nd value="False"/>
			<scale_values value="()"/>
			<silent value="False"/>
			<stream_output value="False"/>
			<unset unset_cli_parameters="batch, counts, disable_fusing, disable_gfusing, finegrain_fusing, input_checkpoint, input_meta_graph, input_symbol, mean_file, mean_file_offsets, nd_prefix_name, pretrained_model_name, saved_model_dir, saved_model_tags, scale, tensorboard_logdir, tensorflow_custom_layer_libraries, tensorflow_custom_operations_config_update, tensorflow_object_detection_api_pipeline_config, tensorflow_use_custom_operations_config, transformations_config"/>
		</cli_parameters>
	</meta_data>
	<quantization_parameters>
		<config>{
		'compression': {
			'algorithms': [
				{
					'name': 'DefaultQuantization',
					'params': {
						'preset': 'performance',
						'stat_subset_size': 300
					}
				}
			],
			'target_device': 'CPU'
		},
		'engine': {
			'models': [
				{
					'name': 'semantic-segmentation-adas-0001',
					'launchers': [
						{
							'framework': 'dlsdk',
							'tags': [
								'FP32'
							],
							'model': 'PATH',
							'weights': 'PATH',
							'adapter': 'segmentation',
							'inputs': [
								{
									'name': 'data',
									'type': 'INPUT',
									'precision': 'U8'
								}
							],
							'device': 'CPU'
						}
					],
					'datasets': [
						{
							'name': 'semantic_segmentation_adas',
							'data_source': 'PATH',
							'segmentation_masks_source': 'PATH',
							'annotation_conversion': {
								'converter': 'mapillary_20',
								'data_dir': 'PATH'
							},
							'annotation': 'mapillary_20.pickle',
							'dataset_meta': 'mapillary_20.json',
							'metrics': [
								{
									'type': 'mean_iou',
									'use_argmax': false,
									'presenter': 'print_vector'
								}
							]
						}
					]
				},
				{
					'name': 'semantic-segmentation-adas-0001',
					'launchers': [
						{
							'framework': 'dlsdk',
							'tags': [
								'FP16'
							],
							'model': 'PATH',
							'weights': 'PATH',
							'adapter': 'segmentation',
							'inputs': [
								{
									'name': 'data',
									'type': 'INPUT',
									'precision': 'U8'
								}
							],
							'device': 'CPU'
						}
					],
					'datasets': [
						{
							'name': 'semantic_segmentation_adas',
							'data_source': 'PATH',
							'segmentation_masks_source': 'PATH',
							'annotation_conversion': {
								'converter': 'mapillary_20',
								'data_dir': 'PATH'
							},
							'annotation': 'mapillary_20.pickle',
							'dataset_meta': 'mapillary_20.json',
							'metrics': [
								{
									'type': 'mean_iou',
									'use_argmax': false,
									'presenter': 'print_vector'
								}
							]
						}
					]
				},
				{
					'name': 'semantic-segmentation-adas-0001',
					'launchers': [
						{
							'framework': 'dlsdk',
							'tags': [
								'FP16-INT8'
							],
							'model': 'PATH',
							'weights': 'PATH',
							'adapter': 'segmentation',
							'inputs': [
								{
									'name': 'data',
									'type': 'INPUT',
									'precision': 'U8'
								}
							],
							'device': 'CPU'
						}
					],
					'datasets': [
						{
							'name': 'semantic_segmentation_adas',
							'data_source': 'PATH',
							'segmentation_masks_source': 'PATH',
							'annotation_conversion': {
								'converter': 'mapillary_20',
								'data_dir': 'PATH'
							},
							'annotation': 'mapillary_20.pickle',
							'dataset_meta': 'mapillary_20.json',
							'metrics': [
								{
									'type': 'mean_iou',
									'use_argmax': false,
									'presenter': 'print_vector'
								}
							]
						}
					]
				}
			],
			'global_definitions': '../dataset_definitions.yml',
			'stat_requests_number': null,
			'eval_requests_number': null,
			'type': 'accuracy_checker'
		}
	}</config>
		<version value="1.0"/>
		<cli_params value="{'evaluate': False, 'output_dir': 'PATH', 'direct_dump': True, 'log_level': 'INFO', 'pbar': False, 'keep_uncompressed_weights': False}"/>
	</quantization_parameters>
</net>
