<?xml version="1.0" ?>
<net name="road-segmentation-adas-0001" version="10">
	<layers>
		<layer id="0" name="data" type="Parameter" version="opset1">
			<data element_type="f16" shape="1,3,512,896"/>
			<output>
				<port id="0" precision="FP16">
					<dim>1</dim>
					<dim>3</dim>
					<dim>512</dim>
					<dim>896</dim>
				</port>
			</output>
		</layer>
		<layer id="1" name="42304234_const" type="Const" version="opset1">
			<data element_type="f16" offset="0" shape="" size="2"/>
			<output>
				<port id="1" precision="FP16"/>
			</output>
		</layer>
		<layer id="2" name="42314235_const" type="Const" version="opset1">
			<data element_type="f16" offset="2" shape="" size="2"/>
			<output>
				<port id="1" precision="FP16"/>
			</output>
		</layer>
		<layer id="3" name="42324236_const" type="Const" version="opset1">
			<data element_type="f16" offset="0" shape="" size="2"/>
			<output>
				<port id="1" precision="FP16"/>
			</output>
		</layer>
		<layer id="4" name="42334237_const" type="Const" version="opset1">
			<data element_type="f16" offset="2" shape="" size="2"/>
			<output>
				<port id="1" precision="FP16"/>
			</output>
		</layer>
		<layer id="5" name="L0000_Conv2d_BN/WithoutBiases/fq_input_0" type="FakeQuantize" version="opset1">
			<data levels="256"/>
			<input>
				<port id="0">
					<dim>1</dim>
					<dim>3</dim>
					<dim>512</dim>
					<dim>896</dim>
				</port>
				<port id="1"/>
				<port id="2"/>
				<port id="3"/>
				<port id="4"/>
			</input>
			<output>
				<port id="5" precision="FP16">
					<dim>1</dim>
					<dim>3</dim>
					<dim>512</dim>
					<dim>896</dim>
				</port>
			</output>
		</layer>
		<layer id="6" name="L0000_Conv2d_BN/WithoutBiases/fq_weights_1/Convert_to_float/Cast_013906_const" type="Const" version="opset1">
			<data element_type="u8" offset="4" shape="16,3,3,3" size="432"/>
			<output>
				<port id="1" precision="U8">
					<dim>16</dim>
					<dim>3</dim>
					<dim>3</dim>
					<dim>3</dim>
				</port>
			</output>
		</layer>
		<layer id="7" name="L0000_Conv2d_BN/WithoutBiases/fq_weights_1/Convert_to_float" type="Convert" version="opset1">
			<data destination_type="f16"/>
			<input>
				<port id="0">
					<dim>16</dim>
					<dim>3</dim>
					<dim>3</dim>
					<dim>3</dim>
				</port>
			</input>
			<output>
				<port id="1" precision="FP16">
					<dim>16</dim>
					<dim>3</dim>
					<dim>3</dim>
					<dim>3</dim>
				</port>
			</output>
		</layer>
		<layer id="8" name="L0000_Conv2d_BN/WithoutBiases/fq_weights_1/Copy/out_low11087_const" type="Const" version="opset1">
			<data element_type="f16" offset="0" shape="1" size="2"/>
			<output>
				<port id="1" precision="FP16">
					<dim>1</dim>
				</port>
			</output>
		</layer>
		<layer id="9" name="L0000_Conv2d_BN/WithoutBiases/fq_weights_1/Copy/out_high11088_const" type="Const" version="opset1">
			<data element_type="f16" offset="436" shape="1" size="2"/>
			<output>
				<port id="1" precision="FP16">
					<dim>1</dim>
				</port>
			</output>
		</layer>
		<layer id="10" name="42424246_const" type="Const" version="opset1">
			<data element_type="f16" offset="438" shape="16,1,1,1" size="32"/>
			<output>
				<port id="1" precision="FP16">
					<dim>16</dim>
					<dim>1</dim>
					<dim>1</dim>
					<dim>1</dim>
				</port>
			</output>
		</layer>
		<layer id="11" name="42434247_const" type="Const" version="opset1">
			<data element_type="f16" offset="470" shape="16,1,1,1" size="32"/>
			<output>
				<port id="1" precision="FP16">
					<dim>16</dim>
					<dim>1</dim>
					<dim>1</dim>
					<dim>1</dim>
				</port>
			</output>
		</layer>
		<layer id="12" name="L0000_Conv2d_BN/WithoutBiases/fq_weights_1" type="FakeQuantize" version="opset1">
			<data levels="255"/>
			<input>
				<port id="0">
					<dim>16</dim>
					<dim>3</dim>
					<dim>3</dim>
					<dim>3</dim>
				</port>
				<port id="1">
					<dim>1</dim>
				</port>
				<port id="2">
					<dim>1</dim>
				</port>
				<port id="3">
					<dim>16</dim>
					<dim>1</dim>
					<dim>1</dim>
					<dim>1</dim>
				</port>
				<port id="4">
					<dim>16</dim>
					<dim>1</dim>
					<dim>1</dim>
					<dim>1</dim>
				</port>
			</input>
			<output>
				<port id="5" precision="FP16">
					<dim>16</dim>
					<dim>3</dim>
					<dim>3</dim>
					<dim>3</dim>
				</port>
			</output>
		</layer>
		<layer id="13" name="L0000_Conv2d_BN/WithoutBiases" type="Convolution" version="opset1">
			<data dilations="1,1" output_padding="0,0" pads_begin="1,1" pads_end="1,1" strides="2,2"/>
			<input>
				<port id="0">
					<dim>1</dim>
					<dim>3</dim>
					<dim>512</dim>
					<dim>896</dim>
				</port>
				<port id="1">
					<dim>16</dim>
					<dim>3</dim>
					<dim>3</dim>
					<dim>3</dim>
				</port>
			</input>
			<output>
				<port id="2" precision="FP16">
					<dim>1</dim>
					<dim>16</dim>
					<dim>256</dim>
					<dim>448</dim>
				</port>
			</output>
		</layer>
		<layer id="14" name="L0000_Conv2d_BN/Dims5636/copy_const740_const" type="Const" version="opset1">
			<data element_type="f16" offset="502" shape="1,16,1,1" size="32"/>
			<output>
				<port id="1" precision="FP16">
					<dim>1</dim>
					<dim>16</dim>
					<dim>1</dim>
					<dim>1</dim>
				</port>
			</output>
		</layer>
		<layer id="15" name="L0000_Conv2d_BN" type="Add" version="opset1">
			<input>
				<port id="0">
					<dim>1</dim>
					<dim>16</dim>
					<dim>256</dim>
					<dim>448</dim>
				</port>
				<port id="1">
					<dim>1</dim>
					<dim>16</dim>
					<dim>1</dim>
					<dim>1</dim>
				</port>
			</input>
			<output>
				<port id="2" precision="FP16">
					<dim>1</dim>
					<dim>16</dim>
					<dim>256</dim>
					<dim>448</dim>
				</port>
			</output>
		</layer>
		<layer id="16" name="L0001_ReLU" type="ReLU" version="opset1">
			<input>
				<port id="0">
					<dim>1</dim>
					<dim>16</dim>
					<dim>256</dim>
					<dim>448</dim>
				</port>
			</input>
			<output>
				<port id="1" precision="FP16">
					<dim>1</dim>
					<dim>16</dim>
					<dim>256</dim>
					<dim>448</dim>
				</port>
			</output>
		</layer>
		<layer id="17" name="50605064_const" type="Const" version="opset1">
			<data element_type="f16" offset="0" shape="" size="2"/>
			<output>
				<port id="1" precision="FP16"/>
			</output>
		</layer>
		<layer id="18" name="50615065_const" type="Const" version="opset1">
			<data element_type="f16" offset="534" shape="" size="2"/>
			<output>
				<port id="1" precision="FP16"/>
			</output>
		</layer>
		<layer id="19" name="50625066_const" type="Const" version="opset1">
			<data element_type="f16" offset="0" shape="" size="2"/>
			<output>
				<port id="1" precision="FP16"/>
			</output>
		</layer>
		<layer id="20" name="50635067_const" type="Const" version="opset1">
			<data element_type="f16" offset="534" shape="" size="2"/>
			<output>
				<port id="1" precision="FP16"/>
			</output>
		</layer>
		<layer id="21" name="L0002_Conv2d_BN/WithoutBiases/fq_input_0" type="FakeQuantize" version="opset1">
			<data levels="256"/>
			<input>
				<port id="0">
					<dim>1</dim>
					<dim>16</dim>
					<dim>256</dim>
					<dim>448</dim>
				</port>
				<port id="1"/>
				<port id="2"/>
				<port id="3"/>
				<port id="4"/>
			</input>
			<output>
				<port id="5" precision="FP16">
					<dim>1</dim>
					<dim>16</dim>
					<dim>256</dim>
					<dim>448</dim>
				</port>
			</output>
		</layer>
		<layer id="22" name="L0002_Conv2d_BN/WithoutBiases/fq_weights_1/Convert_to_float/Cast_013966_const" type="Const" version="opset1">
			<data element_type="u8" offset="536" shape="8,16,1,1" size="128"/>
			<output>
				<port id="1" precision="U8">
					<dim>8</dim>
					<dim>16</dim>
					<dim>1</dim>
					<dim>1</dim>
				</port>
			</output>
		</layer>
		<layer id="23" name="L0002_Conv2d_BN/WithoutBiases/fq_weights_1/Convert_to_float" type="Convert" version="opset1">
			<data destination_type="f16"/>
			<input>
				<port id="0">
					<dim>8</dim>
					<dim>16</dim>
					<dim>1</dim>
					<dim>1</dim>
				</port>
			</input>
			<output>
				<port id="1" precision="FP16">
					<dim>8</dim>
					<dim>16</dim>
					<dim>1</dim>
					<dim>1</dim>
				</port>
			</output>
		</layer>
		<layer id="24" name="L0002_Conv2d_BN/WithoutBiases/fq_weights_1/Copy/out_low11991_const" type="Const" version="opset1">
			<data element_type="f16" offset="0" shape="1" size="2"/>
			<output>
				<port id="1" precision="FP16">
					<dim>1</dim>
				</port>
			</output>
		</layer>
		<layer id="25" name="L0002_Conv2d_BN/WithoutBiases/fq_weights_1/Copy/out_high11992_const" type="Const" version="opset1">
			<data element_type="f16" offset="436" shape="1" size="2"/>
			<output>
				<port id="1" precision="FP16">
					<dim>1</dim>
				</port>
			</output>
		</layer>
		<layer id="26" name="50725076_const" type="Const" version="opset1">
			<data element_type="f16" offset="664" shape="8,1,1,1" size="16"/>
			<output>
				<port id="1" precision="FP16">
					<dim>8</dim>
					<dim>1</dim>
					<dim>1</dim>
					<dim>1</dim>
				</port>
			</output>
		</layer>
		<layer id="27" name="50735077_const" type="Const" version="opset1">
			<data element_type="f16" offset="680" shape="8,1,1,1" size="16"/>
			<output>
				<port id="1" precision="FP16">
					<dim>8</dim>
					<dim>1</dim>
					<dim>1</dim>
					<dim>1</dim>
				</port>
			</output>
		</layer>
		<layer id="28" name="L0002_Conv2d_BN/WithoutBiases/fq_weights_1" type="FakeQuantize" version="opset1">
			<data levels="255"/>
			<input>
				<port id="0">
					<dim>8</dim>
					<dim>16</dim>
					<dim>1</dim>
					<dim>1</dim>
				</port>
				<port id="1">
					<dim>1</dim>
				</port>
				<port id="2">
					<dim>1</dim>
				</port>
				<port id="3">
					<dim>8</dim>
					<dim>1</dim>
					<dim>1</dim>
					<dim>1</dim>
				</port>
				<port id="4">
					<dim>8</dim>
					<dim>1</dim>
					<dim>1</dim>
					<dim>1</dim>
				</port>
			</input>
			<output>
				<port id="5" precision="FP16">
					<dim>8</dim>
					<dim>16</dim>
					<dim>1</dim>
					<dim>1</dim>
				</port>
			</output>
		</layer>
		<layer id="29" name="L0002_Conv2d_BN/WithoutBiases" type="Convolution" version="opset1">
			<data dilations="1,1" output_padding="0,0" pads_begin="0,0" pads_end="0,0" strides="1,1"/>
			<input>
				<port id="0">
					<dim>1</dim>
					<dim>16</dim>
					<dim>256</dim>
					<dim>448</dim>
				</port>
				<port id="1">
					<dim>8</dim>
					<dim>16</dim>
					<dim>1</dim>
					<dim>1</dim>
				</port>
			</input>
			<output>
				<port id="2" precision="FP16">
					<dim>1</dim>
					<dim>8</dim>
					<dim>256</dim>
					<dim>448</dim>
				</port>
			</output>
		</layer>
		<layer id="30" name="L0002_Conv2d_BN/Dims5954/copy_const745_const" type="Const" version="opset1">
			<data element_type="f16" offset="696" shape="1,8,1,1" size="16"/>
			<output>
				<port id="1" precision="FP16">
					<dim>1</dim>
					<dim>8</dim>
					<dim>1</dim>
					<dim>1</dim>
				</port>
			</output>
		</layer>
		<layer id="31" name="L0002_Conv2d_BN" type="Add" version="opset1">
			<input>
				<port id="0">
					<dim>1</dim>
					<dim>8</dim>
					<dim>256</dim>
					<dim>448</dim>
				</port>
				<port id="1">
					<dim>1</dim>
					<dim>8</dim>
					<dim>1</dim>
					<dim>1</dim>
				</port>
			</input>
			<output>
				<port id="2" precision="FP16">
					<dim>1</dim>
					<dim>8</dim>
					<dim>256</dim>
					<dim>448</dim>
				</port>
			</output>
		</layer>
		<layer id="32" name="L0003_ReLU" type="ReLU" version="opset1">
			<input>
				<port id="0">
					<dim>1</dim>
					<dim>8</dim>
					<dim>256</dim>
					<dim>448</dim>
				</port>
			</input>
			<output>
				<port id="1" precision="FP16">
					<dim>1</dim>
					<dim>8</dim>
					<dim>256</dim>
					<dim>448</dim>
				</port>
			</output>
		</layer>
		<layer id="33" name="34303434_const" type="Const" version="opset1">
			<data element_type="f16" offset="712" shape="1,8,1,1" size="16"/>
			<output>
				<port id="1" precision="FP16">
					<dim>1</dim>
					<dim>8</dim>
					<dim>1</dim>
					<dim>1</dim>
				</port>
			</output>
		</layer>
		<layer id="34" name="34313435_const" type="Const" version="opset1">
			<data element_type="f16" offset="728" shape="1,8,1,1" size="16"/>
			<output>
				<port id="1" precision="FP16">
					<dim>1</dim>
					<dim>8</dim>
					<dim>1</dim>
					<dim>1</dim>
				</port>
			</output>
		</layer>
		<layer id="35" name="34323436_const" type="Const" version="opset1">
			<data element_type="f16" offset="712" shape="1,8,1,1" size="16"/>
			<output>
				<port id="1" precision="FP16">
					<dim>1</dim>
					<dim>8</dim>
					<dim>1</dim>
					<dim>1</dim>
				</port>
			</output>
		</layer>
		<layer id="36" name="34333437_const" type="Const" version="opset1">
			<data element_type="f16" offset="728" shape="1,8,1,1" size="16"/>
			<output>
				<port id="1" precision="FP16">
					<dim>1</dim>
					<dim>8</dim>
					<dim>1</dim>
					<dim>1</dim>
				</port>
			</output>
		</layer>
		<layer id="37" name="L0004_Conv2d_BN/WithoutBiases/fq_input_0" type="FakeQuantize" version="opset1">
			<data levels="256"/>
			<input>
				<port id="0">
					<dim>1</dim>
					<dim>8</dim>
					<dim>256</dim>
					<dim>448</dim>
				</port>
				<port id="1">
					<dim>1</dim>
					<dim>8</dim>
					<dim>1</dim>
					<dim>1</dim>
				</port>
				<port id="2">
					<dim>1</dim>
					<dim>8</dim>
					<dim>1</dim>
					<dim>1</dim>
				</port>
				<port id="3">
					<dim>1</dim>
					<dim>8</dim>
					<dim>1</dim>
					<dim>1</dim>
				</port>
				<port id="4">
					<dim>1</dim>
					<dim>8</dim>
					<dim>1</dim>
					<dim>1</dim>
				</port>
			</input>
			<output>
				<port id="5" precision="FP16">
					<dim>1</dim>
					<dim>8</dim>
					<dim>256</dim>
					<dim>448</dim>
				</port>
			</output>
		</layer>
		<layer id="38" name="L0004_Conv2d_BN/WithoutBiases/fq_weights_1/Convert_to_float/Cast_013868_const" type="Const" version="opset1">
			<data element_type="u8" offset="744" shape="8,1,3,3" size="72"/>
			<output>
				<port id="1" precision="U8">
					<dim>8</dim>
					<dim>1</dim>
					<dim>3</dim>
					<dim>3</dim>
				</port>
			</output>
		</layer>
		<layer id="39" name="L0004_Conv2d_BN/WithoutBiases/fq_weights_1/Convert_to_float" type="Convert" version="opset1">
			<data destination_type="f16"/>
			<input>
				<port id="0">
					<dim>8</dim>
					<dim>1</dim>
					<dim>3</dim>
					<dim>3</dim>
				</port>
			</input>
			<output>
				<port id="1" precision="FP16">
					<dim>8</dim>
					<dim>1</dim>
					<dim>3</dim>
					<dim>3</dim>
				</port>
			</output>
		</layer>
		<layer id="40" name="L0004_Conv2d_BN/WithoutBiases/fq_weights_1/Copy/out_low11303_const" type="Const" version="opset1">
			<data element_type="f16" offset="0" shape="1" size="2"/>
			<output>
				<port id="1" precision="FP16">
					<dim>1</dim>
				</port>
			</output>
		</layer>
		<layer id="41" name="L0004_Conv2d_BN/WithoutBiases/fq_weights_1/Copy/out_high11304_const" type="Const" version="opset1">
			<data element_type="f16" offset="436" shape="1" size="2"/>
			<output>
				<port id="1" precision="FP16">
					<dim>1</dim>
				</port>
			</output>
		</layer>
		<layer id="42" name="34423446_const" type="Const" version="opset1">
			<data element_type="f16" offset="816" shape="8,1,1,1" size="16"/>
			<output>
				<port id="1" precision="FP16">
					<dim>8</dim>
					<dim>1</dim>
					<dim>1</dim>
					<dim>1</dim>
				</port>
			</output>
		</layer>
		<layer id="43" name="34433447_const" type="Const" version="opset1">
			<data element_type="f16" offset="832" shape="8,1,1,1" size="16"/>
			<output>
				<port id="1" precision="FP16">
					<dim>8</dim>
					<dim>1</dim>
					<dim>1</dim>
					<dim>1</dim>
				</port>
			</output>
		</layer>
		<layer id="44" name="L0004_Conv2d_BN/WithoutBiases/fq_weights_1" type="FakeQuantize" version="opset1">
			<data levels="255"/>
			<input>
				<port id="0">
					<dim>8</dim>
					<dim>1</dim>
					<dim>3</dim>
					<dim>3</dim>
				</port>
				<port id="1">
					<dim>1</dim>
				</port>
				<port id="2">
					<dim>1</dim>
				</port>
				<port id="3">
					<dim>8</dim>
					<dim>1</dim>
					<dim>1</dim>
					<dim>1</dim>
				</port>
				<port id="4">
					<dim>8</dim>
					<dim>1</dim>
					<dim>1</dim>
					<dim>1</dim>
				</port>
			</input>
			<output>
				<port id="5" precision="FP16">
					<dim>8</dim>
					<dim>1</dim>
					<dim>3</dim>
					<dim>3</dim>
				</port>
			</output>
		</layer>
		<layer id="45" name="15630/value15632_const" type="Const" version="opset1">
			<data element_type="i64" offset="848" shape="5" size="40"/>
			<output>
				<port id="1" precision="I64">
					<dim>5</dim>
				</port>
			</output>
		</layer>
		<layer id="46" name="15630" type="Reshape" version="opset1">
			<data special_zero="True"/>
			<input>
				<port id="0">
					<dim>8</dim>
					<dim>1</dim>
					<dim>3</dim>
					<dim>3</dim>
				</port>
				<port id="1">
					<dim>5</dim>
				</port>
			</input>
			<output>
				<port id="2" precision="FP16">
					<dim>8</dim>
					<dim>1</dim>
					<dim>1</dim>
					<dim>3</dim>
					<dim>3</dim>
				</port>
			</output>
		</layer>
		<layer id="47" name="L0004_Conv2d_BN/WithoutBiases" type="GroupConvolution" version="opset1">
			<data dilations="1,1" output_padding="0,0" pads_begin="1,1" pads_end="1,1" strides="1,1"/>
			<input>
				<port id="0">
					<dim>1</dim>
					<dim>8</dim>
					<dim>256</dim>
					<dim>448</dim>
				</port>
				<port id="1">
					<dim>8</dim>
					<dim>1</dim>
					<dim>1</dim>
					<dim>3</dim>
					<dim>3</dim>
				</port>
			</input>
			<output>
				<port id="2" precision="FP16">
					<dim>1</dim>
					<dim>8</dim>
					<dim>256</dim>
					<dim>448</dim>
				</port>
			</output>
		</layer>
		<layer id="48" name="L0004_Conv2d_BN/Dims6068/copy_const750_const" type="Const" version="opset1">
			<data element_type="f16" offset="888" shape="1,8,1,1" size="16"/>
			<output>
				<port id="1" precision="FP16">
					<dim>1</dim>
					<dim>8</dim>
					<dim>1</dim>
					<dim>1</dim>
				</port>
			</output>
		</layer>
		<layer id="49" name="L0004_Conv2d_BN" type="Add" version="opset1">
			<input>
				<port id="0">
					<dim>1</dim>
					<dim>8</dim>
					<dim>256</dim>
					<dim>448</dim>
				</port>
				<port id="1">
					<dim>1</dim>
					<dim>8</dim>
					<dim>1</dim>
					<dim>1</dim>
				</port>
			</input>
			<output>
				<port id="2" precision="FP16">
					<dim>1</dim>
					<dim>8</dim>
					<dim>256</dim>
					<dim>448</dim>
				</port>
			</output>
		</layer>
		<layer id="50" name="L0005_ReLU" type="ReLU" version="opset1">
			<input>
				<port id="0">
					<dim>1</dim>
					<dim>8</dim>
					<dim>256</dim>
					<dim>448</dim>
				</port>
			</input>
			<output>
				<port id="1" precision="FP16">
					<dim>1</dim>
					<dim>8</dim>
					<dim>256</dim>
					<dim>448</dim>
				</port>
			</output>
		</layer>
		<layer id="51" name="23902394_const" type="Const" version="opset1">
			<data element_type="f16" offset="0" shape="" size="2"/>
			<output>
				<port id="1" precision="FP16"/>
			</output>
		</layer>
		<layer id="52" name="23912395_const" type="Const" version="opset1">
			<data element_type="f16" offset="904" shape="" size="2"/>
			<output>
				<port id="1" precision="FP16"/>
			</output>
		</layer>
		<layer id="53" name="23922396_const" type="Const" version="opset1">
			<data element_type="f16" offset="0" shape="" size="2"/>
			<output>
				<port id="1" precision="FP16"/>
			</output>
		</layer>
		<layer id="54" name="23932397_const" type="Const" version="opset1">
			<data element_type="f16" offset="904" shape="" size="2"/>
			<output>
				<port id="1" precision="FP16"/>
			</output>
		</layer>
		<layer id="55" name="L0006_Conv2d_BN/WithoutBiases/fq_input_0" type="FakeQuantize" version="opset1">
			<data levels="256"/>
			<input>
				<port id="0">
					<dim>1</dim>
					<dim>8</dim>
					<dim>256</dim>
					<dim>448</dim>
				</port>
				<port id="1"/>
				<port id="2"/>
				<port id="3"/>
				<port id="4"/>
			</input>
			<output>
				<port id="5" precision="FP16">
					<dim>1</dim>
					<dim>8</dim>
					<dim>256</dim>
					<dim>448</dim>
				</port>
			</output>
		</layer>
		<layer id="56" name="L0006_Conv2d_BN/WithoutBiases/fq_weights_1/Convert_to_float/Cast_013934_const" type="Const" version="opset1">
			<data element_type="u8" offset="906" shape="16,8,1,1" size="128"/>
			<output>
				<port id="1" precision="U8">
					<dim>16</dim>
					<dim>8</dim>
					<dim>1</dim>
					<dim>1</dim>
				</port>
			</output>
		</layer>
		<layer id="57" name="L0006_Conv2d_BN/WithoutBiases/fq_weights_1/Convert_to_float" type="Convert" version="opset1">
			<data destination_type="f16"/>
			<input>
				<port id="0">
					<dim>16</dim>
					<dim>8</dim>
					<dim>1</dim>
					<dim>1</dim>
				</port>
			</input>
			<output>
				<port id="1" precision="FP16">
					<dim>16</dim>
					<dim>8</dim>
					<dim>1</dim>
					<dim>1</dim>
				</port>
			</output>
		</layer>
		<layer id="58" name="L0006_Conv2d_BN/WithoutBiases/fq_weights_1/Copy/out_low11119_const" type="Const" version="opset1">
			<data element_type="f16" offset="0" shape="1" size="2"/>
			<output>
				<port id="1" precision="FP16">
					<dim>1</dim>
				</port>
			</output>
		</layer>
		<layer id="59" name="L0006_Conv2d_BN/WithoutBiases/fq_weights_1/Copy/out_high11120_const" type="Const" version="opset1">
			<data element_type="f16" offset="436" shape="1" size="2"/>
			<output>
				<port id="1" precision="FP16">
					<dim>1</dim>
				</port>
			</output>
		</layer>
		<layer id="60" name="24022406_const" type="Const" version="opset1">
			<data element_type="f16" offset="1034" shape="16,1,1,1" size="32"/>
			<output>
				<port id="1" precision="FP16">
					<dim>16</dim>
					<dim>1</dim>
					<dim>1</dim>
					<dim>1</dim>
				</port>
			</output>
		</layer>
		<layer id="61" name="24032407_const" type="Const" version="opset1">
			<data element_type="f16" offset="1066" shape="16,1,1,1" size="32"/>
			<output>
				<port id="1" precision="FP16">
					<dim>16</dim>
					<dim>1</dim>
					<dim>1</dim>
					<dim>1</dim>
				</port>
			</output>
		</layer>
		<layer id="62" name="L0006_Conv2d_BN/WithoutBiases/fq_weights_1" type="FakeQuantize" version="opset1">
			<data levels="255"/>
			<input>
				<port id="0">
					<dim>16</dim>
					<dim>8</dim>
					<dim>1</dim>
					<dim>1</dim>
				</port>
				<port id="1">
					<dim>1</dim>
				</port>
				<port id="2">
					<dim>1</dim>
				</port>
				<port id="3">
					<dim>16</dim>
					<dim>1</dim>
					<dim>1</dim>
					<dim>1</dim>
				</port>
				<port id="4">
					<dim>16</dim>
					<dim>1</dim>
					<dim>1</dim>
					<dim>1</dim>
				</port>
			</input>
			<output>
				<port id="5" precision="FP16">
					<dim>16</dim>
					<dim>8</dim>
					<dim>1</dim>
					<dim>1</dim>
				</port>
			</output>
		</layer>
		<layer id="63" name="L0006_Conv2d_BN/WithoutBiases" type="Convolution" version="opset1">
			<data dilations="1,1" output_padding="0,0" pads_begin="0,0" pads_end="0,0" strides="1,1"/>
			<input>
				<port id="0">
					<dim>1</dim>
					<dim>8</dim>
					<dim>256</dim>
					<dim>448</dim>
				</port>
				<port id="1">
					<dim>16</dim>
					<dim>8</dim>
					<dim>1</dim>
					<dim>1</dim>
				</port>
			</input>
			<output>
				<port id="2" precision="FP16">
					<dim>1</dim>
					<dim>16</dim>
					<dim>256</dim>
					<dim>448</dim>
				</port>
			</output>
		</layer>
		<layer id="64" name="L0006_Conv2d_BN/Dims5666/copy_const755_const" type="Const" version="opset1">
			<data element_type="f16" offset="1098" shape="1,16,1,1" size="32"/>
			<output>
				<port id="1" precision="FP16">
					<dim>1</dim>
					<dim>16</dim>
					<dim>1</dim>
					<dim>1</dim>
				</port>
			</output>
		</layer>
		<layer id="65" name="L0006_Conv2d_BN" type="Add" version="opset1">
			<input>
				<port id="0">
					<dim>1</dim>
					<dim>16</dim>
					<dim>256</dim>
					<dim>448</dim>
				</port>
				<port id="1">
					<dim>1</dim>
					<dim>16</dim>
					<dim>1</dim>
					<dim>1</dim>
				</port>
			</input>
			<output>
				<port id="2" precision="FP16">
					<dim>1</dim>
					<dim>16</dim>
					<dim>256</dim>
					<dim>448</dim>
				</port>
			</output>
		</layer>
		<layer id="66" name="46904694_const" type="Const" version="opset1">
			<data element_type="f16" offset="1130" shape="" size="2"/>
			<output>
				<port id="1" precision="FP16"/>
			</output>
		</layer>
		<layer id="67" name="46914695_const" type="Const" version="opset1">
			<data element_type="f16" offset="1132" shape="" size="2"/>
			<output>
				<port id="1" precision="FP16"/>
			</output>
		</layer>
		<layer id="68" name="46924696_const" type="Const" version="opset1">
			<data element_type="f16" offset="1130" shape="" size="2"/>
			<output>
				<port id="1" precision="FP16"/>
			</output>
		</layer>
		<layer id="69" name="46934697_const" type="Const" version="opset1">
			<data element_type="f16" offset="1132" shape="" size="2"/>
			<output>
				<port id="1" precision="FP16"/>
			</output>
		</layer>
		<layer id="70" name="L0007_AddBackward1/fq_input_0" type="FakeQuantize" version="opset1">
			<data levels="256"/>
			<input>
				<port id="0">
					<dim>1</dim>
					<dim>16</dim>
					<dim>256</dim>
					<dim>448</dim>
				</port>
				<port id="1"/>
				<port id="2"/>
				<port id="3"/>
				<port id="4"/>
			</input>
			<output>
				<port id="5" precision="FP16">
					<dim>1</dim>
					<dim>16</dim>
					<dim>256</dim>
					<dim>448</dim>
				</port>
			</output>
		</layer>
		<layer id="71" name="L0007_AddBackward1" type="Add" version="opset1">
			<input>
				<port id="0">
					<dim>1</dim>
					<dim>16</dim>
					<dim>256</dim>
					<dim>448</dim>
				</port>
				<port id="1">
					<dim>1</dim>
					<dim>16</dim>
					<dim>256</dim>
					<dim>448</dim>
				</port>
			</input>
			<output>
				<port id="2" precision="FP16">
					<dim>1</dim>
					<dim>16</dim>
					<dim>256</dim>
					<dim>448</dim>
				</port>
			</output>
		</layer>
		<layer id="72" name="L0008_ReLU" type="ReLU" version="opset1">
			<input>
				<port id="0">
					<dim>1</dim>
					<dim>16</dim>
					<dim>256</dim>
					<dim>448</dim>
				</port>
			</input>
			<output>
				<port id="1" precision="FP16">
					<dim>1</dim>
					<dim>16</dim>
					<dim>256</dim>
					<dim>448</dim>
				</port>
			</output>
		</layer>
		<layer id="73" name="28002804_const" type="Const" version="opset1">
			<data element_type="f16" offset="0" shape="" size="2"/>
			<output>
				<port id="1" precision="FP16"/>
			</output>
		</layer>
		<layer id="74" name="28012805_const" type="Const" version="opset1">
			<data element_type="f16" offset="1134" shape="" size="2"/>
			<output>
				<port id="1" precision="FP16"/>
			</output>
		</layer>
		<layer id="75" name="28022806_const" type="Const" version="opset1">
			<data element_type="f16" offset="0" shape="" size="2"/>
			<output>
				<port id="1" precision="FP16"/>
			</output>
		</layer>
		<layer id="76" name="28032807_const" type="Const" version="opset1">
			<data element_type="f16" offset="1134" shape="" size="2"/>
			<output>
				<port id="1" precision="FP16"/>
			</output>
		</layer>
		<layer id="77" name="L0009_Conv2d_BN/WithoutBiases/fq_input_0" type="FakeQuantize" version="opset1">
			<data levels="256"/>
			<input>
				<port id="0">
					<dim>1</dim>
					<dim>16</dim>
					<dim>256</dim>
					<dim>448</dim>
				</port>
				<port id="1"/>
				<port id="2"/>
				<port id="3"/>
				<port id="4"/>
			</input>
			<output>
				<port id="5" precision="FP16">
					<dim>1</dim>
					<dim>16</dim>
					<dim>256</dim>
					<dim>448</dim>
				</port>
			</output>
		</layer>
		<layer id="78" name="L0009_Conv2d_BN/WithoutBiases/fq_weights_1/Convert_to_float/Cast_013964_const" type="Const" version="opset1">
			<data element_type="u8" offset="1136" shape="8,16,1,1" size="128"/>
			<output>
				<port id="1" precision="U8">
					<dim>8</dim>
					<dim>16</dim>
					<dim>1</dim>
					<dim>1</dim>
				</port>
			</output>
		</layer>
		<layer id="79" name="L0009_Conv2d_BN/WithoutBiases/fq_weights_1/Convert_to_float" type="Convert" version="opset1">
			<data destination_type="f16"/>
			<input>
				<port id="0">
					<dim>8</dim>
					<dim>16</dim>
					<dim>1</dim>
					<dim>1</dim>
				</port>
			</input>
			<output>
				<port id="1" precision="FP16">
					<dim>8</dim>
					<dim>16</dim>
					<dim>1</dim>
					<dim>1</dim>
				</port>
			</output>
		</layer>
		<layer id="80" name="L0009_Conv2d_BN/WithoutBiases/fq_weights_1/Copy/out_low11383_const" type="Const" version="opset1">
			<data element_type="f16" offset="0" shape="1" size="2"/>
			<output>
				<port id="1" precision="FP16">
					<dim>1</dim>
				</port>
			</output>
		</layer>
		<layer id="81" name="L0009_Conv2d_BN/WithoutBiases/fq_weights_1/Copy/out_high11384_const" type="Const" version="opset1">
			<data element_type="f16" offset="436" shape="1" size="2"/>
			<output>
				<port id="1" precision="FP16">
					<dim>1</dim>
				</port>
			</output>
		</layer>
		<layer id="82" name="28122816_const" type="Const" version="opset1">
			<data element_type="f16" offset="1264" shape="8,1,1,1" size="16"/>
			<output>
				<port id="1" precision="FP16">
					<dim>8</dim>
					<dim>1</dim>
					<dim>1</dim>
					<dim>1</dim>
				</port>
			</output>
		</layer>
		<layer id="83" name="28132817_const" type="Const" version="opset1">
			<data element_type="f16" offset="1280" shape="8,1,1,1" size="16"/>
			<output>
				<port id="1" precision="FP16">
					<dim>8</dim>
					<dim>1</dim>
					<dim>1</dim>
					<dim>1</dim>
				</port>
			</output>
		</layer>
		<layer id="84" name="L0009_Conv2d_BN/WithoutBiases/fq_weights_1" type="FakeQuantize" version="opset1">
			<data levels="255"/>
			<input>
				<port id="0">
					<dim>8</dim>
					<dim>16</dim>
					<dim>1</dim>
					<dim>1</dim>
				</port>
				<port id="1">
					<dim>1</dim>
				</port>
				<port id="2">
					<dim>1</dim>
				</port>
				<port id="3">
					<dim>8</dim>
					<dim>1</dim>
					<dim>1</dim>
					<dim>1</dim>
				</port>
				<port id="4">
					<dim>8</dim>
					<dim>1</dim>
					<dim>1</dim>
					<dim>1</dim>
				</port>
			</input>
			<output>
				<port id="5" precision="FP16">
					<dim>8</dim>
					<dim>16</dim>
					<dim>1</dim>
					<dim>1</dim>
				</port>
			</output>
		</layer>
		<layer id="85" name="L0009_Conv2d_BN/WithoutBiases" type="Convolution" version="opset1">
			<data dilations="1,1" output_padding="0,0" pads_begin="0,0" pads_end="0,0" strides="1,1"/>
			<input>
				<port id="0">
					<dim>1</dim>
					<dim>16</dim>
					<dim>256</dim>
					<dim>448</dim>
				</port>
				<port id="1">
					<dim>8</dim>
					<dim>16</dim>
					<dim>1</dim>
					<dim>1</dim>
				</port>
			</input>
			<output>
				<port id="2" precision="FP16">
					<dim>1</dim>
					<dim>8</dim>
					<dim>256</dim>
					<dim>448</dim>
				</port>
			</output>
		</layer>
		<layer id="86" name="L0009_Conv2d_BN/Dims5966/copy_const761_const" type="Const" version="opset1">
			<data element_type="f16" offset="1296" shape="1,8,1,1" size="16"/>
			<output>
				<port id="1" precision="FP16">
					<dim>1</dim>
					<dim>8</dim>
					<dim>1</dim>
					<dim>1</dim>
				</port>
			</output>
		</layer>
		<layer id="87" name="L0009_Conv2d_BN" type="Add" version="opset1">
			<input>
				<port id="0">
					<dim>1</dim>
					<dim>8</dim>
					<dim>256</dim>
					<dim>448</dim>
				</port>
				<port id="1">
					<dim>1</dim>
					<dim>8</dim>
					<dim>1</dim>
					<dim>1</dim>
				</port>
			</input>
			<output>
				<port id="2" precision="FP16">
					<dim>1</dim>
					<dim>8</dim>
					<dim>256</dim>
					<dim>448</dim>
				</port>
			</output>
		</layer>
		<layer id="88" name="L0010_ReLU" type="ReLU" version="opset1">
			<input>
				<port id="0">
					<dim>1</dim>
					<dim>8</dim>
					<dim>256</dim>
					<dim>448</dim>
				</port>
			</input>
			<output>
				<port id="1" precision="FP16">
					<dim>1</dim>
					<dim>8</dim>
					<dim>256</dim>
					<dim>448</dim>
				</port>
			</output>
		</layer>
		<layer id="89" name="37103714_const" type="Const" version="opset1">
			<data element_type="f16" offset="712" shape="1,8,1,1" size="16"/>
			<output>
				<port id="1" precision="FP16">
					<dim>1</dim>
					<dim>8</dim>
					<dim>1</dim>
					<dim>1</dim>
				</port>
			</output>
		</layer>
		<layer id="90" name="37113715_const" type="Const" version="opset1">
			<data element_type="f16" offset="1312" shape="1,8,1,1" size="16"/>
			<output>
				<port id="1" precision="FP16">
					<dim>1</dim>
					<dim>8</dim>
					<dim>1</dim>
					<dim>1</dim>
				</port>
			</output>
		</layer>
		<layer id="91" name="37123716_const" type="Const" version="opset1">
			<data element_type="f16" offset="712" shape="1,8,1,1" size="16"/>
			<output>
				<port id="1" precision="FP16">
					<dim>1</dim>
					<dim>8</dim>
					<dim>1</dim>
					<dim>1</dim>
				</port>
			</output>
		</layer>
		<layer id="92" name="37133717_const" type="Const" version="opset1">
			<data element_type="f16" offset="1312" shape="1,8,1,1" size="16"/>
			<output>
				<port id="1" precision="FP16">
					<dim>1</dim>
					<dim>8</dim>
					<dim>1</dim>
					<dim>1</dim>
				</port>
			</output>
		</layer>
		<layer id="93" name="L0011_Conv2d_BN/WithoutBiases/fq_input_0" type="FakeQuantize" version="opset1">
			<data levels="256"/>
			<input>
				<port id="0">
					<dim>1</dim>
					<dim>8</dim>
					<dim>256</dim>
					<dim>448</dim>
				</port>
				<port id="1">
					<dim>1</dim>
					<dim>8</dim>
					<dim>1</dim>
					<dim>1</dim>
				</port>
				<port id="2">
					<dim>1</dim>
					<dim>8</dim>
					<dim>1</dim>
					<dim>1</dim>
				</port>
				<port id="3">
					<dim>1</dim>
					<dim>8</dim>
					<dim>1</dim>
					<dim>1</dim>
				</port>
				<port id="4">
					<dim>1</dim>
					<dim>8</dim>
					<dim>1</dim>
					<dim>1</dim>
				</port>
			</input>
			<output>
				<port id="5" precision="FP16">
					<dim>1</dim>
					<dim>8</dim>
					<dim>256</dim>
					<dim>448</dim>
				</port>
			</output>
		</layer>
		<layer id="94" name="L0011_Conv2d_BN/WithoutBiases/fq_weights_1/Convert_to_float/Cast_013988_const" type="Const" version="opset1">
			<data element_type="u8" offset="1328" shape="8,1,3,3" size="72"/>
			<output>
				<port id="1" precision="U8">
					<dim>8</dim>
					<dim>1</dim>
					<dim>3</dim>
					<dim>3</dim>
				</port>
			</output>
		</layer>
		<layer id="95" name="L0011_Conv2d_BN/WithoutBiases/fq_weights_1/Convert_to_float" type="Convert" version="opset1">
			<data destination_type="f16"/>
			<input>
				<port id="0">
					<dim>8</dim>
					<dim>1</dim>
					<dim>3</dim>
					<dim>3</dim>
				</port>
			</input>
			<output>
				<port id="1" precision="FP16">
					<dim>8</dim>
					<dim>1</dim>
					<dim>3</dim>
					<dim>3</dim>
				</port>
			</output>
		</layer>
		<layer id="96" name="L0011_Conv2d_BN/WithoutBiases/fq_weights_1/Copy/out_low11319_const" type="Const" version="opset1">
			<data element_type="f16" offset="0" shape="1" size="2"/>
			<output>
				<port id="1" precision="FP16">
					<dim>1</dim>
				</port>
			</output>
		</layer>
		<layer id="97" name="L0011_Conv2d_BN/WithoutBiases/fq_weights_1/Copy/out_high11320_const" type="Const" version="opset1">
			<data element_type="f16" offset="436" shape="1" size="2"/>
			<output>
				<port id="1" precision="FP16">
					<dim>1</dim>
				</port>
			</output>
		</layer>
		<layer id="98" name="37223726_const" type="Const" version="opset1">
			<data element_type="f16" offset="1400" shape="8,1,1,1" size="16"/>
			<output>
				<port id="1" precision="FP16">
					<dim>8</dim>
					<dim>1</dim>
					<dim>1</dim>
					<dim>1</dim>
				</port>
			</output>
		</layer>
		<layer id="99" name="37233727_const" type="Const" version="opset1">
			<data element_type="f16" offset="1416" shape="8,1,1,1" size="16"/>
			<output>
				<port id="1" precision="FP16">
					<dim>8</dim>
					<dim>1</dim>
					<dim>1</dim>
					<dim>1</dim>
				</port>
			</output>
		</layer>
		<layer id="100" name="L0011_Conv2d_BN/WithoutBiases/fq_weights_1" type="FakeQuantize" version="opset1">
			<data levels="255"/>
			<input>
				<port id="0">
					<dim>8</dim>
					<dim>1</dim>
					<dim>3</dim>
					<dim>3</dim>
				</port>
				<port id="1">
					<dim>1</dim>
				</port>
				<port id="2">
					<dim>1</dim>
				</port>
				<port id="3">
					<dim>8</dim>
					<dim>1</dim>
					<dim>1</dim>
					<dim>1</dim>
				</port>
				<port id="4">
					<dim>8</dim>
					<dim>1</dim>
					<dim>1</dim>
					<dim>1</dim>
				</port>
			</input>
			<output>
				<port id="5" precision="FP16">
					<dim>8</dim>
					<dim>1</dim>
					<dim>3</dim>
					<dim>3</dim>
				</port>
			</output>
		</layer>
		<layer id="101" name="15654/value15656_const" type="Const" version="opset1">
			<data element_type="i64" offset="848" shape="5" size="40"/>
			<output>
				<port id="1" precision="I64">
					<dim>5</dim>
				</port>
			</output>
		</layer>
		<layer id="102" name="15654" type="Reshape" version="opset1">
			<data special_zero="True"/>
			<input>
				<port id="0">
					<dim>8</dim>
					<dim>1</dim>
					<dim>3</dim>
					<dim>3</dim>
				</port>
				<port id="1">
					<dim>5</dim>
				</port>
			</input>
			<output>
				<port id="2" precision="FP16">
					<dim>8</dim>
					<dim>1</dim>
					<dim>1</dim>
					<dim>3</dim>
					<dim>3</dim>
				</port>
			</output>
		</layer>
		<layer id="103" name="L0011_Conv2d_BN/WithoutBiases" type="GroupConvolution" version="opset1">
			<data dilations="1,1" output_padding="0,0" pads_begin="1,1" pads_end="1,1" strides="1,1"/>
			<input>
				<port id="0">
					<dim>1</dim>
					<dim>8</dim>
					<dim>256</dim>
					<dim>448</dim>
				</port>
				<port id="1">
					<dim>8</dim>
					<dim>1</dim>
					<dim>1</dim>
					<dim>3</dim>
					<dim>3</dim>
				</port>
			</input>
			<output>
				<port id="2" precision="FP16">
					<dim>1</dim>
					<dim>8</dim>
					<dim>256</dim>
					<dim>448</dim>
				</port>
			</output>
		</layer>
		<layer id="104" name="L0011_Conv2d_BN/Dims6260/copy_const766_const" type="Const" version="opset1">
			<data element_type="f16" offset="1432" shape="1,8,1,1" size="16"/>
			<output>
				<port id="1" precision="FP16">
					<dim>1</dim>
					<dim>8</dim>
					<dim>1</dim>
					<dim>1</dim>
				</port>
			</output>
		</layer>
		<layer id="105" name="L0011_Conv2d_BN" type="Add" version="opset1">
			<input>
				<port id="0">
					<dim>1</dim>
					<dim>8</dim>
					<dim>256</dim>
					<dim>448</dim>
				</port>
				<port id="1">
					<dim>1</dim>
					<dim>8</dim>
					<dim>1</dim>
					<dim>1</dim>
				</port>
			</input>
			<output>
				<port id="2" precision="FP16">
					<dim>1</dim>
					<dim>8</dim>
					<dim>256</dim>
					<dim>448</dim>
				</port>
			</output>
		</layer>
		<layer id="106" name="L0012_ReLU" type="ReLU" version="opset1">
			<input>
				<port id="0">
					<dim>1</dim>
					<dim>8</dim>
					<dim>256</dim>
					<dim>448</dim>
				</port>
			</input>
			<output>
				<port id="1" precision="FP16">
					<dim>1</dim>
					<dim>8</dim>
					<dim>256</dim>
					<dim>448</dim>
				</port>
			</output>
		</layer>
		<layer id="107" name="29902994_const" type="Const" version="opset1">
			<data element_type="f16" offset="0" shape="" size="2"/>
			<output>
				<port id="1" precision="FP16"/>
			</output>
		</layer>
		<layer id="108" name="29912995_const" type="Const" version="opset1">
			<data element_type="f16" offset="1448" shape="" size="2"/>
			<output>
				<port id="1" precision="FP16"/>
			</output>
		</layer>
		<layer id="109" name="29922996_const" type="Const" version="opset1">
			<data element_type="f16" offset="0" shape="" size="2"/>
			<output>
				<port id="1" precision="FP16"/>
			</output>
		</layer>
		<layer id="110" name="29932997_const" type="Const" version="opset1">
			<data element_type="f16" offset="1448" shape="" size="2"/>
			<output>
				<port id="1" precision="FP16"/>
			</output>
		</layer>
		<layer id="111" name="L0013_Conv2d_BN/WithoutBiases/fq_input_0" type="FakeQuantize" version="opset1">
			<data levels="256"/>
			<input>
				<port id="0">
					<dim>1</dim>
					<dim>8</dim>
					<dim>256</dim>
					<dim>448</dim>
				</port>
				<port id="1"/>
				<port id="2"/>
				<port id="3"/>
				<port id="4"/>
			</input>
			<output>
				<port id="5" precision="FP16">
					<dim>1</dim>
					<dim>8</dim>
					<dim>256</dim>
					<dim>448</dim>
				</port>
			</output>
		</layer>
		<layer id="112" name="L0013_Conv2d_BN/WithoutBiases/fq_weights_1/Convert_to_float/Cast_013806_const" type="Const" version="opset1">
			<data element_type="u8" offset="1450" shape="24,8,1,1" size="192"/>
			<output>
				<port id="1" precision="U8">
					<dim>24</dim>
					<dim>8</dim>
					<dim>1</dim>
					<dim>1</dim>
				</port>
			</output>
		</layer>
		<layer id="113" name="L0013_Conv2d_BN/WithoutBiases/fq_weights_1/Convert_to_float" type="Convert" version="opset1">
			<data destination_type="f16"/>
			<input>
				<port id="0">
					<dim>24</dim>
					<dim>8</dim>
					<dim>1</dim>
					<dim>1</dim>
				</port>
			</input>
			<output>
				<port id="1" precision="FP16">
					<dim>24</dim>
					<dim>8</dim>
					<dim>1</dim>
					<dim>1</dim>
				</port>
			</output>
		</layer>
		<layer id="114" name="L0013_Conv2d_BN/WithoutBiases/fq_weights_1/Copy/out_low11983_const" type="Const" version="opset1">
			<data element_type="f16" offset="0" shape="1" size="2"/>
			<output>
				<port id="1" precision="FP16">
					<dim>1</dim>
				</port>
			</output>
		</layer>
		<layer id="115" name="L0013_Conv2d_BN/WithoutBiases/fq_weights_1/Copy/out_high11984_const" type="Const" version="opset1">
			<data element_type="f16" offset="436" shape="1" size="2"/>
			<output>
				<port id="1" precision="FP16">
					<dim>1</dim>
				</port>
			</output>
		</layer>
		<layer id="116" name="30023006_const" type="Const" version="opset1">
			<data element_type="f16" offset="1642" shape="24,1,1,1" size="48"/>
			<output>
				<port id="1" precision="FP16">
					<dim>24</dim>
					<dim>1</dim>
					<dim>1</dim>
					<dim>1</dim>
				</port>
			</output>
		</layer>
		<layer id="117" name="30033007_const" type="Const" version="opset1">
			<data element_type="f16" offset="1690" shape="24,1,1,1" size="48"/>
			<output>
				<port id="1" precision="FP16">
					<dim>24</dim>
					<dim>1</dim>
					<dim>1</dim>
					<dim>1</dim>
				</port>
			</output>
		</layer>
		<layer id="118" name="L0013_Conv2d_BN/WithoutBiases/fq_weights_1" type="FakeQuantize" version="opset1">
			<data levels="255"/>
			<input>
				<port id="0">
					<dim>24</dim>
					<dim>8</dim>
					<dim>1</dim>
					<dim>1</dim>
				</port>
				<port id="1">
					<dim>1</dim>
				</port>
				<port id="2">
					<dim>1</dim>
				</port>
				<port id="3">
					<dim>24</dim>
					<dim>1</dim>
					<dim>1</dim>
					<dim>1</dim>
				</port>
				<port id="4">
					<dim>24</dim>
					<dim>1</dim>
					<dim>1</dim>
					<dim>1</dim>
				</port>
			</input>
			<output>
				<port id="5" precision="FP16">
					<dim>24</dim>
					<dim>8</dim>
					<dim>1</dim>
					<dim>1</dim>
				</port>
			</output>
		</layer>
		<layer id="119" name="L0013_Conv2d_BN/WithoutBiases" type="Convolution" version="opset1">
			<data dilations="1,1" output_padding="0,0" pads_begin="0,0" pads_end="0,0" strides="1,1"/>
			<input>
				<port id="0">
					<dim>1</dim>
					<dim>8</dim>
					<dim>256</dim>
					<dim>448</dim>
				</port>
				<port id="1">
					<dim>24</dim>
					<dim>8</dim>
					<dim>1</dim>
					<dim>1</dim>
				</port>
			</input>
			<output>
				<port id="2" precision="FP16">
					<dim>1</dim>
					<dim>24</dim>
					<dim>256</dim>
					<dim>448</dim>
				</port>
			</output>
		</layer>
		<layer id="120" name="L0013_Conv2d_BN/Dims6092/copy_const771_const" type="Const" version="opset1">
			<data element_type="f16" offset="1738" shape="1,24,1,1" size="48"/>
			<output>
				<port id="1" precision="FP16">
					<dim>1</dim>
					<dim>24</dim>
					<dim>1</dim>
					<dim>1</dim>
				</port>
			</output>
		</layer>
		<layer id="121" name="L0013_Conv2d_BN" type="Add" version="opset1">
			<input>
				<port id="0">
					<dim>1</dim>
					<dim>24</dim>
					<dim>256</dim>
					<dim>448</dim>
				</port>
				<port id="1">
					<dim>1</dim>
					<dim>24</dim>
					<dim>1</dim>
					<dim>1</dim>
				</port>
			</input>
			<output>
				<port id="2" precision="FP16">
					<dim>1</dim>
					<dim>24</dim>
					<dim>256</dim>
					<dim>448</dim>
				</port>
			</output>
		</layer>
		<layer id="122" name="34903494_const" type="Const" version="opset1">
			<data element_type="f16" offset="1786" shape="" size="2"/>
			<output>
				<port id="1" precision="FP16"/>
			</output>
		</layer>
		<layer id="123" name="34913495_const" type="Const" version="opset1">
			<data element_type="f16" offset="1788" shape="" size="2"/>
			<output>
				<port id="1" precision="FP16"/>
			</output>
		</layer>
		<layer id="124" name="34923496_const" type="Const" version="opset1">
			<data element_type="f16" offset="1786" shape="" size="2"/>
			<output>
				<port id="1" precision="FP16"/>
			</output>
		</layer>
		<layer id="125" name="34933497_const" type="Const" version="opset1">
			<data element_type="f16" offset="1788" shape="" size="2"/>
			<output>
				<port id="1" precision="FP16"/>
			</output>
		</layer>
		<layer id="126" name="L0015_AddBackward1/fq_input_0" type="FakeQuantize" version="opset1">
			<data levels="256"/>
			<input>
				<port id="0">
					<dim>1</dim>
					<dim>24</dim>
					<dim>256</dim>
					<dim>448</dim>
				</port>
				<port id="1"/>
				<port id="2"/>
				<port id="3"/>
				<port id="4"/>
			</input>
			<output>
				<port id="5" precision="FP16">
					<dim>1</dim>
					<dim>24</dim>
					<dim>256</dim>
					<dim>448</dim>
				</port>
			</output>
		</layer>
		<layer id="127" name="L0014_Conv2d_BN/WithoutBiases/fq_weights_1/Convert_to_float/Cast_013800_const" type="Const" version="opset1">
			<data element_type="u8" offset="1790" shape="24,16,1,1" size="384"/>
			<output>
				<port id="1" precision="U8">
					<dim>24</dim>
					<dim>16</dim>
					<dim>1</dim>
					<dim>1</dim>
				</port>
			</output>
		</layer>
		<layer id="128" name="L0014_Conv2d_BN/WithoutBiases/fq_weights_1/Convert_to_float" type="Convert" version="opset1">
			<data destination_type="f16"/>
			<input>
				<port id="0">
					<dim>24</dim>
					<dim>16</dim>
					<dim>1</dim>
					<dim>1</dim>
				</port>
			</input>
			<output>
				<port id="1" precision="FP16">
					<dim>24</dim>
					<dim>16</dim>
					<dim>1</dim>
					<dim>1</dim>
				</port>
			</output>
		</layer>
		<layer id="129" name="L0014_Conv2d_BN/WithoutBiases/fq_weights_1/Copy/out_low11103_const" type="Const" version="opset1">
			<data element_type="f16" offset="0" shape="1" size="2"/>
			<output>
				<port id="1" precision="FP16">
					<dim>1</dim>
				</port>
			</output>
		</layer>
		<layer id="130" name="L0014_Conv2d_BN/WithoutBiases/fq_weights_1/Copy/out_high11104_const" type="Const" version="opset1">
			<data element_type="f16" offset="436" shape="1" size="2"/>
			<output>
				<port id="1" precision="FP16">
					<dim>1</dim>
				</port>
			</output>
		</layer>
		<layer id="131" name="45224526_const" type="Const" version="opset1">
			<data element_type="f16" offset="2174" shape="24,1,1,1" size="48"/>
			<output>
				<port id="1" precision="FP16">
					<dim>24</dim>
					<dim>1</dim>
					<dim>1</dim>
					<dim>1</dim>
				</port>
			</output>
		</layer>
		<layer id="132" name="45234527_const" type="Const" version="opset1">
			<data element_type="f16" offset="2222" shape="24,1,1,1" size="48"/>
			<output>
				<port id="1" precision="FP16">
					<dim>24</dim>
					<dim>1</dim>
					<dim>1</dim>
					<dim>1</dim>
				</port>
			</output>
		</layer>
		<layer id="133" name="L0014_Conv2d_BN/WithoutBiases/fq_weights_1" type="FakeQuantize" version="opset1">
			<data levels="255"/>
			<input>
				<port id="0">
					<dim>24</dim>
					<dim>16</dim>
					<dim>1</dim>
					<dim>1</dim>
				</port>
				<port id="1">
					<dim>1</dim>
				</port>
				<port id="2">
					<dim>1</dim>
				</port>
				<port id="3">
					<dim>24</dim>
					<dim>1</dim>
					<dim>1</dim>
					<dim>1</dim>
				</port>
				<port id="4">
					<dim>24</dim>
					<dim>1</dim>
					<dim>1</dim>
					<dim>1</dim>
				</port>
			</input>
			<output>
				<port id="5" precision="FP16">
					<dim>24</dim>
					<dim>16</dim>
					<dim>1</dim>
					<dim>1</dim>
				</port>
			</output>
		</layer>
		<layer id="134" name="L0014_Conv2d_BN/WithoutBiases" type="Convolution" version="opset1">
			<data dilations="1,1" output_padding="0,0" pads_begin="0,0" pads_end="0,0" strides="1,1"/>
			<input>
				<port id="0">
					<dim>1</dim>
					<dim>16</dim>
					<dim>256</dim>
					<dim>448</dim>
				</port>
				<port id="1">
					<dim>24</dim>
					<dim>16</dim>
					<dim>1</dim>
					<dim>1</dim>
				</port>
			</input>
			<output>
				<port id="2" precision="FP16">
					<dim>1</dim>
					<dim>24</dim>
					<dim>256</dim>
					<dim>448</dim>
				</port>
			</output>
		</layer>
		<layer id="135" name="L0014_Conv2d_BN/Dims5672/copy_const775_const" type="Const" version="opset1">
			<data element_type="f16" offset="2270" shape="1,24,1,1" size="48"/>
			<output>
				<port id="1" precision="FP16">
					<dim>1</dim>
					<dim>24</dim>
					<dim>1</dim>
					<dim>1</dim>
				</port>
			</output>
		</layer>
		<layer id="136" name="L0014_Conv2d_BN" type="Add" version="opset1">
			<input>
				<port id="0">
					<dim>1</dim>
					<dim>24</dim>
					<dim>256</dim>
					<dim>448</dim>
				</port>
				<port id="1">
					<dim>1</dim>
					<dim>24</dim>
					<dim>1</dim>
					<dim>1</dim>
				</port>
			</input>
			<output>
				<port id="2" precision="FP16">
					<dim>1</dim>
					<dim>24</dim>
					<dim>256</dim>
					<dim>448</dim>
				</port>
			</output>
		</layer>
		<layer id="137" name="35003504_const" type="Const" version="opset1">
			<data element_type="f16" offset="2318" shape="" size="2"/>
			<output>
				<port id="1" precision="FP16"/>
			</output>
		</layer>
		<layer id="138" name="35013505_const" type="Const" version="opset1">
			<data element_type="f16" offset="2320" shape="" size="2"/>
			<output>
				<port id="1" precision="FP16"/>
			</output>
		</layer>
		<layer id="139" name="35023506_const" type="Const" version="opset1">
			<data element_type="f16" offset="2318" shape="" size="2"/>
			<output>
				<port id="1" precision="FP16"/>
			</output>
		</layer>
		<layer id="140" name="35033507_const" type="Const" version="opset1">
			<data element_type="f16" offset="2320" shape="" size="2"/>
			<output>
				<port id="1" precision="FP16"/>
			</output>
		</layer>
		<layer id="141" name="L0015_AddBackward1/fq_input_1" type="FakeQuantize" version="opset1">
			<data levels="256"/>
			<input>
				<port id="0">
					<dim>1</dim>
					<dim>24</dim>
					<dim>256</dim>
					<dim>448</dim>
				</port>
				<port id="1"/>
				<port id="2"/>
				<port id="3"/>
				<port id="4"/>
			</input>
			<output>
				<port id="5" precision="FP16">
					<dim>1</dim>
					<dim>24</dim>
					<dim>256</dim>
					<dim>448</dim>
				</port>
			</output>
		</layer>
		<layer id="142" name="L0015_AddBackward1" type="Add" version="opset1">
			<input>
				<port id="0">
					<dim>1</dim>
					<dim>24</dim>
					<dim>256</dim>
					<dim>448</dim>
				</port>
				<port id="1">
					<dim>1</dim>
					<dim>24</dim>
					<dim>256</dim>
					<dim>448</dim>
				</port>
			</input>
			<output>
				<port id="2" precision="FP16">
					<dim>1</dim>
					<dim>24</dim>
					<dim>256</dim>
					<dim>448</dim>
				</port>
			</output>
		</layer>
		<layer id="143" name="L0016_ReLU" type="ReLU" version="opset1">
			<input>
				<port id="0">
					<dim>1</dim>
					<dim>24</dim>
					<dim>256</dim>
					<dim>448</dim>
				</port>
			</input>
			<output>
				<port id="1" precision="FP16">
					<dim>1</dim>
					<dim>24</dim>
					<dim>256</dim>
					<dim>448</dim>
				</port>
			</output>
		</layer>
		<layer id="144" name="58305834_const" type="Const" version="opset1">
			<data element_type="f16" offset="0" shape="" size="2"/>
			<output>
				<port id="1" precision="FP16"/>
			</output>
		</layer>
		<layer id="145" name="58315835_const" type="Const" version="opset1">
			<data element_type="f16" offset="2322" shape="" size="2"/>
			<output>
				<port id="1" precision="FP16"/>
			</output>
		</layer>
		<layer id="146" name="58325836_const" type="Const" version="opset1">
			<data element_type="f16" offset="0" shape="" size="2"/>
			<output>
				<port id="1" precision="FP16"/>
			</output>
		</layer>
		<layer id="147" name="58335837_const" type="Const" version="opset1">
			<data element_type="f16" offset="2322" shape="" size="2"/>
			<output>
				<port id="1" precision="FP16"/>
			</output>
		</layer>
		<layer id="148" name="L0017_Conv2d_BN/WithoutBiases/fq_input_0" type="FakeQuantize" version="opset1">
			<data levels="256"/>
			<input>
				<port id="0">
					<dim>1</dim>
					<dim>24</dim>
					<dim>256</dim>
					<dim>448</dim>
				</port>
				<port id="1"/>
				<port id="2"/>
				<port id="3"/>
				<port id="4"/>
			</input>
			<output>
				<port id="5" precision="FP16">
					<dim>1</dim>
					<dim>24</dim>
					<dim>256</dim>
					<dim>448</dim>
				</port>
			</output>
		</layer>
		<layer id="149" name="L0017_Conv2d_BN/WithoutBiases/fq_weights_1/Convert_to_float/Cast_013780_const" type="Const" version="opset1">
			<data element_type="u8" offset="2324" shape="8,24,1,1" size="192"/>
			<output>
				<port id="1" precision="U8">
					<dim>8</dim>
					<dim>24</dim>
					<dim>1</dim>
					<dim>1</dim>
				</port>
			</output>
		</layer>
		<layer id="150" name="L0017_Conv2d_BN/WithoutBiases/fq_weights_1/Convert_to_float" type="Convert" version="opset1">
			<data destination_type="f16"/>
			<input>
				<port id="0">
					<dim>8</dim>
					<dim>24</dim>
					<dim>1</dim>
					<dim>1</dim>
				</port>
			</input>
			<output>
				<port id="1" precision="FP16">
					<dim>8</dim>
					<dim>24</dim>
					<dim>1</dim>
					<dim>1</dim>
				</port>
			</output>
		</layer>
		<layer id="151" name="L0017_Conv2d_BN/WithoutBiases/fq_weights_1/Copy/out_low11447_const" type="Const" version="opset1">
			<data element_type="f16" offset="0" shape="1" size="2"/>
			<output>
				<port id="1" precision="FP16">
					<dim>1</dim>
				</port>
			</output>
		</layer>
		<layer id="152" name="L0017_Conv2d_BN/WithoutBiases/fq_weights_1/Copy/out_high11448_const" type="Const" version="opset1">
			<data element_type="f16" offset="436" shape="1" size="2"/>
			<output>
				<port id="1" precision="FP16">
					<dim>1</dim>
				</port>
			</output>
		</layer>
		<layer id="153" name="58425846_const" type="Const" version="opset1">
			<data element_type="f16" offset="2516" shape="8,1,1,1" size="16"/>
			<output>
				<port id="1" precision="FP16">
					<dim>8</dim>
					<dim>1</dim>
					<dim>1</dim>
					<dim>1</dim>
				</port>
			</output>
		</layer>
		<layer id="154" name="58435847_const" type="Const" version="opset1">
			<data element_type="f16" offset="2532" shape="8,1,1,1" size="16"/>
			<output>
				<port id="1" precision="FP16">
					<dim>8</dim>
					<dim>1</dim>
					<dim>1</dim>
					<dim>1</dim>
				</port>
			</output>
		</layer>
		<layer id="155" name="L0017_Conv2d_BN/WithoutBiases/fq_weights_1" type="FakeQuantize" version="opset1">
			<data levels="255"/>
			<input>
				<port id="0">
					<dim>8</dim>
					<dim>24</dim>
					<dim>1</dim>
					<dim>1</dim>
				</port>
				<port id="1">
					<dim>1</dim>
				</port>
				<port id="2">
					<dim>1</dim>
				</port>
				<port id="3">
					<dim>8</dim>
					<dim>1</dim>
					<dim>1</dim>
					<dim>1</dim>
				</port>
				<port id="4">
					<dim>8</dim>
					<dim>1</dim>
					<dim>1</dim>
					<dim>1</dim>
				</port>
			</input>
			<output>
				<port id="5" precision="FP16">
					<dim>8</dim>
					<dim>24</dim>
					<dim>1</dim>
					<dim>1</dim>
				</port>
			</output>
		</layer>
		<layer id="156" name="L0017_Conv2d_BN/WithoutBiases" type="Convolution" version="opset1">
			<data dilations="1,1" output_padding="0,0" pads_begin="0,0" pads_end="0,0" strides="1,1"/>
			<input>
				<port id="0">
					<dim>1</dim>
					<dim>24</dim>
					<dim>256</dim>
					<dim>448</dim>
				</port>
				<port id="1">
					<dim>8</dim>
					<dim>24</dim>
					<dim>1</dim>
					<dim>1</dim>
				</port>
			</input>
			<output>
				<port id="2" precision="FP16">
					<dim>1</dim>
					<dim>8</dim>
					<dim>256</dim>
					<dim>448</dim>
				</port>
			</output>
		</layer>
		<layer id="157" name="L0017_Conv2d_BN/Dims5882/copy_const781_const" type="Const" version="opset1">
			<data element_type="f16" offset="2548" shape="1,8,1,1" size="16"/>
			<output>
				<port id="1" precision="FP16">
					<dim>1</dim>
					<dim>8</dim>
					<dim>1</dim>
					<dim>1</dim>
				</port>
			</output>
		</layer>
		<layer id="158" name="L0017_Conv2d_BN" type="Add" version="opset1">
			<input>
				<port id="0">
					<dim>1</dim>
					<dim>8</dim>
					<dim>256</dim>
					<dim>448</dim>
				</port>
				<port id="1">
					<dim>1</dim>
					<dim>8</dim>
					<dim>1</dim>
					<dim>1</dim>
				</port>
			</input>
			<output>
				<port id="2" precision="FP16">
					<dim>1</dim>
					<dim>8</dim>
					<dim>256</dim>
					<dim>448</dim>
				</port>
			</output>
		</layer>
		<layer id="159" name="L0018_ReLU" type="ReLU" version="opset1">
			<input>
				<port id="0">
					<dim>1</dim>
					<dim>8</dim>
					<dim>256</dim>
					<dim>448</dim>
				</port>
			</input>
			<output>
				<port id="1" precision="FP16">
					<dim>1</dim>
					<dim>8</dim>
					<dim>256</dim>
					<dim>448</dim>
				</port>
			</output>
		</layer>
		<layer id="160" name="36103614_const" type="Const" version="opset1">
			<data element_type="f16" offset="712" shape="1,8,1,1" size="16"/>
			<output>
				<port id="1" precision="FP16">
					<dim>1</dim>
					<dim>8</dim>
					<dim>1</dim>
					<dim>1</dim>
				</port>
			</output>
		</layer>
		<layer id="161" name="36113615_const" type="Const" version="opset1">
			<data element_type="f16" offset="2564" shape="1,8,1,1" size="16"/>
			<output>
				<port id="1" precision="FP16">
					<dim>1</dim>
					<dim>8</dim>
					<dim>1</dim>
					<dim>1</dim>
				</port>
			</output>
		</layer>
		<layer id="162" name="36123616_const" type="Const" version="opset1">
			<data element_type="f16" offset="712" shape="1,8,1,1" size="16"/>
			<output>
				<port id="1" precision="FP16">
					<dim>1</dim>
					<dim>8</dim>
					<dim>1</dim>
					<dim>1</dim>
				</port>
			</output>
		</layer>
		<layer id="163" name="36133617_const" type="Const" version="opset1">
			<data element_type="f16" offset="2564" shape="1,8,1,1" size="16"/>
			<output>
				<port id="1" precision="FP16">
					<dim>1</dim>
					<dim>8</dim>
					<dim>1</dim>
					<dim>1</dim>
				</port>
			</output>
		</layer>
		<layer id="164" name="L0019_Conv2d_BN/WithoutBiases/fq_input_0" type="FakeQuantize" version="opset1">
			<data levels="256"/>
			<input>
				<port id="0">
					<dim>1</dim>
					<dim>8</dim>
					<dim>256</dim>
					<dim>448</dim>
				</port>
				<port id="1">
					<dim>1</dim>
					<dim>8</dim>
					<dim>1</dim>
					<dim>1</dim>
				</port>
				<port id="2">
					<dim>1</dim>
					<dim>8</dim>
					<dim>1</dim>
					<dim>1</dim>
				</port>
				<port id="3">
					<dim>1</dim>
					<dim>8</dim>
					<dim>1</dim>
					<dim>1</dim>
				</port>
				<port id="4">
					<dim>1</dim>
					<dim>8</dim>
					<dim>1</dim>
					<dim>1</dim>
				</port>
			</input>
			<output>
				<port id="5" precision="FP16">
					<dim>1</dim>
					<dim>8</dim>
					<dim>256</dim>
					<dim>448</dim>
				</port>
			</output>
		</layer>
		<layer id="165" name="L0019_Conv2d_BN/WithoutBiases/fq_weights_1/Convert_to_float/Cast_013758_const" type="Const" version="opset1">
			<data element_type="u8" offset="2580" shape="8,1,3,3" size="72"/>
			<output>
				<port id="1" precision="U8">
					<dim>8</dim>
					<dim>1</dim>
					<dim>3</dim>
					<dim>3</dim>
				</port>
			</output>
		</layer>
		<layer id="166" name="L0019_Conv2d_BN/WithoutBiases/fq_weights_1/Convert_to_float" type="Convert" version="opset1">
			<data destination_type="f16"/>
			<input>
				<port id="0">
					<dim>8</dim>
					<dim>1</dim>
					<dim>3</dim>
					<dim>3</dim>
				</port>
			</input>
			<output>
				<port id="1" precision="FP16">
					<dim>8</dim>
					<dim>1</dim>
					<dim>3</dim>
					<dim>3</dim>
				</port>
			</output>
		</layer>
		<layer id="167" name="L0019_Conv2d_BN/WithoutBiases/fq_weights_1/Copy/out_low12135_const" type="Const" version="opset1">
			<data element_type="f16" offset="0" shape="1" size="2"/>
			<output>
				<port id="1" precision="FP16">
					<dim>1</dim>
				</port>
			</output>
		</layer>
		<layer id="168" name="L0019_Conv2d_BN/WithoutBiases/fq_weights_1/Copy/out_high12136_const" type="Const" version="opset1">
			<data element_type="f16" offset="436" shape="1" size="2"/>
			<output>
				<port id="1" precision="FP16">
					<dim>1</dim>
				</port>
			</output>
		</layer>
		<layer id="169" name="36223626_const" type="Const" version="opset1">
			<data element_type="f16" offset="2652" shape="8,1,1,1" size="16"/>
			<output>
				<port id="1" precision="FP16">
					<dim>8</dim>
					<dim>1</dim>
					<dim>1</dim>
					<dim>1</dim>
				</port>
			</output>
		</layer>
		<layer id="170" name="36233627_const" type="Const" version="opset1">
			<data element_type="f16" offset="2668" shape="8,1,1,1" size="16"/>
			<output>
				<port id="1" precision="FP16">
					<dim>8</dim>
					<dim>1</dim>
					<dim>1</dim>
					<dim>1</dim>
				</port>
			</output>
		</layer>
		<layer id="171" name="L0019_Conv2d_BN/WithoutBiases/fq_weights_1" type="FakeQuantize" version="opset1">
			<data levels="255"/>
			<input>
				<port id="0">
					<dim>8</dim>
					<dim>1</dim>
					<dim>3</dim>
					<dim>3</dim>
				</port>
				<port id="1">
					<dim>1</dim>
				</port>
				<port id="2">
					<dim>1</dim>
				</port>
				<port id="3">
					<dim>8</dim>
					<dim>1</dim>
					<dim>1</dim>
					<dim>1</dim>
				</port>
				<port id="4">
					<dim>8</dim>
					<dim>1</dim>
					<dim>1</dim>
					<dim>1</dim>
				</port>
			</input>
			<output>
				<port id="5" precision="FP16">
					<dim>8</dim>
					<dim>1</dim>
					<dim>3</dim>
					<dim>3</dim>
				</port>
			</output>
		</layer>
		<layer id="172" name="15638/value15640_const" type="Const" version="opset1">
			<data element_type="i64" offset="848" shape="5" size="40"/>
			<output>
				<port id="1" precision="I64">
					<dim>5</dim>
				</port>
			</output>
		</layer>
		<layer id="173" name="15638" type="Reshape" version="opset1">
			<data special_zero="True"/>
			<input>
				<port id="0">
					<dim>8</dim>
					<dim>1</dim>
					<dim>3</dim>
					<dim>3</dim>
				</port>
				<port id="1">
					<dim>5</dim>
				</port>
			</input>
			<output>
				<port id="2" precision="FP16">
					<dim>8</dim>
					<dim>1</dim>
					<dim>1</dim>
					<dim>3</dim>
					<dim>3</dim>
				</port>
			</output>
		</layer>
		<layer id="174" name="L0019_Conv2d_BN/WithoutBiases" type="GroupConvolution" version="opset1">
			<data dilations="1,1" output_padding="0,0" pads_begin="1,1" pads_end="1,1" strides="1,1"/>
			<input>
				<port id="0">
					<dim>1</dim>
					<dim>8</dim>
					<dim>256</dim>
					<dim>448</dim>
				</port>
				<port id="1">
					<dim>8</dim>
					<dim>1</dim>
					<dim>1</dim>
					<dim>3</dim>
					<dim>3</dim>
				</port>
			</input>
			<output>
				<port id="2" precision="FP16">
					<dim>1</dim>
					<dim>8</dim>
					<dim>256</dim>
					<dim>448</dim>
				</port>
			</output>
		</layer>
		<layer id="175" name="L0019_Conv2d_BN/Dims5552/copy_const786_const" type="Const" version="opset1">
			<data element_type="f16" offset="2684" shape="1,8,1,1" size="16"/>
			<output>
				<port id="1" precision="FP16">
					<dim>1</dim>
					<dim>8</dim>
					<dim>1</dim>
					<dim>1</dim>
				</port>
			</output>
		</layer>
		<layer id="176" name="L0019_Conv2d_BN" type="Add" version="opset1">
			<input>
				<port id="0">
					<dim>1</dim>
					<dim>8</dim>
					<dim>256</dim>
					<dim>448</dim>
				</port>
				<port id="1">
					<dim>1</dim>
					<dim>8</dim>
					<dim>1</dim>
					<dim>1</dim>
				</port>
			</input>
			<output>
				<port id="2" precision="FP16">
					<dim>1</dim>
					<dim>8</dim>
					<dim>256</dim>
					<dim>448</dim>
				</port>
			</output>
		</layer>
		<layer id="177" name="L0020_ReLU" type="ReLU" version="opset1">
			<input>
				<port id="0">
					<dim>1</dim>
					<dim>8</dim>
					<dim>256</dim>
					<dim>448</dim>
				</port>
			</input>
			<output>
				<port id="1" precision="FP16">
					<dim>1</dim>
					<dim>8</dim>
					<dim>256</dim>
					<dim>448</dim>
				</port>
			</output>
		</layer>
		<layer id="178" name="54105414_const" type="Const" version="opset1">
			<data element_type="f16" offset="0" shape="" size="2"/>
			<output>
				<port id="1" precision="FP16"/>
			</output>
		</layer>
		<layer id="179" name="54115415_const" type="Const" version="opset1">
			<data element_type="f16" offset="2700" shape="" size="2"/>
			<output>
				<port id="1" precision="FP16"/>
			</output>
		</layer>
		<layer id="180" name="54125416_const" type="Const" version="opset1">
			<data element_type="f16" offset="0" shape="" size="2"/>
			<output>
				<port id="1" precision="FP16"/>
			</output>
		</layer>
		<layer id="181" name="54135417_const" type="Const" version="opset1">
			<data element_type="f16" offset="2700" shape="" size="2"/>
			<output>
				<port id="1" precision="FP16"/>
			</output>
		</layer>
		<layer id="182" name="L0021_Conv2d_BN/WithoutBiases/fq_input_0" type="FakeQuantize" version="opset1">
			<data levels="256"/>
			<input>
				<port id="0">
					<dim>1</dim>
					<dim>8</dim>
					<dim>256</dim>
					<dim>448</dim>
				</port>
				<port id="1"/>
				<port id="2"/>
				<port id="3"/>
				<port id="4"/>
			</input>
			<output>
				<port id="5" precision="FP16">
					<dim>1</dim>
					<dim>8</dim>
					<dim>256</dim>
					<dim>448</dim>
				</port>
			</output>
		</layer>
		<layer id="183" name="L0021_Conv2d_BN/WithoutBiases/fq_weights_1/Convert_to_float/Cast_013810_const" type="Const" version="opset1">
			<data element_type="u8" offset="2702" shape="24,8,1,1" size="192"/>
			<output>
				<port id="1" precision="U8">
					<dim>24</dim>
					<dim>8</dim>
					<dim>1</dim>
					<dim>1</dim>
				</port>
			</output>
		</layer>
		<layer id="184" name="L0021_Conv2d_BN/WithoutBiases/fq_weights_1/Convert_to_float" type="Convert" version="opset1">
			<data destination_type="f16"/>
			<input>
				<port id="0">
					<dim>24</dim>
					<dim>8</dim>
					<dim>1</dim>
					<dim>1</dim>
				</port>
			</input>
			<output>
				<port id="1" precision="FP16">
					<dim>24</dim>
					<dim>8</dim>
					<dim>1</dim>
					<dim>1</dim>
				</port>
			</output>
		</layer>
		<layer id="185" name="L0021_Conv2d_BN/WithoutBiases/fq_weights_1/Copy/out_low11207_const" type="Const" version="opset1">
			<data element_type="f16" offset="0" shape="1" size="2"/>
			<output>
				<port id="1" precision="FP16">
					<dim>1</dim>
				</port>
			</output>
		</layer>
		<layer id="186" name="L0021_Conv2d_BN/WithoutBiases/fq_weights_1/Copy/out_high11208_const" type="Const" version="opset1">
			<data element_type="f16" offset="436" shape="1" size="2"/>
			<output>
				<port id="1" precision="FP16">
					<dim>1</dim>
				</port>
			</output>
		</layer>
		<layer id="187" name="54225426_const" type="Const" version="opset1">
			<data element_type="f16" offset="2894" shape="24,1,1,1" size="48"/>
			<output>
				<port id="1" precision="FP16">
					<dim>24</dim>
					<dim>1</dim>
					<dim>1</dim>
					<dim>1</dim>
				</port>
			</output>
		</layer>
		<layer id="188" name="54235427_const" type="Const" version="opset1">
			<data element_type="f16" offset="2942" shape="24,1,1,1" size="48"/>
			<output>
				<port id="1" precision="FP16">
					<dim>24</dim>
					<dim>1</dim>
					<dim>1</dim>
					<dim>1</dim>
				</port>
			</output>
		</layer>
		<layer id="189" name="L0021_Conv2d_BN/WithoutBiases/fq_weights_1" type="FakeQuantize" version="opset1">
			<data levels="255"/>
			<input>
				<port id="0">
					<dim>24</dim>
					<dim>8</dim>
					<dim>1</dim>
					<dim>1</dim>
				</port>
				<port id="1">
					<dim>1</dim>
				</port>
				<port id="2">
					<dim>1</dim>
				</port>
				<port id="3">
					<dim>24</dim>
					<dim>1</dim>
					<dim>1</dim>
					<dim>1</dim>
				</port>
				<port id="4">
					<dim>24</dim>
					<dim>1</dim>
					<dim>1</dim>
					<dim>1</dim>
				</port>
			</input>
			<output>
				<port id="5" precision="FP16">
					<dim>24</dim>
					<dim>8</dim>
					<dim>1</dim>
					<dim>1</dim>
				</port>
			</output>
		</layer>
		<layer id="190" name="L0021_Conv2d_BN/WithoutBiases" type="Convolution" version="opset1">
			<data dilations="1,1" output_padding="0,0" pads_begin="0,0" pads_end="0,0" strides="1,1"/>
			<input>
				<port id="0">
					<dim>1</dim>
					<dim>8</dim>
					<dim>256</dim>
					<dim>448</dim>
				</port>
				<port id="1">
					<dim>24</dim>
					<dim>8</dim>
					<dim>1</dim>
					<dim>1</dim>
				</port>
			</input>
			<output>
				<port id="2" precision="FP16">
					<dim>1</dim>
					<dim>24</dim>
					<dim>256</dim>
					<dim>448</dim>
				</port>
			</output>
		</layer>
		<layer id="191" name="L0021_Conv2d_BN/Dims5762/copy_const791_const" type="Const" version="opset1">
			<data element_type="f16" offset="2990" shape="1,24,1,1" size="48"/>
			<output>
				<port id="1" precision="FP16">
					<dim>1</dim>
					<dim>24</dim>
					<dim>1</dim>
					<dim>1</dim>
				</port>
			</output>
		</layer>
		<layer id="192" name="L0021_Conv2d_BN" type="Add" version="opset1">
			<input>
				<port id="0">
					<dim>1</dim>
					<dim>24</dim>
					<dim>256</dim>
					<dim>448</dim>
				</port>
				<port id="1">
					<dim>1</dim>
					<dim>24</dim>
					<dim>1</dim>
					<dim>1</dim>
				</port>
			</input>
			<output>
				<port id="2" precision="FP16">
					<dim>1</dim>
					<dim>24</dim>
					<dim>256</dim>
					<dim>448</dim>
				</port>
			</output>
		</layer>
		<layer id="193" name="58105814_const" type="Const" version="opset1">
			<data element_type="f16" offset="3038" shape="" size="2"/>
			<output>
				<port id="1" precision="FP16"/>
			</output>
		</layer>
		<layer id="194" name="58115815_const" type="Const" version="opset1">
			<data element_type="f16" offset="3040" shape="" size="2"/>
			<output>
				<port id="1" precision="FP16"/>
			</output>
		</layer>
		<layer id="195" name="58125816_const" type="Const" version="opset1">
			<data element_type="f16" offset="3038" shape="" size="2"/>
			<output>
				<port id="1" precision="FP16"/>
			</output>
		</layer>
		<layer id="196" name="58135817_const" type="Const" version="opset1">
			<data element_type="f16" offset="3040" shape="" size="2"/>
			<output>
				<port id="1" precision="FP16"/>
			</output>
		</layer>
		<layer id="197" name="L0022_AddBackward1/fq_input_0" type="FakeQuantize" version="opset1">
			<data levels="256"/>
			<input>
				<port id="0">
					<dim>1</dim>
					<dim>24</dim>
					<dim>256</dim>
					<dim>448</dim>
				</port>
				<port id="1"/>
				<port id="2"/>
				<port id="3"/>
				<port id="4"/>
			</input>
			<output>
				<port id="5" precision="FP16">
					<dim>1</dim>
					<dim>24</dim>
					<dim>256</dim>
					<dim>448</dim>
				</port>
			</output>
		</layer>
		<layer id="198" name="L0022_AddBackward1" type="Add" version="opset1">
			<input>
				<port id="0">
					<dim>1</dim>
					<dim>24</dim>
					<dim>256</dim>
					<dim>448</dim>
				</port>
				<port id="1">
					<dim>1</dim>
					<dim>24</dim>
					<dim>256</dim>
					<dim>448</dim>
				</port>
			</input>
			<output>
				<port id="2" precision="FP16">
					<dim>1</dim>
					<dim>24</dim>
					<dim>256</dim>
					<dim>448</dim>
				</port>
			</output>
		</layer>
		<layer id="199" name="L0023_ReLU" type="ReLU" version="opset1">
			<input>
				<port id="0">
					<dim>1</dim>
					<dim>24</dim>
					<dim>256</dim>
					<dim>448</dim>
				</port>
			</input>
			<output>
				<port id="1" precision="FP16">
					<dim>1</dim>
					<dim>24</dim>
					<dim>256</dim>
					<dim>448</dim>
				</port>
			</output>
		</layer>
		<layer id="200" name="47304734_const" type="Const" version="opset1">
			<data element_type="f16" offset="0" shape="" size="2"/>
			<output>
				<port id="1" precision="FP16"/>
			</output>
		</layer>
		<layer id="201" name="47314735_const" type="Const" version="opset1">
			<data element_type="f16" offset="3042" shape="" size="2"/>
			<output>
				<port id="1" precision="FP16"/>
			</output>
		</layer>
		<layer id="202" name="47324736_const" type="Const" version="opset1">
			<data element_type="f16" offset="0" shape="" size="2"/>
			<output>
				<port id="1" precision="FP16"/>
			</output>
		</layer>
		<layer id="203" name="47334737_const" type="Const" version="opset1">
			<data element_type="f16" offset="3042" shape="" size="2"/>
			<output>
				<port id="1" precision="FP16"/>
			</output>
		</layer>
		<layer id="204" name="L0024_Conv2d_BN/WithoutBiases/fq_input_0" type="FakeQuantize" version="opset1">
			<data levels="256"/>
			<input>
				<port id="0">
					<dim>1</dim>
					<dim>24</dim>
					<dim>256</dim>
					<dim>448</dim>
				</port>
				<port id="1"/>
				<port id="2"/>
				<port id="3"/>
				<port id="4"/>
			</input>
			<output>
				<port id="5" precision="FP16">
					<dim>1</dim>
					<dim>24</dim>
					<dim>256</dim>
					<dim>448</dim>
				</port>
			</output>
		</layer>
		<layer id="205" name="L0024_Conv2d_BN/WithoutBiases/fq_weights_1/Convert_to_float/Cast_013986_const" type="Const" version="opset1">
			<data element_type="u8" offset="3044" shape="8,24,1,1" size="192"/>
			<output>
				<port id="1" precision="U8">
					<dim>8</dim>
					<dim>24</dim>
					<dim>1</dim>
					<dim>1</dim>
				</port>
			</output>
		</layer>
		<layer id="206" name="L0024_Conv2d_BN/WithoutBiases/fq_weights_1/Convert_to_float" type="Convert" version="opset1">
			<data destination_type="f16"/>
			<input>
				<port id="0">
					<dim>8</dim>
					<dim>24</dim>
					<dim>1</dim>
					<dim>1</dim>
				</port>
			</input>
			<output>
				<port id="1" precision="FP16">
					<dim>8</dim>
					<dim>24</dim>
					<dim>1</dim>
					<dim>1</dim>
				</port>
			</output>
		</layer>
		<layer id="207" name="L0024_Conv2d_BN/WithoutBiases/fq_weights_1/Copy/out_low11847_const" type="Const" version="opset1">
			<data element_type="f16" offset="0" shape="1" size="2"/>
			<output>
				<port id="1" precision="FP16">
					<dim>1</dim>
				</port>
			</output>
		</layer>
		<layer id="208" name="L0024_Conv2d_BN/WithoutBiases/fq_weights_1/Copy/out_high11848_const" type="Const" version="opset1">
			<data element_type="f16" offset="436" shape="1" size="2"/>
			<output>
				<port id="1" precision="FP16">
					<dim>1</dim>
				</port>
			</output>
		</layer>
		<layer id="209" name="47424746_const" type="Const" version="opset1">
			<data element_type="f16" offset="3236" shape="8,1,1,1" size="16"/>
			<output>
				<port id="1" precision="FP16">
					<dim>8</dim>
					<dim>1</dim>
					<dim>1</dim>
					<dim>1</dim>
				</port>
			</output>
		</layer>
		<layer id="210" name="47434747_const" type="Const" version="opset1">
			<data element_type="f16" offset="3252" shape="8,1,1,1" size="16"/>
			<output>
				<port id="1" precision="FP16">
					<dim>8</dim>
					<dim>1</dim>
					<dim>1</dim>
					<dim>1</dim>
				</port>
			</output>
		</layer>
		<layer id="211" name="L0024_Conv2d_BN/WithoutBiases/fq_weights_1" type="FakeQuantize" version="opset1">
			<data levels="255"/>
			<input>
				<port id="0">
					<dim>8</dim>
					<dim>24</dim>
					<dim>1</dim>
					<dim>1</dim>
				</port>
				<port id="1">
					<dim>1</dim>
				</port>
				<port id="2">
					<dim>1</dim>
				</port>
				<port id="3">
					<dim>8</dim>
					<dim>1</dim>
					<dim>1</dim>
					<dim>1</dim>
				</port>
				<port id="4">
					<dim>8</dim>
					<dim>1</dim>
					<dim>1</dim>
					<dim>1</dim>
				</port>
			</input>
			<output>
				<port id="5" precision="FP16">
					<dim>8</dim>
					<dim>24</dim>
					<dim>1</dim>
					<dim>1</dim>
				</port>
			</output>
		</layer>
		<layer id="212" name="L0024_Conv2d_BN/WithoutBiases" type="Convolution" version="opset1">
			<data dilations="1,1" output_padding="0,0" pads_begin="0,0" pads_end="0,0" strides="1,1"/>
			<input>
				<port id="0">
					<dim>1</dim>
					<dim>24</dim>
					<dim>256</dim>
					<dim>448</dim>
				</port>
				<port id="1">
					<dim>8</dim>
					<dim>24</dim>
					<dim>1</dim>
					<dim>1</dim>
				</port>
			</input>
			<output>
				<port id="2" precision="FP16">
					<dim>1</dim>
					<dim>8</dim>
					<dim>256</dim>
					<dim>448</dim>
				</port>
			</output>
		</layer>
		<layer id="213" name="L0024_Conv2d_BN/Dims5774/copy_const797_const" type="Const" version="opset1">
			<data element_type="f16" offset="3268" shape="1,8,1,1" size="16"/>
			<output>
				<port id="1" precision="FP16">
					<dim>1</dim>
					<dim>8</dim>
					<dim>1</dim>
					<dim>1</dim>
				</port>
			</output>
		</layer>
		<layer id="214" name="L0024_Conv2d_BN" type="Add" version="opset1">
			<input>
				<port id="0">
					<dim>1</dim>
					<dim>8</dim>
					<dim>256</dim>
					<dim>448</dim>
				</port>
				<port id="1">
					<dim>1</dim>
					<dim>8</dim>
					<dim>1</dim>
					<dim>1</dim>
				</port>
			</input>
			<output>
				<port id="2" precision="FP16">
					<dim>1</dim>
					<dim>8</dim>
					<dim>256</dim>
					<dim>448</dim>
				</port>
			</output>
		</layer>
		<layer id="215" name="L0025_ReLU" type="ReLU" version="opset1">
			<input>
				<port id="0">
					<dim>1</dim>
					<dim>8</dim>
					<dim>256</dim>
					<dim>448</dim>
				</port>
			</input>
			<output>
				<port id="1" precision="FP16">
					<dim>1</dim>
					<dim>8</dim>
					<dim>256</dim>
					<dim>448</dim>
				</port>
			</output>
		</layer>
		<layer id="216" name="47704774_const" type="Const" version="opset1">
			<data element_type="f16" offset="712" shape="1,8,1,1" size="16"/>
			<output>
				<port id="1" precision="FP16">
					<dim>1</dim>
					<dim>8</dim>
					<dim>1</dim>
					<dim>1</dim>
				</port>
			</output>
		</layer>
		<layer id="217" name="47714775_const" type="Const" version="opset1">
			<data element_type="f16" offset="3284" shape="1,8,1,1" size="16"/>
			<output>
				<port id="1" precision="FP16">
					<dim>1</dim>
					<dim>8</dim>
					<dim>1</dim>
					<dim>1</dim>
				</port>
			</output>
		</layer>
		<layer id="218" name="47724776_const" type="Const" version="opset1">
			<data element_type="f16" offset="712" shape="1,8,1,1" size="16"/>
			<output>
				<port id="1" precision="FP16">
					<dim>1</dim>
					<dim>8</dim>
					<dim>1</dim>
					<dim>1</dim>
				</port>
			</output>
		</layer>
		<layer id="219" name="47734777_const" type="Const" version="opset1">
			<data element_type="f16" offset="3284" shape="1,8,1,1" size="16"/>
			<output>
				<port id="1" precision="FP16">
					<dim>1</dim>
					<dim>8</dim>
					<dim>1</dim>
					<dim>1</dim>
				</port>
			</output>
		</layer>
		<layer id="220" name="L0026_Conv2d_BN/WithoutBiases/fq_input_0" type="FakeQuantize" version="opset1">
			<data levels="256"/>
			<input>
				<port id="0">
					<dim>1</dim>
					<dim>8</dim>
					<dim>256</dim>
					<dim>448</dim>
				</port>
				<port id="1">
					<dim>1</dim>
					<dim>8</dim>
					<dim>1</dim>
					<dim>1</dim>
				</port>
				<port id="2">
					<dim>1</dim>
					<dim>8</dim>
					<dim>1</dim>
					<dim>1</dim>
				</port>
				<port id="3">
					<dim>1</dim>
					<dim>8</dim>
					<dim>1</dim>
					<dim>1</dim>
				</port>
				<port id="4">
					<dim>1</dim>
					<dim>8</dim>
					<dim>1</dim>
					<dim>1</dim>
				</port>
			</input>
			<output>
				<port id="5" precision="FP16">
					<dim>1</dim>
					<dim>8</dim>
					<dim>256</dim>
					<dim>448</dim>
				</port>
			</output>
		</layer>
		<layer id="221" name="L0026_Conv2d_BN/WithoutBiases/fq_weights_1/Convert_to_float/Cast_014012_const" type="Const" version="opset1">
			<data element_type="u8" offset="3300" shape="8,1,3,3" size="72"/>
			<output>
				<port id="1" precision="U8">
					<dim>8</dim>
					<dim>1</dim>
					<dim>3</dim>
					<dim>3</dim>
				</port>
			</output>
		</layer>
		<layer id="222" name="L0026_Conv2d_BN/WithoutBiases/fq_weights_1/Convert_to_float" type="Convert" version="opset1">
			<data destination_type="f16"/>
			<input>
				<port id="0">
					<dim>8</dim>
					<dim>1</dim>
					<dim>3</dim>
					<dim>3</dim>
				</port>
			</input>
			<output>
				<port id="1" precision="FP16">
					<dim>8</dim>
					<dim>1</dim>
					<dim>3</dim>
					<dim>3</dim>
				</port>
			</output>
		</layer>
		<layer id="223" name="L0026_Conv2d_BN/WithoutBiases/fq_weights_1/Copy/out_low11223_const" type="Const" version="opset1">
			<data element_type="f16" offset="0" shape="1" size="2"/>
			<output>
				<port id="1" precision="FP16">
					<dim>1</dim>
				</port>
			</output>
		</layer>
		<layer id="224" name="L0026_Conv2d_BN/WithoutBiases/fq_weights_1/Copy/out_high11224_const" type="Const" version="opset1">
			<data element_type="f16" offset="436" shape="1" size="2"/>
			<output>
				<port id="1" precision="FP16">
					<dim>1</dim>
				</port>
			</output>
		</layer>
		<layer id="225" name="47824786_const" type="Const" version="opset1">
			<data element_type="f16" offset="3372" shape="8,1,1,1" size="16"/>
			<output>
				<port id="1" precision="FP16">
					<dim>8</dim>
					<dim>1</dim>
					<dim>1</dim>
					<dim>1</dim>
				</port>
			</output>
		</layer>
		<layer id="226" name="47834787_const" type="Const" version="opset1">
			<data element_type="f16" offset="3388" shape="8,1,1,1" size="16"/>
			<output>
				<port id="1" precision="FP16">
					<dim>8</dim>
					<dim>1</dim>
					<dim>1</dim>
					<dim>1</dim>
				</port>
			</output>
		</layer>
		<layer id="227" name="L0026_Conv2d_BN/WithoutBiases/fq_weights_1" type="FakeQuantize" version="opset1">
			<data levels="255"/>
			<input>
				<port id="0">
					<dim>8</dim>
					<dim>1</dim>
					<dim>3</dim>
					<dim>3</dim>
				</port>
				<port id="1">
					<dim>1</dim>
				</port>
				<port id="2">
					<dim>1</dim>
				</port>
				<port id="3">
					<dim>8</dim>
					<dim>1</dim>
					<dim>1</dim>
					<dim>1</dim>
				</port>
				<port id="4">
					<dim>8</dim>
					<dim>1</dim>
					<dim>1</dim>
					<dim>1</dim>
				</port>
			</input>
			<output>
				<port id="5" precision="FP16">
					<dim>8</dim>
					<dim>1</dim>
					<dim>3</dim>
					<dim>3</dim>
				</port>
			</output>
		</layer>
		<layer id="228" name="15702/value15704_const" type="Const" version="opset1">
			<data element_type="i64" offset="848" shape="5" size="40"/>
			<output>
				<port id="1" precision="I64">
					<dim>5</dim>
				</port>
			</output>
		</layer>
		<layer id="229" name="15702" type="Reshape" version="opset1">
			<data special_zero="True"/>
			<input>
				<port id="0">
					<dim>8</dim>
					<dim>1</dim>
					<dim>3</dim>
					<dim>3</dim>
				</port>
				<port id="1">
					<dim>5</dim>
				</port>
			</input>
			<output>
				<port id="2" precision="FP16">
					<dim>8</dim>
					<dim>1</dim>
					<dim>1</dim>
					<dim>3</dim>
					<dim>3</dim>
				</port>
			</output>
		</layer>
		<layer id="230" name="L0026_Conv2d_BN/WithoutBiases" type="GroupConvolution" version="opset1">
			<data dilations="1,1" output_padding="0,0" pads_begin="1,1" pads_end="1,1" strides="1,1"/>
			<input>
				<port id="0">
					<dim>1</dim>
					<dim>8</dim>
					<dim>256</dim>
					<dim>448</dim>
				</port>
				<port id="1">
					<dim>8</dim>
					<dim>1</dim>
					<dim>1</dim>
					<dim>3</dim>
					<dim>3</dim>
				</port>
			</input>
			<output>
				<port id="2" precision="FP16">
					<dim>1</dim>
					<dim>8</dim>
					<dim>256</dim>
					<dim>448</dim>
				</port>
			</output>
		</layer>
		<layer id="231" name="L0026_Conv2d_BN/Dims5564/copy_const802_const" type="Const" version="opset1">
			<data element_type="f16" offset="3404" shape="1,8,1,1" size="16"/>
			<output>
				<port id="1" precision="FP16">
					<dim>1</dim>
					<dim>8</dim>
					<dim>1</dim>
					<dim>1</dim>
				</port>
			</output>
		</layer>
		<layer id="232" name="L0026_Conv2d_BN" type="Add" version="opset1">
			<input>
				<port id="0">
					<dim>1</dim>
					<dim>8</dim>
					<dim>256</dim>
					<dim>448</dim>
				</port>
				<port id="1">
					<dim>1</dim>
					<dim>8</dim>
					<dim>1</dim>
					<dim>1</dim>
				</port>
			</input>
			<output>
				<port id="2" precision="FP16">
					<dim>1</dim>
					<dim>8</dim>
					<dim>256</dim>
					<dim>448</dim>
				</port>
			</output>
		</layer>
		<layer id="233" name="L0027_ReLU" type="ReLU" version="opset1">
			<input>
				<port id="0">
					<dim>1</dim>
					<dim>8</dim>
					<dim>256</dim>
					<dim>448</dim>
				</port>
			</input>
			<output>
				<port id="1" precision="FP16">
					<dim>1</dim>
					<dim>8</dim>
					<dim>256</dim>
					<dim>448</dim>
				</port>
			</output>
		</layer>
		<layer id="234" name="56105614_const" type="Const" version="opset1">
			<data element_type="f16" offset="0" shape="" size="2"/>
			<output>
				<port id="1" precision="FP16"/>
			</output>
		</layer>
		<layer id="235" name="56115615_const" type="Const" version="opset1">
			<data element_type="f16" offset="3420" shape="" size="2"/>
			<output>
				<port id="1" precision="FP16"/>
			</output>
		</layer>
		<layer id="236" name="56125616_const" type="Const" version="opset1">
			<data element_type="f16" offset="0" shape="" size="2"/>
			<output>
				<port id="1" precision="FP16"/>
			</output>
		</layer>
		<layer id="237" name="56135617_const" type="Const" version="opset1">
			<data element_type="f16" offset="3420" shape="" size="2"/>
			<output>
				<port id="1" precision="FP16"/>
			</output>
		</layer>
		<layer id="238" name="L0028_Conv2d_BN/WithoutBiases/fq_input_0" type="FakeQuantize" version="opset1">
			<data levels="256"/>
			<input>
				<port id="0">
					<dim>1</dim>
					<dim>8</dim>
					<dim>256</dim>
					<dim>448</dim>
				</port>
				<port id="1"/>
				<port id="2"/>
				<port id="3"/>
				<port id="4"/>
			</input>
			<output>
				<port id="5" precision="FP16">
					<dim>1</dim>
					<dim>8</dim>
					<dim>256</dim>
					<dim>448</dim>
				</port>
			</output>
		</layer>
		<layer id="239" name="L0028_Conv2d_BN/WithoutBiases/fq_weights_1/Convert_to_float/Cast_014006_const" type="Const" version="opset1">
			<data element_type="u8" offset="3422" shape="32,8,1,1" size="256"/>
			<output>
				<port id="1" precision="U8">
					<dim>32</dim>
					<dim>8</dim>
					<dim>1</dim>
					<dim>1</dim>
				</port>
			</output>
		</layer>
		<layer id="240" name="L0028_Conv2d_BN/WithoutBiases/fq_weights_1/Convert_to_float" type="Convert" version="opset1">
			<data destination_type="f16"/>
			<input>
				<port id="0">
					<dim>32</dim>
					<dim>8</dim>
					<dim>1</dim>
					<dim>1</dim>
				</port>
			</input>
			<output>
				<port id="1" precision="FP16">
					<dim>32</dim>
					<dim>8</dim>
					<dim>1</dim>
					<dim>1</dim>
				</port>
			</output>
		</layer>
		<layer id="241" name="L0028_Conv2d_BN/WithoutBiases/fq_weights_1/Copy/out_low11967_const" type="Const" version="opset1">
			<data element_type="f16" offset="0" shape="1" size="2"/>
			<output>
				<port id="1" precision="FP16">
					<dim>1</dim>
				</port>
			</output>
		</layer>
		<layer id="242" name="L0028_Conv2d_BN/WithoutBiases/fq_weights_1/Copy/out_high11968_const" type="Const" version="opset1">
			<data element_type="f16" offset="436" shape="1" size="2"/>
			<output>
				<port id="1" precision="FP16">
					<dim>1</dim>
				</port>
			</output>
		</layer>
		<layer id="243" name="56225626_const" type="Const" version="opset1">
			<data element_type="f16" offset="3678" shape="32,1,1,1" size="64"/>
			<output>
				<port id="1" precision="FP16">
					<dim>32</dim>
					<dim>1</dim>
					<dim>1</dim>
					<dim>1</dim>
				</port>
			</output>
		</layer>
		<layer id="244" name="56235627_const" type="Const" version="opset1">
			<data element_type="f16" offset="3742" shape="32,1,1,1" size="64"/>
			<output>
				<port id="1" precision="FP16">
					<dim>32</dim>
					<dim>1</dim>
					<dim>1</dim>
					<dim>1</dim>
				</port>
			</output>
		</layer>
		<layer id="245" name="L0028_Conv2d_BN/WithoutBiases/fq_weights_1" type="FakeQuantize" version="opset1">
			<data levels="255"/>
			<input>
				<port id="0">
					<dim>32</dim>
					<dim>8</dim>
					<dim>1</dim>
					<dim>1</dim>
				</port>
				<port id="1">
					<dim>1</dim>
				</port>
				<port id="2">
					<dim>1</dim>
				</port>
				<port id="3">
					<dim>32</dim>
					<dim>1</dim>
					<dim>1</dim>
					<dim>1</dim>
				</port>
				<port id="4">
					<dim>32</dim>
					<dim>1</dim>
					<dim>1</dim>
					<dim>1</dim>
				</port>
			</input>
			<output>
				<port id="5" precision="FP16">
					<dim>32</dim>
					<dim>8</dim>
					<dim>1</dim>
					<dim>1</dim>
				</port>
			</output>
		</layer>
		<layer id="246" name="L0028_Conv2d_BN/WithoutBiases" type="Convolution" version="opset1">
			<data dilations="1,1" output_padding="0,0" pads_begin="0,0" pads_end="0,0" strides="1,1"/>
			<input>
				<port id="0">
					<dim>1</dim>
					<dim>8</dim>
					<dim>256</dim>
					<dim>448</dim>
				</port>
				<port id="1">
					<dim>32</dim>
					<dim>8</dim>
					<dim>1</dim>
					<dim>1</dim>
				</port>
			</input>
			<output>
				<port id="2" precision="FP16">
					<dim>1</dim>
					<dim>32</dim>
					<dim>256</dim>
					<dim>448</dim>
				</port>
			</output>
		</layer>
		<layer id="247" name="L0028_Conv2d_BN/Dims5600/copy_const807_const" type="Const" version="opset1">
			<data element_type="f16" offset="3806" shape="1,32,1,1" size="64"/>
			<output>
				<port id="1" precision="FP16">
					<dim>1</dim>
					<dim>32</dim>
					<dim>1</dim>
					<dim>1</dim>
				</port>
			</output>
		</layer>
		<layer id="248" name="L0028_Conv2d_BN" type="Add" version="opset1">
			<input>
				<port id="0">
					<dim>1</dim>
					<dim>32</dim>
					<dim>256</dim>
					<dim>448</dim>
				</port>
				<port id="1">
					<dim>1</dim>
					<dim>32</dim>
					<dim>1</dim>
					<dim>1</dim>
				</port>
			</input>
			<output>
				<port id="2" precision="FP16">
					<dim>1</dim>
					<dim>32</dim>
					<dim>256</dim>
					<dim>448</dim>
				</port>
			</output>
		</layer>
		<layer id="249" name="37503754_const" type="Const" version="opset1">
			<data element_type="f16" offset="3870" shape="" size="2"/>
			<output>
				<port id="1" precision="FP16"/>
			</output>
		</layer>
		<layer id="250" name="37513755_const" type="Const" version="opset1">
			<data element_type="f16" offset="3872" shape="" size="2"/>
			<output>
				<port id="1" precision="FP16"/>
			</output>
		</layer>
		<layer id="251" name="37523756_const" type="Const" version="opset1">
			<data element_type="f16" offset="3870" shape="" size="2"/>
			<output>
				<port id="1" precision="FP16"/>
			</output>
		</layer>
		<layer id="252" name="37533757_const" type="Const" version="opset1">
			<data element_type="f16" offset="3872" shape="" size="2"/>
			<output>
				<port id="1" precision="FP16"/>
			</output>
		</layer>
		<layer id="253" name="L0030_AddBackward1/fq_input_0" type="FakeQuantize" version="opset1">
			<data levels="256"/>
			<input>
				<port id="0">
					<dim>1</dim>
					<dim>32</dim>
					<dim>256</dim>
					<dim>448</dim>
				</port>
				<port id="1"/>
				<port id="2"/>
				<port id="3"/>
				<port id="4"/>
			</input>
			<output>
				<port id="5" precision="FP16">
					<dim>1</dim>
					<dim>32</dim>
					<dim>256</dim>
					<dim>448</dim>
				</port>
			</output>
		</layer>
		<layer id="254" name="L0029_Conv2d_BN/WithoutBiases/fq_weights_1/Convert_to_float/Cast_013890_const" type="Const" version="opset1">
			<data element_type="u8" offset="3874" shape="32,24,1,1" size="768"/>
			<output>
				<port id="1" precision="U8">
					<dim>32</dim>
					<dim>24</dim>
					<dim>1</dim>
					<dim>1</dim>
				</port>
			</output>
		</layer>
		<layer id="255" name="L0029_Conv2d_BN/WithoutBiases/fq_weights_1/Convert_to_float" type="Convert" version="opset1">
			<data destination_type="f16"/>
			<input>
				<port id="0">
					<dim>32</dim>
					<dim>24</dim>
					<dim>1</dim>
					<dim>1</dim>
				</port>
			</input>
			<output>
				<port id="1" precision="FP16">
					<dim>32</dim>
					<dim>24</dim>
					<dim>1</dim>
					<dim>1</dim>
				</port>
			</output>
		</layer>
		<layer id="256" name="L0029_Conv2d_BN/WithoutBiases/fq_weights_1/Copy/out_low11951_const" type="Const" version="opset1">
			<data element_type="f16" offset="0" shape="1" size="2"/>
			<output>
				<port id="1" precision="FP16">
					<dim>1</dim>
				</port>
			</output>
		</layer>
		<layer id="257" name="L0029_Conv2d_BN/WithoutBiases/fq_weights_1/Copy/out_high11952_const" type="Const" version="opset1">
			<data element_type="f16" offset="436" shape="1" size="2"/>
			<output>
				<port id="1" precision="FP16">
					<dim>1</dim>
				</port>
			</output>
		</layer>
		<layer id="258" name="38023806_const" type="Const" version="opset1">
			<data element_type="f16" offset="4642" shape="32,1,1,1" size="64"/>
			<output>
				<port id="1" precision="FP16">
					<dim>32</dim>
					<dim>1</dim>
					<dim>1</dim>
					<dim>1</dim>
				</port>
			</output>
		</layer>
		<layer id="259" name="38033807_const" type="Const" version="opset1">
			<data element_type="f16" offset="4706" shape="32,1,1,1" size="64"/>
			<output>
				<port id="1" precision="FP16">
					<dim>32</dim>
					<dim>1</dim>
					<dim>1</dim>
					<dim>1</dim>
				</port>
			</output>
		</layer>
		<layer id="260" name="L0029_Conv2d_BN/WithoutBiases/fq_weights_1" type="FakeQuantize" version="opset1">
			<data levels="255"/>
			<input>
				<port id="0">
					<dim>32</dim>
					<dim>24</dim>
					<dim>1</dim>
					<dim>1</dim>
				</port>
				<port id="1">
					<dim>1</dim>
				</port>
				<port id="2">
					<dim>1</dim>
				</port>
				<port id="3">
					<dim>32</dim>
					<dim>1</dim>
					<dim>1</dim>
					<dim>1</dim>
				</port>
				<port id="4">
					<dim>32</dim>
					<dim>1</dim>
					<dim>1</dim>
					<dim>1</dim>
				</port>
			</input>
			<output>
				<port id="5" precision="FP16">
					<dim>32</dim>
					<dim>24</dim>
					<dim>1</dim>
					<dim>1</dim>
				</port>
			</output>
		</layer>
		<layer id="261" name="L0029_Conv2d_BN/WithoutBiases" type="Convolution" version="opset1">
			<data dilations="1,1" output_padding="0,0" pads_begin="0,0" pads_end="0,0" strides="1,1"/>
			<input>
				<port id="0">
					<dim>1</dim>
					<dim>24</dim>
					<dim>256</dim>
					<dim>448</dim>
				</port>
				<port id="1">
					<dim>32</dim>
					<dim>24</dim>
					<dim>1</dim>
					<dim>1</dim>
				</port>
			</input>
			<output>
				<port id="2" precision="FP16">
					<dim>1</dim>
					<dim>32</dim>
					<dim>256</dim>
					<dim>448</dim>
				</port>
			</output>
		</layer>
		<layer id="262" name="L0029_Conv2d_BN/Dims5570/copy_const811_const" type="Const" version="opset1">
			<data element_type="f16" offset="4770" shape="1,32,1,1" size="64"/>
			<output>
				<port id="1" precision="FP16">
					<dim>1</dim>
					<dim>32</dim>
					<dim>1</dim>
					<dim>1</dim>
				</port>
			</output>
		</layer>
		<layer id="263" name="L0029_Conv2d_BN" type="Add" version="opset1">
			<input>
				<port id="0">
					<dim>1</dim>
					<dim>32</dim>
					<dim>256</dim>
					<dim>448</dim>
				</port>
				<port id="1">
					<dim>1</dim>
					<dim>32</dim>
					<dim>1</dim>
					<dim>1</dim>
				</port>
			</input>
			<output>
				<port id="2" precision="FP16">
					<dim>1</dim>
					<dim>32</dim>
					<dim>256</dim>
					<dim>448</dim>
				</port>
			</output>
		</layer>
		<layer id="264" name="37603764_const" type="Const" version="opset1">
			<data element_type="f16" offset="4834" shape="" size="2"/>
			<output>
				<port id="1" precision="FP16"/>
			</output>
		</layer>
		<layer id="265" name="37613765_const" type="Const" version="opset1">
			<data element_type="f16" offset="4836" shape="" size="2"/>
			<output>
				<port id="1" precision="FP16"/>
			</output>
		</layer>
		<layer id="266" name="37623766_const" type="Const" version="opset1">
			<data element_type="f16" offset="4834" shape="" size="2"/>
			<output>
				<port id="1" precision="FP16"/>
			</output>
		</layer>
		<layer id="267" name="37633767_const" type="Const" version="opset1">
			<data element_type="f16" offset="4836" shape="" size="2"/>
			<output>
				<port id="1" precision="FP16"/>
			</output>
		</layer>
		<layer id="268" name="L0030_AddBackward1/fq_input_1" type="FakeQuantize" version="opset1">
			<data levels="256"/>
			<input>
				<port id="0">
					<dim>1</dim>
					<dim>32</dim>
					<dim>256</dim>
					<dim>448</dim>
				</port>
				<port id="1"/>
				<port id="2"/>
				<port id="3"/>
				<port id="4"/>
			</input>
			<output>
				<port id="5" precision="FP16">
					<dim>1</dim>
					<dim>32</dim>
					<dim>256</dim>
					<dim>448</dim>
				</port>
			</output>
		</layer>
		<layer id="269" name="L0030_AddBackward1" type="Add" version="opset1">
			<input>
				<port id="0">
					<dim>1</dim>
					<dim>32</dim>
					<dim>256</dim>
					<dim>448</dim>
				</port>
				<port id="1">
					<dim>1</dim>
					<dim>32</dim>
					<dim>256</dim>
					<dim>448</dim>
				</port>
			</input>
			<output>
				<port id="2" precision="FP16">
					<dim>1</dim>
					<dim>32</dim>
					<dim>256</dim>
					<dim>448</dim>
				</port>
			</output>
		</layer>
		<layer id="270" name="L0031_ReLU" type="ReLU" version="opset1">
			<input>
				<port id="0">
					<dim>1</dim>
					<dim>32</dim>
					<dim>256</dim>
					<dim>448</dim>
				</port>
			</input>
			<output>
				<port id="1" precision="FP16">
					<dim>1</dim>
					<dim>32</dim>
					<dim>256</dim>
					<dim>448</dim>
				</port>
			</output>
		</layer>
		<layer id="271" name="43704374_const" type="Const" version="opset1">
			<data element_type="f16" offset="0" shape="" size="2"/>
			<output>
				<port id="1" precision="FP16"/>
			</output>
		</layer>
		<layer id="272" name="43714375_const" type="Const" version="opset1">
			<data element_type="f16" offset="4838" shape="" size="2"/>
			<output>
				<port id="1" precision="FP16"/>
			</output>
		</layer>
		<layer id="273" name="43724376_const" type="Const" version="opset1">
			<data element_type="f16" offset="0" shape="" size="2"/>
			<output>
				<port id="1" precision="FP16"/>
			</output>
		</layer>
		<layer id="274" name="43734377_const" type="Const" version="opset1">
			<data element_type="f16" offset="4838" shape="" size="2"/>
			<output>
				<port id="1" precision="FP16"/>
			</output>
		</layer>
		<layer id="275" name="L0032_Conv2d_BN/WithoutBiases/fq_input_0" type="FakeQuantize" version="opset1">
			<data levels="256"/>
			<input>
				<port id="0">
					<dim>1</dim>
					<dim>32</dim>
					<dim>256</dim>
					<dim>448</dim>
				</port>
				<port id="1"/>
				<port id="2"/>
				<port id="3"/>
				<port id="4"/>
			</input>
			<output>
				<port id="5" precision="FP16">
					<dim>1</dim>
					<dim>32</dim>
					<dim>256</dim>
					<dim>448</dim>
				</port>
			</output>
		</layer>
		<layer id="276" name="L0032_Conv2d_BN/WithoutBiases/fq_weights_1/Convert_to_float/Cast_013864_const" type="Const" version="opset1">
			<data element_type="u8" offset="4840" shape="8,32,1,1" size="256"/>
			<output>
				<port id="1" precision="U8">
					<dim>8</dim>
					<dim>32</dim>
					<dim>1</dim>
					<dim>1</dim>
				</port>
			</output>
		</layer>
		<layer id="277" name="L0032_Conv2d_BN/WithoutBiases/fq_weights_1/Convert_to_float" type="Convert" version="opset1">
			<data destination_type="f16"/>
			<input>
				<port id="0">
					<dim>8</dim>
					<dim>32</dim>
					<dim>1</dim>
					<dim>1</dim>
				</port>
			</input>
			<output>
				<port id="1" precision="FP16">
					<dim>8</dim>
					<dim>32</dim>
					<dim>1</dim>
					<dim>1</dim>
				</port>
			</output>
		</layer>
		<layer id="278" name="L0032_Conv2d_BN/WithoutBiases/fq_weights_1/Copy/out_low11671_const" type="Const" version="opset1">
			<data element_type="f16" offset="0" shape="1" size="2"/>
			<output>
				<port id="1" precision="FP16">
					<dim>1</dim>
				</port>
			</output>
		</layer>
		<layer id="279" name="L0032_Conv2d_BN/WithoutBiases/fq_weights_1/Copy/out_high11672_const" type="Const" version="opset1">
			<data element_type="f16" offset="436" shape="1" size="2"/>
			<output>
				<port id="1" precision="FP16">
					<dim>1</dim>
				</port>
			</output>
		</layer>
		<layer id="280" name="43824386_const" type="Const" version="opset1">
			<data element_type="f16" offset="5096" shape="8,1,1,1" size="16"/>
			<output>
				<port id="1" precision="FP16">
					<dim>8</dim>
					<dim>1</dim>
					<dim>1</dim>
					<dim>1</dim>
				</port>
			</output>
		</layer>
		<layer id="281" name="43834387_const" type="Const" version="opset1">
			<data element_type="f16" offset="5112" shape="8,1,1,1" size="16"/>
			<output>
				<port id="1" precision="FP16">
					<dim>8</dim>
					<dim>1</dim>
					<dim>1</dim>
					<dim>1</dim>
				</port>
			</output>
		</layer>
		<layer id="282" name="L0032_Conv2d_BN/WithoutBiases/fq_weights_1" type="FakeQuantize" version="opset1">
			<data levels="255"/>
			<input>
				<port id="0">
					<dim>8</dim>
					<dim>32</dim>
					<dim>1</dim>
					<dim>1</dim>
				</port>
				<port id="1">
					<dim>1</dim>
				</port>
				<port id="2">
					<dim>1</dim>
				</port>
				<port id="3">
					<dim>8</dim>
					<dim>1</dim>
					<dim>1</dim>
					<dim>1</dim>
				</port>
				<port id="4">
					<dim>8</dim>
					<dim>1</dim>
					<dim>1</dim>
					<dim>1</dim>
				</port>
			</input>
			<output>
				<port id="5" precision="FP16">
					<dim>8</dim>
					<dim>32</dim>
					<dim>1</dim>
					<dim>1</dim>
				</port>
			</output>
		</layer>
		<layer id="283" name="L0032_Conv2d_BN/WithoutBiases" type="Convolution" version="opset1">
			<data dilations="1,1" output_padding="0,0" pads_begin="0,0" pads_end="0,0" strides="1,1"/>
			<input>
				<port id="0">
					<dim>1</dim>
					<dim>32</dim>
					<dim>256</dim>
					<dim>448</dim>
				</port>
				<port id="1">
					<dim>8</dim>
					<dim>32</dim>
					<dim>1</dim>
					<dim>1</dim>
				</port>
			</input>
			<output>
				<port id="2" precision="FP16">
					<dim>1</dim>
					<dim>8</dim>
					<dim>256</dim>
					<dim>448</dim>
				</port>
			</output>
		</layer>
		<layer id="284" name="L0032_Conv2d_BN/Dims6122/copy_const817_const" type="Const" version="opset1">
			<data element_type="f16" offset="5128" shape="1,8,1,1" size="16"/>
			<output>
				<port id="1" precision="FP16">
					<dim>1</dim>
					<dim>8</dim>
					<dim>1</dim>
					<dim>1</dim>
				</port>
			</output>
		</layer>
		<layer id="285" name="L0032_Conv2d_BN" type="Add" version="opset1">
			<input>
				<port id="0">
					<dim>1</dim>
					<dim>8</dim>
					<dim>256</dim>
					<dim>448</dim>
				</port>
				<port id="1">
					<dim>1</dim>
					<dim>8</dim>
					<dim>1</dim>
					<dim>1</dim>
				</port>
			</input>
			<output>
				<port id="2" precision="FP16">
					<dim>1</dim>
					<dim>8</dim>
					<dim>256</dim>
					<dim>448</dim>
				</port>
			</output>
		</layer>
		<layer id="286" name="L0033_ReLU" type="ReLU" version="opset1">
			<input>
				<port id="0">
					<dim>1</dim>
					<dim>8</dim>
					<dim>256</dim>
					<dim>448</dim>
				</port>
			</input>
			<output>
				<port id="1" precision="FP16">
					<dim>1</dim>
					<dim>8</dim>
					<dim>256</dim>
					<dim>448</dim>
				</port>
			</output>
		</layer>
		<layer id="287" name="40304034_const" type="Const" version="opset1">
			<data element_type="f16" offset="712" shape="1,8,1,1" size="16"/>
			<output>
				<port id="1" precision="FP16">
					<dim>1</dim>
					<dim>8</dim>
					<dim>1</dim>
					<dim>1</dim>
				</port>
			</output>
		</layer>
		<layer id="288" name="40314035_const" type="Const" version="opset1">
			<data element_type="f16" offset="5144" shape="1,8,1,1" size="16"/>
			<output>
				<port id="1" precision="FP16">
					<dim>1</dim>
					<dim>8</dim>
					<dim>1</dim>
					<dim>1</dim>
				</port>
			</output>
		</layer>
		<layer id="289" name="40324036_const" type="Const" version="opset1">
			<data element_type="f16" offset="712" shape="1,8,1,1" size="16"/>
			<output>
				<port id="1" precision="FP16">
					<dim>1</dim>
					<dim>8</dim>
					<dim>1</dim>
					<dim>1</dim>
				</port>
			</output>
		</layer>
		<layer id="290" name="40334037_const" type="Const" version="opset1">
			<data element_type="f16" offset="5144" shape="1,8,1,1" size="16"/>
			<output>
				<port id="1" precision="FP16">
					<dim>1</dim>
					<dim>8</dim>
					<dim>1</dim>
					<dim>1</dim>
				</port>
			</output>
		</layer>
		<layer id="291" name="L0034_Conv2d_BN/WithoutBiases/fq_input_0" type="FakeQuantize" version="opset1">
			<data levels="256"/>
			<input>
				<port id="0">
					<dim>1</dim>
					<dim>8</dim>
					<dim>256</dim>
					<dim>448</dim>
				</port>
				<port id="1">
					<dim>1</dim>
					<dim>8</dim>
					<dim>1</dim>
					<dim>1</dim>
				</port>
				<port id="2">
					<dim>1</dim>
					<dim>8</dim>
					<dim>1</dim>
					<dim>1</dim>
				</port>
				<port id="3">
					<dim>1</dim>
					<dim>8</dim>
					<dim>1</dim>
					<dim>1</dim>
				</port>
				<port id="4">
					<dim>1</dim>
					<dim>8</dim>
					<dim>1</dim>
					<dim>1</dim>
				</port>
			</input>
			<output>
				<port id="5" precision="FP16">
					<dim>1</dim>
					<dim>8</dim>
					<dim>256</dim>
					<dim>448</dim>
				</port>
			</output>
		</layer>
		<layer id="292" name="L0034_Conv2d_BN/WithoutBiases/fq_weights_1/Convert_to_float/Cast_013970_const" type="Const" version="opset1">
			<data element_type="u8" offset="5160" shape="8,1,3,3" size="72"/>
			<output>
				<port id="1" precision="U8">
					<dim>8</dim>
					<dim>1</dim>
					<dim>3</dim>
					<dim>3</dim>
				</port>
			</output>
		</layer>
		<layer id="293" name="L0034_Conv2d_BN/WithoutBiases/fq_weights_1/Convert_to_float" type="Convert" version="opset1">
			<data destination_type="f16"/>
			<input>
				<port id="0">
					<dim>8</dim>
					<dim>1</dim>
					<dim>3</dim>
					<dim>3</dim>
				</port>
			</input>
			<output>
				<port id="1" precision="FP16">
					<dim>8</dim>
					<dim>1</dim>
					<dim>3</dim>
					<dim>3</dim>
				</port>
			</output>
		</layer>
		<layer id="294" name="L0034_Conv2d_BN/WithoutBiases/fq_weights_1/Copy/out_low11759_const" type="Const" version="opset1">
			<data element_type="f16" offset="0" shape="1" size="2"/>
			<output>
				<port id="1" precision="FP16">
					<dim>1</dim>
				</port>
			</output>
		</layer>
		<layer id="295" name="L0034_Conv2d_BN/WithoutBiases/fq_weights_1/Copy/out_high11760_const" type="Const" version="opset1">
			<data element_type="f16" offset="436" shape="1" size="2"/>
			<output>
				<port id="1" precision="FP16">
					<dim>1</dim>
				</port>
			</output>
		</layer>
		<layer id="296" name="40424046_const" type="Const" version="opset1">
			<data element_type="f16" offset="5232" shape="8,1,1,1" size="16"/>
			<output>
				<port id="1" precision="FP16">
					<dim>8</dim>
					<dim>1</dim>
					<dim>1</dim>
					<dim>1</dim>
				</port>
			</output>
		</layer>
		<layer id="297" name="40434047_const" type="Const" version="opset1">
			<data element_type="f16" offset="5248" shape="8,1,1,1" size="16"/>
			<output>
				<port id="1" precision="FP16">
					<dim>8</dim>
					<dim>1</dim>
					<dim>1</dim>
					<dim>1</dim>
				</port>
			</output>
		</layer>
		<layer id="298" name="L0034_Conv2d_BN/WithoutBiases/fq_weights_1" type="FakeQuantize" version="opset1">
			<data levels="255"/>
			<input>
				<port id="0">
					<dim>8</dim>
					<dim>1</dim>
					<dim>3</dim>
					<dim>3</dim>
				</port>
				<port id="1">
					<dim>1</dim>
				</port>
				<port id="2">
					<dim>1</dim>
				</port>
				<port id="3">
					<dim>8</dim>
					<dim>1</dim>
					<dim>1</dim>
					<dim>1</dim>
				</port>
				<port id="4">
					<dim>8</dim>
					<dim>1</dim>
					<dim>1</dim>
					<dim>1</dim>
				</port>
			</input>
			<output>
				<port id="5" precision="FP16">
					<dim>8</dim>
					<dim>1</dim>
					<dim>3</dim>
					<dim>3</dim>
				</port>
			</output>
		</layer>
		<layer id="299" name="15670/value15672_const" type="Const" version="opset1">
			<data element_type="i64" offset="848" shape="5" size="40"/>
			<output>
				<port id="1" precision="I64">
					<dim>5</dim>
				</port>
			</output>
		</layer>
		<layer id="300" name="15670" type="Reshape" version="opset1">
			<data special_zero="True"/>
			<input>
				<port id="0">
					<dim>8</dim>
					<dim>1</dim>
					<dim>3</dim>
					<dim>3</dim>
				</port>
				<port id="1">
					<dim>5</dim>
				</port>
			</input>
			<output>
				<port id="2" precision="FP16">
					<dim>8</dim>
					<dim>1</dim>
					<dim>1</dim>
					<dim>3</dim>
					<dim>3</dim>
				</port>
			</output>
		</layer>
		<layer id="301" name="L0034_Conv2d_BN/WithoutBiases" type="GroupConvolution" version="opset1">
			<data dilations="1,1" output_padding="0,0" pads_begin="1,1" pads_end="1,1" strides="1,1"/>
			<input>
				<port id="0">
					<dim>1</dim>
					<dim>8</dim>
					<dim>256</dim>
					<dim>448</dim>
				</port>
				<port id="1">
					<dim>8</dim>
					<dim>1</dim>
					<dim>1</dim>
					<dim>3</dim>
					<dim>3</dim>
				</port>
			</input>
			<output>
				<port id="2" precision="FP16">
					<dim>1</dim>
					<dim>8</dim>
					<dim>256</dim>
					<dim>448</dim>
				</port>
			</output>
		</layer>
		<layer id="302" name="L0034_Conv2d_BN/Dims5918/copy_const822_const" type="Const" version="opset1">
			<data element_type="f16" offset="5264" shape="1,8,1,1" size="16"/>
			<output>
				<port id="1" precision="FP16">
					<dim>1</dim>
					<dim>8</dim>
					<dim>1</dim>
					<dim>1</dim>
				</port>
			</output>
		</layer>
		<layer id="303" name="L0034_Conv2d_BN" type="Add" version="opset1">
			<input>
				<port id="0">
					<dim>1</dim>
					<dim>8</dim>
					<dim>256</dim>
					<dim>448</dim>
				</port>
				<port id="1">
					<dim>1</dim>
					<dim>8</dim>
					<dim>1</dim>
					<dim>1</dim>
				</port>
			</input>
			<output>
				<port id="2" precision="FP16">
					<dim>1</dim>
					<dim>8</dim>
					<dim>256</dim>
					<dim>448</dim>
				</port>
			</output>
		</layer>
		<layer id="304" name="L0035_ReLU" type="ReLU" version="opset1">
			<input>
				<port id="0">
					<dim>1</dim>
					<dim>8</dim>
					<dim>256</dim>
					<dim>448</dim>
				</port>
			</input>
			<output>
				<port id="1" precision="FP16">
					<dim>1</dim>
					<dim>8</dim>
					<dim>256</dim>
					<dim>448</dim>
				</port>
			</output>
		</layer>
		<layer id="305" name="59105914_const" type="Const" version="opset1">
			<data element_type="f16" offset="0" shape="" size="2"/>
			<output>
				<port id="1" precision="FP16"/>
			</output>
		</layer>
		<layer id="306" name="59115915_const" type="Const" version="opset1">
			<data element_type="f16" offset="5280" shape="" size="2"/>
			<output>
				<port id="1" precision="FP16"/>
			</output>
		</layer>
		<layer id="307" name="59125916_const" type="Const" version="opset1">
			<data element_type="f16" offset="0" shape="" size="2"/>
			<output>
				<port id="1" precision="FP16"/>
			</output>
		</layer>
		<layer id="308" name="59135917_const" type="Const" version="opset1">
			<data element_type="f16" offset="5280" shape="" size="2"/>
			<output>
				<port id="1" precision="FP16"/>
			</output>
		</layer>
		<layer id="309" name="L0036_Conv2d_BN/WithoutBiases/fq_input_0" type="FakeQuantize" version="opset1">
			<data levels="256"/>
			<input>
				<port id="0">
					<dim>1</dim>
					<dim>8</dim>
					<dim>256</dim>
					<dim>448</dim>
				</port>
				<port id="1"/>
				<port id="2"/>
				<port id="3"/>
				<port id="4"/>
			</input>
			<output>
				<port id="5" precision="FP16">
					<dim>1</dim>
					<dim>8</dim>
					<dim>256</dim>
					<dim>448</dim>
				</port>
			</output>
		</layer>
		<layer id="310" name="L0036_Conv2d_BN/WithoutBiases/fq_weights_1/Convert_to_float/Cast_013936_const" type="Const" version="opset1">
			<data element_type="u8" offset="5282" shape="32,8,1,1" size="256"/>
			<output>
				<port id="1" precision="U8">
					<dim>32</dim>
					<dim>8</dim>
					<dim>1</dim>
					<dim>1</dim>
				</port>
			</output>
		</layer>
		<layer id="311" name="L0036_Conv2d_BN/WithoutBiases/fq_weights_1/Convert_to_float" type="Convert" version="opset1">
			<data destination_type="f16"/>
			<input>
				<port id="0">
					<dim>32</dim>
					<dim>8</dim>
					<dim>1</dim>
					<dim>1</dim>
				</port>
			</input>
			<output>
				<port id="1" precision="FP16">
					<dim>32</dim>
					<dim>8</dim>
					<dim>1</dim>
					<dim>1</dim>
				</port>
			</output>
		</layer>
		<layer id="312" name="L0036_Conv2d_BN/WithoutBiases/fq_weights_1/Copy/out_low11575_const" type="Const" version="opset1">
			<data element_type="f16" offset="0" shape="1" size="2"/>
			<output>
				<port id="1" precision="FP16">
					<dim>1</dim>
				</port>
			</output>
		</layer>
		<layer id="313" name="L0036_Conv2d_BN/WithoutBiases/fq_weights_1/Copy/out_high11576_const" type="Const" version="opset1">
			<data element_type="f16" offset="436" shape="1" size="2"/>
			<output>
				<port id="1" precision="FP16">
					<dim>1</dim>
				</port>
			</output>
		</layer>
		<layer id="314" name="59225926_const" type="Const" version="opset1">
			<data element_type="f16" offset="5538" shape="32,1,1,1" size="64"/>
			<output>
				<port id="1" precision="FP16">
					<dim>32</dim>
					<dim>1</dim>
					<dim>1</dim>
					<dim>1</dim>
				</port>
			</output>
		</layer>
		<layer id="315" name="59235927_const" type="Const" version="opset1">
			<data element_type="f16" offset="5602" shape="32,1,1,1" size="64"/>
			<output>
				<port id="1" precision="FP16">
					<dim>32</dim>
					<dim>1</dim>
					<dim>1</dim>
					<dim>1</dim>
				</port>
			</output>
		</layer>
		<layer id="316" name="L0036_Conv2d_BN/WithoutBiases/fq_weights_1" type="FakeQuantize" version="opset1">
			<data levels="255"/>
			<input>
				<port id="0">
					<dim>32</dim>
					<dim>8</dim>
					<dim>1</dim>
					<dim>1</dim>
				</port>
				<port id="1">
					<dim>1</dim>
				</port>
				<port id="2">
					<dim>1</dim>
				</port>
				<port id="3">
					<dim>32</dim>
					<dim>1</dim>
					<dim>1</dim>
					<dim>1</dim>
				</port>
				<port id="4">
					<dim>32</dim>
					<dim>1</dim>
					<dim>1</dim>
					<dim>1</dim>
				</port>
			</input>
			<output>
				<port id="5" precision="FP16">
					<dim>32</dim>
					<dim>8</dim>
					<dim>1</dim>
					<dim>1</dim>
				</port>
			</output>
		</layer>
		<layer id="317" name="L0036_Conv2d_BN/WithoutBiases" type="Convolution" version="opset1">
			<data dilations="1,1" output_padding="0,0" pads_begin="0,0" pads_end="0,0" strides="1,1"/>
			<input>
				<port id="0">
					<dim>1</dim>
					<dim>8</dim>
					<dim>256</dim>
					<dim>448</dim>
				</port>
				<port id="1">
					<dim>32</dim>
					<dim>8</dim>
					<dim>1</dim>
					<dim>1</dim>
				</port>
			</input>
			<output>
				<port id="2" precision="FP16">
					<dim>1</dim>
					<dim>32</dim>
					<dim>256</dim>
					<dim>448</dim>
				</port>
			</output>
		</layer>
		<layer id="318" name="L0036_Conv2d_BN/Dims5780/copy_const827_const" type="Const" version="opset1">
			<data element_type="f16" offset="5666" shape="1,32,1,1" size="64"/>
			<output>
				<port id="1" precision="FP16">
					<dim>1</dim>
					<dim>32</dim>
					<dim>1</dim>
					<dim>1</dim>
				</port>
			</output>
		</layer>
		<layer id="319" name="L0036_Conv2d_BN" type="Add" version="opset1">
			<input>
				<port id="0">
					<dim>1</dim>
					<dim>32</dim>
					<dim>256</dim>
					<dim>448</dim>
				</port>
				<port id="1">
					<dim>1</dim>
					<dim>32</dim>
					<dim>1</dim>
					<dim>1</dim>
				</port>
			</input>
			<output>
				<port id="2" precision="FP16">
					<dim>1</dim>
					<dim>32</dim>
					<dim>256</dim>
					<dim>448</dim>
				</port>
			</output>
		</layer>
		<layer id="320" name="50205024_const" type="Const" version="opset1">
			<data element_type="f16" offset="5730" shape="" size="2"/>
			<output>
				<port id="1" precision="FP16"/>
			</output>
		</layer>
		<layer id="321" name="50215025_const" type="Const" version="opset1">
			<data element_type="f16" offset="5732" shape="" size="2"/>
			<output>
				<port id="1" precision="FP16"/>
			</output>
		</layer>
		<layer id="322" name="50225026_const" type="Const" version="opset1">
			<data element_type="f16" offset="5730" shape="" size="2"/>
			<output>
				<port id="1" precision="FP16"/>
			</output>
		</layer>
		<layer id="323" name="50235027_const" type="Const" version="opset1">
			<data element_type="f16" offset="5732" shape="" size="2"/>
			<output>
				<port id="1" precision="FP16"/>
			</output>
		</layer>
		<layer id="324" name="L0037_AddBackward1/fq_input_0" type="FakeQuantize" version="opset1">
			<data levels="256"/>
			<input>
				<port id="0">
					<dim>1</dim>
					<dim>32</dim>
					<dim>256</dim>
					<dim>448</dim>
				</port>
				<port id="1"/>
				<port id="2"/>
				<port id="3"/>
				<port id="4"/>
			</input>
			<output>
				<port id="5" precision="FP16">
					<dim>1</dim>
					<dim>32</dim>
					<dim>256</dim>
					<dim>448</dim>
				</port>
			</output>
		</layer>
		<layer id="325" name="L0037_AddBackward1" type="Add" version="opset1">
			<input>
				<port id="0">
					<dim>1</dim>
					<dim>32</dim>
					<dim>256</dim>
					<dim>448</dim>
				</port>
				<port id="1">
					<dim>1</dim>
					<dim>32</dim>
					<dim>256</dim>
					<dim>448</dim>
				</port>
			</input>
			<output>
				<port id="2" precision="FP16">
					<dim>1</dim>
					<dim>32</dim>
					<dim>256</dim>
					<dim>448</dim>
				</port>
			</output>
		</layer>
		<layer id="326" name="L0038_ReLU" type="ReLU" version="opset1">
			<input>
				<port id="0">
					<dim>1</dim>
					<dim>32</dim>
					<dim>256</dim>
					<dim>448</dim>
				</port>
			</input>
			<output>
				<port id="1" precision="FP16">
					<dim>1</dim>
					<dim>32</dim>
					<dim>256</dim>
					<dim>448</dim>
				</port>
			</output>
		</layer>
		<layer id="327" name="50005004_const" type="Const" version="opset1">
			<data element_type="f16" offset="0" shape="" size="2"/>
			<output>
				<port id="1" precision="FP16"/>
			</output>
		</layer>
		<layer id="328" name="50015005_const" type="Const" version="opset1">
			<data element_type="f16" offset="5734" shape="" size="2"/>
			<output>
				<port id="1" precision="FP16"/>
			</output>
		</layer>
		<layer id="329" name="50025006_const" type="Const" version="opset1">
			<data element_type="f16" offset="0" shape="" size="2"/>
			<output>
				<port id="1" precision="FP16"/>
			</output>
		</layer>
		<layer id="330" name="50035007_const" type="Const" version="opset1">
			<data element_type="f16" offset="5734" shape="" size="2"/>
			<output>
				<port id="1" precision="FP16"/>
			</output>
		</layer>
		<layer id="331" name="L0039_Conv2d_BN/WithoutBiases/fq_input_0" type="FakeQuantize" version="opset1">
			<data levels="256"/>
			<input>
				<port id="0">
					<dim>1</dim>
					<dim>32</dim>
					<dim>256</dim>
					<dim>448</dim>
				</port>
				<port id="1"/>
				<port id="2"/>
				<port id="3"/>
				<port id="4"/>
			</input>
			<output>
				<port id="5" precision="FP16">
					<dim>1</dim>
					<dim>32</dim>
					<dim>256</dim>
					<dim>448</dim>
				</port>
			</output>
		</layer>
		<layer id="332" name="L0039_Conv2d_BN/WithoutBiases/fq_weights_1/Convert_to_float/Cast_013922_const" type="Const" version="opset1">
			<data element_type="u8" offset="5736" shape="16,32,2,2" size="2048"/>
			<output>
				<port id="1" precision="U8">
					<dim>16</dim>
					<dim>32</dim>
					<dim>2</dim>
					<dim>2</dim>
				</port>
			</output>
		</layer>
		<layer id="333" name="L0039_Conv2d_BN/WithoutBiases/fq_weights_1/Convert_to_float" type="Convert" version="opset1">
			<data destination_type="f16"/>
			<input>
				<port id="0">
					<dim>16</dim>
					<dim>32</dim>
					<dim>2</dim>
					<dim>2</dim>
				</port>
			</input>
			<output>
				<port id="1" precision="FP16">
					<dim>16</dim>
					<dim>32</dim>
					<dim>2</dim>
					<dim>2</dim>
				</port>
			</output>
		</layer>
		<layer id="334" name="L0039_Conv2d_BN/WithoutBiases/fq_weights_1/Copy/out_low11183_const" type="Const" version="opset1">
			<data element_type="f16" offset="0" shape="1" size="2"/>
			<output>
				<port id="1" precision="FP16">
					<dim>1</dim>
				</port>
			</output>
		</layer>
		<layer id="335" name="L0039_Conv2d_BN/WithoutBiases/fq_weights_1/Copy/out_high11184_const" type="Const" version="opset1">
			<data element_type="f16" offset="436" shape="1" size="2"/>
			<output>
				<port id="1" precision="FP16">
					<dim>1</dim>
				</port>
			</output>
		</layer>
		<layer id="336" name="50125016_const" type="Const" version="opset1">
			<data element_type="f16" offset="7784" shape="16,1,1,1" size="32"/>
			<output>
				<port id="1" precision="FP16">
					<dim>16</dim>
					<dim>1</dim>
					<dim>1</dim>
					<dim>1</dim>
				</port>
			</output>
		</layer>
		<layer id="337" name="50135017_const" type="Const" version="opset1">
			<data element_type="f16" offset="7816" shape="16,1,1,1" size="32"/>
			<output>
				<port id="1" precision="FP16">
					<dim>16</dim>
					<dim>1</dim>
					<dim>1</dim>
					<dim>1</dim>
				</port>
			</output>
		</layer>
		<layer id="338" name="L0039_Conv2d_BN/WithoutBiases/fq_weights_1" type="FakeQuantize" version="opset1">
			<data levels="255"/>
			<input>
				<port id="0">
					<dim>16</dim>
					<dim>32</dim>
					<dim>2</dim>
					<dim>2</dim>
				</port>
				<port id="1">
					<dim>1</dim>
				</port>
				<port id="2">
					<dim>1</dim>
				</port>
				<port id="3">
					<dim>16</dim>
					<dim>1</dim>
					<dim>1</dim>
					<dim>1</dim>
				</port>
				<port id="4">
					<dim>16</dim>
					<dim>1</dim>
					<dim>1</dim>
					<dim>1</dim>
				</port>
			</input>
			<output>
				<port id="5" precision="FP16">
					<dim>16</dim>
					<dim>32</dim>
					<dim>2</dim>
					<dim>2</dim>
				</port>
			</output>
		</layer>
		<layer id="339" name="L0039_Conv2d_BN/WithoutBiases" type="Convolution" version="opset1">
			<data dilations="1,1" output_padding="0,0" pads_begin="0,0" pads_end="0,0" strides="2,2"/>
			<input>
				<port id="0">
					<dim>1</dim>
					<dim>32</dim>
					<dim>256</dim>
					<dim>448</dim>
				</port>
				<port id="1">
					<dim>16</dim>
					<dim>32</dim>
					<dim>2</dim>
					<dim>2</dim>
				</port>
			</input>
			<output>
				<port id="2" precision="FP16">
					<dim>1</dim>
					<dim>16</dim>
					<dim>128</dim>
					<dim>224</dim>
				</port>
			</output>
		</layer>
		<layer id="340" name="L0039_Conv2d_BN/Dims6164/copy_const833_const" type="Const" version="opset1">
			<data element_type="f16" offset="7848" shape="1,16,1,1" size="32"/>
			<output>
				<port id="1" precision="FP16">
					<dim>1</dim>
					<dim>16</dim>
					<dim>1</dim>
					<dim>1</dim>
				</port>
			</output>
		</layer>
		<layer id="341" name="L0039_Conv2d_BN" type="Add" version="opset1">
			<input>
				<port id="0">
					<dim>1</dim>
					<dim>16</dim>
					<dim>128</dim>
					<dim>224</dim>
				</port>
				<port id="1">
					<dim>1</dim>
					<dim>16</dim>
					<dim>1</dim>
					<dim>1</dim>
				</port>
			</input>
			<output>
				<port id="2" precision="FP16">
					<dim>1</dim>
					<dim>16</dim>
					<dim>128</dim>
					<dim>224</dim>
				</port>
			</output>
		</layer>
		<layer id="342" name="L0040_ReLU" type="ReLU" version="opset1">
			<input>
				<port id="0">
					<dim>1</dim>
					<dim>16</dim>
					<dim>128</dim>
					<dim>224</dim>
				</port>
			</input>
			<output>
				<port id="1" precision="FP16">
					<dim>1</dim>
					<dim>16</dim>
					<dim>128</dim>
					<dim>224</dim>
				</port>
			</output>
		</layer>
		<layer id="343" name="52905294_const" type="Const" version="opset1">
			<data element_type="f16" offset="7880" shape="1,16,1,1" size="32"/>
			<output>
				<port id="1" precision="FP16">
					<dim>1</dim>
					<dim>16</dim>
					<dim>1</dim>
					<dim>1</dim>
				</port>
			</output>
		</layer>
		<layer id="344" name="52915295_const" type="Const" version="opset1">
			<data element_type="f16" offset="7912" shape="1,16,1,1" size="32"/>
			<output>
				<port id="1" precision="FP16">
					<dim>1</dim>
					<dim>16</dim>
					<dim>1</dim>
					<dim>1</dim>
				</port>
			</output>
		</layer>
		<layer id="345" name="52925296_const" type="Const" version="opset1">
			<data element_type="f16" offset="7880" shape="1,16,1,1" size="32"/>
			<output>
				<port id="1" precision="FP16">
					<dim>1</dim>
					<dim>16</dim>
					<dim>1</dim>
					<dim>1</dim>
				</port>
			</output>
		</layer>
		<layer id="346" name="52935297_const" type="Const" version="opset1">
			<data element_type="f16" offset="7912" shape="1,16,1,1" size="32"/>
			<output>
				<port id="1" precision="FP16">
					<dim>1</dim>
					<dim>16</dim>
					<dim>1</dim>
					<dim>1</dim>
				</port>
			</output>
		</layer>
		<layer id="347" name="L0041_Conv2d_BN/WithoutBiases/fq_input_0" type="FakeQuantize" version="opset1">
			<data levels="256"/>
			<input>
				<port id="0">
					<dim>1</dim>
					<dim>16</dim>
					<dim>128</dim>
					<dim>224</dim>
				</port>
				<port id="1">
					<dim>1</dim>
					<dim>16</dim>
					<dim>1</dim>
					<dim>1</dim>
				</port>
				<port id="2">
					<dim>1</dim>
					<dim>16</dim>
					<dim>1</dim>
					<dim>1</dim>
				</port>
				<port id="3">
					<dim>1</dim>
					<dim>16</dim>
					<dim>1</dim>
					<dim>1</dim>
				</port>
				<port id="4">
					<dim>1</dim>
					<dim>16</dim>
					<dim>1</dim>
					<dim>1</dim>
				</port>
			</input>
			<output>
				<port id="5" precision="FP16">
					<dim>1</dim>
					<dim>16</dim>
					<dim>128</dim>
					<dim>224</dim>
				</port>
			</output>
		</layer>
		<layer id="348" name="L0041_Conv2d_BN/WithoutBiases/fq_weights_1/Convert_to_float/Cast_013972_const" type="Const" version="opset1">
			<data element_type="u8" offset="7944" shape="16,1,3,3" size="144"/>
			<output>
				<port id="1" precision="U8">
					<dim>16</dim>
					<dim>1</dim>
					<dim>3</dim>
					<dim>3</dim>
				</port>
			</output>
		</layer>
		<layer id="349" name="L0041_Conv2d_BN/WithoutBiases/fq_weights_1/Convert_to_float" type="Convert" version="opset1">
			<data destination_type="f16"/>
			<input>
				<port id="0">
					<dim>16</dim>
					<dim>1</dim>
					<dim>3</dim>
					<dim>3</dim>
				</port>
			</input>
			<output>
				<port id="1" precision="FP16">
					<dim>16</dim>
					<dim>1</dim>
					<dim>3</dim>
					<dim>3</dim>
				</port>
			</output>
		</layer>
		<layer id="350" name="L0041_Conv2d_BN/WithoutBiases/fq_weights_1/Copy/out_low12087_const" type="Const" version="opset1">
			<data element_type="f16" offset="0" shape="1" size="2"/>
			<output>
				<port id="1" precision="FP16">
					<dim>1</dim>
				</port>
			</output>
		</layer>
		<layer id="351" name="L0041_Conv2d_BN/WithoutBiases/fq_weights_1/Copy/out_high12088_const" type="Const" version="opset1">
			<data element_type="f16" offset="436" shape="1" size="2"/>
			<output>
				<port id="1" precision="FP16">
					<dim>1</dim>
				</port>
			</output>
		</layer>
		<layer id="352" name="53025306_const" type="Const" version="opset1">
			<data element_type="f16" offset="8088" shape="16,1,1,1" size="32"/>
			<output>
				<port id="1" precision="FP16">
					<dim>16</dim>
					<dim>1</dim>
					<dim>1</dim>
					<dim>1</dim>
				</port>
			</output>
		</layer>
		<layer id="353" name="53035307_const" type="Const" version="opset1">
			<data element_type="f16" offset="8120" shape="16,1,1,1" size="32"/>
			<output>
				<port id="1" precision="FP16">
					<dim>16</dim>
					<dim>1</dim>
					<dim>1</dim>
					<dim>1</dim>
				</port>
			</output>
		</layer>
		<layer id="354" name="L0041_Conv2d_BN/WithoutBiases/fq_weights_1" type="FakeQuantize" version="opset1">
			<data levels="255"/>
			<input>
				<port id="0">
					<dim>16</dim>
					<dim>1</dim>
					<dim>3</dim>
					<dim>3</dim>
				</port>
				<port id="1">
					<dim>1</dim>
				</port>
				<port id="2">
					<dim>1</dim>
				</port>
				<port id="3">
					<dim>16</dim>
					<dim>1</dim>
					<dim>1</dim>
					<dim>1</dim>
				</port>
				<port id="4">
					<dim>16</dim>
					<dim>1</dim>
					<dim>1</dim>
					<dim>1</dim>
				</port>
			</input>
			<output>
				<port id="5" precision="FP16">
					<dim>16</dim>
					<dim>1</dim>
					<dim>3</dim>
					<dim>3</dim>
				</port>
			</output>
		</layer>
		<layer id="355" name="15734/value15736_const" type="Const" version="opset1">
			<data element_type="i64" offset="8152" shape="5" size="40"/>
			<output>
				<port id="1" precision="I64">
					<dim>5</dim>
				</port>
			</output>
		</layer>
		<layer id="356" name="15734" type="Reshape" version="opset1">
			<data special_zero="True"/>
			<input>
				<port id="0">
					<dim>16</dim>
					<dim>1</dim>
					<dim>3</dim>
					<dim>3</dim>
				</port>
				<port id="1">
					<dim>5</dim>
				</port>
			</input>
			<output>
				<port id="2" precision="FP16">
					<dim>16</dim>
					<dim>1</dim>
					<dim>1</dim>
					<dim>3</dim>
					<dim>3</dim>
				</port>
			</output>
		</layer>
		<layer id="357" name="L0041_Conv2d_BN/WithoutBiases" type="GroupConvolution" version="opset1">
			<data dilations="1,1" output_padding="0,0" pads_begin="1,1" pads_end="1,1" strides="1,1"/>
			<input>
				<port id="0">
					<dim>1</dim>
					<dim>16</dim>
					<dim>128</dim>
					<dim>224</dim>
				</port>
				<port id="1">
					<dim>16</dim>
					<dim>1</dim>
					<dim>1</dim>
					<dim>3</dim>
					<dim>3</dim>
				</port>
			</input>
			<output>
				<port id="2" precision="FP16">
					<dim>1</dim>
					<dim>16</dim>
					<dim>128</dim>
					<dim>224</dim>
				</port>
			</output>
		</layer>
		<layer id="358" name="L0041_Conv2d_BN/Dims6146/copy_const838_const" type="Const" version="opset1">
			<data element_type="f16" offset="8192" shape="1,16,1,1" size="32"/>
			<output>
				<port id="1" precision="FP16">
					<dim>1</dim>
					<dim>16</dim>
					<dim>1</dim>
					<dim>1</dim>
				</port>
			</output>
		</layer>
		<layer id="359" name="L0041_Conv2d_BN" type="Add" version="opset1">
			<input>
				<port id="0">
					<dim>1</dim>
					<dim>16</dim>
					<dim>128</dim>
					<dim>224</dim>
				</port>
				<port id="1">
					<dim>1</dim>
					<dim>16</dim>
					<dim>1</dim>
					<dim>1</dim>
				</port>
			</input>
			<output>
				<port id="2" precision="FP16">
					<dim>1</dim>
					<dim>16</dim>
					<dim>128</dim>
					<dim>224</dim>
				</port>
			</output>
		</layer>
		<layer id="360" name="L0042_ReLU" type="ReLU" version="opset1">
			<input>
				<port id="0">
					<dim>1</dim>
					<dim>16</dim>
					<dim>128</dim>
					<dim>224</dim>
				</port>
			</input>
			<output>
				<port id="1" precision="FP16">
					<dim>1</dim>
					<dim>16</dim>
					<dim>128</dim>
					<dim>224</dim>
				</port>
			</output>
		</layer>
		<layer id="361" name="24102414_const" type="Const" version="opset1">
			<data element_type="f16" offset="0" shape="" size="2"/>
			<output>
				<port id="1" precision="FP16"/>
			</output>
		</layer>
		<layer id="362" name="24112415_const" type="Const" version="opset1">
			<data element_type="f16" offset="8224" shape="" size="2"/>
			<output>
				<port id="1" precision="FP16"/>
			</output>
		</layer>
		<layer id="363" name="24122416_const" type="Const" version="opset1">
			<data element_type="f16" offset="0" shape="" size="2"/>
			<output>
				<port id="1" precision="FP16"/>
			</output>
		</layer>
		<layer id="364" name="24132417_const" type="Const" version="opset1">
			<data element_type="f16" offset="8224" shape="" size="2"/>
			<output>
				<port id="1" precision="FP16"/>
			</output>
		</layer>
		<layer id="365" name="L0043_Conv2d_BN/WithoutBiases/fq_input_0" type="FakeQuantize" version="opset1">
			<data levels="256"/>
			<input>
				<port id="0">
					<dim>1</dim>
					<dim>16</dim>
					<dim>128</dim>
					<dim>224</dim>
				</port>
				<port id="1"/>
				<port id="2"/>
				<port id="3"/>
				<port id="4"/>
			</input>
			<output>
				<port id="5" precision="FP16">
					<dim>1</dim>
					<dim>16</dim>
					<dim>128</dim>
					<dim>224</dim>
				</port>
			</output>
		</layer>
		<layer id="366" name="L0043_Conv2d_BN/WithoutBiases/fq_weights_1/Convert_to_float/Cast_013740_const" type="Const" version="opset1">
			<data element_type="u8" offset="8226" shape="48,16,1,1" size="768"/>
			<output>
				<port id="1" precision="U8">
					<dim>48</dim>
					<dim>16</dim>
					<dim>1</dim>
					<dim>1</dim>
				</port>
			</output>
		</layer>
		<layer id="367" name="L0043_Conv2d_BN/WithoutBiases/fq_weights_1/Convert_to_float" type="Convert" version="opset1">
			<data destination_type="f16"/>
			<input>
				<port id="0">
					<dim>48</dim>
					<dim>16</dim>
					<dim>1</dim>
					<dim>1</dim>
				</port>
			</input>
			<output>
				<port id="1" precision="FP16">
					<dim>48</dim>
					<dim>16</dim>
					<dim>1</dim>
					<dim>1</dim>
				</port>
			</output>
		</layer>
		<layer id="368" name="L0043_Conv2d_BN/WithoutBiases/fq_weights_1/Copy/out_low11727_const" type="Const" version="opset1">
			<data element_type="f16" offset="0" shape="1" size="2"/>
			<output>
				<port id="1" precision="FP16">
					<dim>1</dim>
				</port>
			</output>
		</layer>
		<layer id="369" name="L0043_Conv2d_BN/WithoutBiases/fq_weights_1/Copy/out_high11728_const" type="Const" version="opset1">
			<data element_type="f16" offset="436" shape="1" size="2"/>
			<output>
				<port id="1" precision="FP16">
					<dim>1</dim>
				</port>
			</output>
		</layer>
		<layer id="370" name="24222426_const" type="Const" version="opset1">
			<data element_type="f16" offset="8994" shape="48,1,1,1" size="96"/>
			<output>
				<port id="1" precision="FP16">
					<dim>48</dim>
					<dim>1</dim>
					<dim>1</dim>
					<dim>1</dim>
				</port>
			</output>
		</layer>
		<layer id="371" name="24232427_const" type="Const" version="opset1">
			<data element_type="f16" offset="9090" shape="48,1,1,1" size="96"/>
			<output>
				<port id="1" precision="FP16">
					<dim>48</dim>
					<dim>1</dim>
					<dim>1</dim>
					<dim>1</dim>
				</port>
			</output>
		</layer>
		<layer id="372" name="L0043_Conv2d_BN/WithoutBiases/fq_weights_1" type="FakeQuantize" version="opset1">
			<data levels="255"/>
			<input>
				<port id="0">
					<dim>48</dim>
					<dim>16</dim>
					<dim>1</dim>
					<dim>1</dim>
				</port>
				<port id="1">
					<dim>1</dim>
				</port>
				<port id="2">
					<dim>1</dim>
				</port>
				<port id="3">
					<dim>48</dim>
					<dim>1</dim>
					<dim>1</dim>
					<dim>1</dim>
				</port>
				<port id="4">
					<dim>48</dim>
					<dim>1</dim>
					<dim>1</dim>
					<dim>1</dim>
				</port>
			</input>
			<output>
				<port id="5" precision="FP16">
					<dim>48</dim>
					<dim>16</dim>
					<dim>1</dim>
					<dim>1</dim>
				</port>
			</output>
		</layer>
		<layer id="373" name="L0043_Conv2d_BN/WithoutBiases" type="Convolution" version="opset1">
			<data dilations="1,1" output_padding="0,0" pads_begin="0,0" pads_end="0,0" strides="1,1"/>
			<input>
				<port id="0">
					<dim>1</dim>
					<dim>16</dim>
					<dim>128</dim>
					<dim>224</dim>
				</port>
				<port id="1">
					<dim>48</dim>
					<dim>16</dim>
					<dim>1</dim>
					<dim>1</dim>
				</port>
			</input>
			<output>
				<port id="2" precision="FP16">
					<dim>1</dim>
					<dim>48</dim>
					<dim>128</dim>
					<dim>224</dim>
				</port>
			</output>
		</layer>
		<layer id="374" name="L0043_Conv2d_BN/Dims5990/copy_const843_const" type="Const" version="opset1">
			<data element_type="f16" offset="9186" shape="1,48,1,1" size="96"/>
			<output>
				<port id="1" precision="FP16">
					<dim>1</dim>
					<dim>48</dim>
					<dim>1</dim>
					<dim>1</dim>
				</port>
			</output>
		</layer>
		<layer id="375" name="L0043_Conv2d_BN" type="Add" version="opset1">
			<input>
				<port id="0">
					<dim>1</dim>
					<dim>48</dim>
					<dim>128</dim>
					<dim>224</dim>
				</port>
				<port id="1">
					<dim>1</dim>
					<dim>48</dim>
					<dim>1</dim>
					<dim>1</dim>
				</port>
			</input>
			<output>
				<port id="2" precision="FP16">
					<dim>1</dim>
					<dim>48</dim>
					<dim>128</dim>
					<dim>224</dim>
				</port>
			</output>
		</layer>
		<layer id="376" name="53505354_const" type="Const" version="opset1">
			<data element_type="f16" offset="9282" shape="" size="2"/>
			<output>
				<port id="1" precision="FP16"/>
			</output>
		</layer>
		<layer id="377" name="53515355_const" type="Const" version="opset1">
			<data element_type="f16" offset="9284" shape="" size="2"/>
			<output>
				<port id="1" precision="FP16"/>
			</output>
		</layer>
		<layer id="378" name="53525356_const" type="Const" version="opset1">
			<data element_type="f16" offset="9282" shape="" size="2"/>
			<output>
				<port id="1" precision="FP16"/>
			</output>
		</layer>
		<layer id="379" name="53535357_const" type="Const" version="opset1">
			<data element_type="f16" offset="9284" shape="" size="2"/>
			<output>
				<port id="1" precision="FP16"/>
			</output>
		</layer>
		<layer id="380" name="L0046_AddBackward1/fq_input_0" type="FakeQuantize" version="opset1">
			<data levels="256"/>
			<input>
				<port id="0">
					<dim>1</dim>
					<dim>48</dim>
					<dim>128</dim>
					<dim>224</dim>
				</port>
				<port id="1"/>
				<port id="2"/>
				<port id="3"/>
				<port id="4"/>
			</input>
			<output>
				<port id="5" precision="FP16">
					<dim>1</dim>
					<dim>48</dim>
					<dim>128</dim>
					<dim>224</dim>
				</port>
			</output>
		</layer>
		<layer id="381" name="L0044_MaxPool2d" type="MaxPool" version="opset1">
			<data kernel="2,2" pads_begin="0,0" pads_end="0,0" rounding_type="ceil" strides="2,2"/>
			<input>
				<port id="0">
					<dim>1</dim>
					<dim>32</dim>
					<dim>256</dim>
					<dim>448</dim>
				</port>
			</input>
			<output>
				<port id="1" precision="FP16">
					<dim>1</dim>
					<dim>32</dim>
					<dim>128</dim>
					<dim>224</dim>
				</port>
			</output>
		</layer>
		<layer id="382" name="L0045_Conv2d_BN/WithoutBiases/fq_weights_1/Convert_to_float/Cast_013946_const" type="Const" version="opset1">
			<data element_type="u8" offset="9286" shape="48,32,1,1" size="1536"/>
			<output>
				<port id="1" precision="U8">
					<dim>48</dim>
					<dim>32</dim>
					<dim>1</dim>
					<dim>1</dim>
				</port>
			</output>
		</layer>
		<layer id="383" name="L0045_Conv2d_BN/WithoutBiases/fq_weights_1/Convert_to_float" type="Convert" version="opset1">
			<data destination_type="f16"/>
			<input>
				<port id="0">
					<dim>48</dim>
					<dim>32</dim>
					<dim>1</dim>
					<dim>1</dim>
				</port>
			</input>
			<output>
				<port id="1" precision="FP16">
					<dim>48</dim>
					<dim>32</dim>
					<dim>1</dim>
					<dim>1</dim>
				</port>
			</output>
		</layer>
		<layer id="384" name="L0045_Conv2d_BN/WithoutBiases/fq_weights_1/Copy/out_low11279_const" type="Const" version="opset1">
			<data element_type="f16" offset="0" shape="1" size="2"/>
			<output>
				<port id="1" precision="FP16">
					<dim>1</dim>
				</port>
			</output>
		</layer>
		<layer id="385" name="L0045_Conv2d_BN/WithoutBiases/fq_weights_1/Copy/out_high11280_const" type="Const" version="opset1">
			<data element_type="f16" offset="436" shape="1" size="2"/>
			<output>
				<port id="1" precision="FP16">
					<dim>1</dim>
				</port>
			</output>
		</layer>
		<layer id="386" name="41824186_const" type="Const" version="opset1">
			<data element_type="f16" offset="10822" shape="48,1,1,1" size="96"/>
			<output>
				<port id="1" precision="FP16">
					<dim>48</dim>
					<dim>1</dim>
					<dim>1</dim>
					<dim>1</dim>
				</port>
			</output>
		</layer>
		<layer id="387" name="41834187_const" type="Const" version="opset1">
			<data element_type="f16" offset="10918" shape="48,1,1,1" size="96"/>
			<output>
				<port id="1" precision="FP16">
					<dim>48</dim>
					<dim>1</dim>
					<dim>1</dim>
					<dim>1</dim>
				</port>
			</output>
		</layer>
		<layer id="388" name="L0045_Conv2d_BN/WithoutBiases/fq_weights_1" type="FakeQuantize" version="opset1">
			<data levels="255"/>
			<input>
				<port id="0">
					<dim>48</dim>
					<dim>32</dim>
					<dim>1</dim>
					<dim>1</dim>
				</port>
				<port id="1">
					<dim>1</dim>
				</port>
				<port id="2">
					<dim>1</dim>
				</port>
				<port id="3">
					<dim>48</dim>
					<dim>1</dim>
					<dim>1</dim>
					<dim>1</dim>
				</port>
				<port id="4">
					<dim>48</dim>
					<dim>1</dim>
					<dim>1</dim>
					<dim>1</dim>
				</port>
			</input>
			<output>
				<port id="5" precision="FP16">
					<dim>48</dim>
					<dim>32</dim>
					<dim>1</dim>
					<dim>1</dim>
				</port>
			</output>
		</layer>
		<layer id="389" name="L0045_Conv2d_BN/WithoutBiases" type="Convolution" version="opset1">
			<data dilations="1,1" output_padding="0,0" pads_begin="0,0" pads_end="0,0" strides="1,1"/>
			<input>
				<port id="0">
					<dim>1</dim>
					<dim>32</dim>
					<dim>128</dim>
					<dim>224</dim>
				</port>
				<port id="1">
					<dim>48</dim>
					<dim>32</dim>
					<dim>1</dim>
					<dim>1</dim>
				</port>
			</input>
			<output>
				<port id="2" precision="FP16">
					<dim>1</dim>
					<dim>48</dim>
					<dim>128</dim>
					<dim>224</dim>
				</port>
			</output>
		</layer>
		<layer id="390" name="L0045_Conv2d_BN/Dims6086/copy_const848_const" type="Const" version="opset1">
			<data element_type="f16" offset="11014" shape="1,48,1,1" size="96"/>
			<output>
				<port id="1" precision="FP16">
					<dim>1</dim>
					<dim>48</dim>
					<dim>1</dim>
					<dim>1</dim>
				</port>
			</output>
		</layer>
		<layer id="391" name="L0045_Conv2d_BN" type="Add" version="opset1">
			<input>
				<port id="0">
					<dim>1</dim>
					<dim>48</dim>
					<dim>128</dim>
					<dim>224</dim>
				</port>
				<port id="1">
					<dim>1</dim>
					<dim>48</dim>
					<dim>1</dim>
					<dim>1</dim>
				</port>
			</input>
			<output>
				<port id="2" precision="FP16">
					<dim>1</dim>
					<dim>48</dim>
					<dim>128</dim>
					<dim>224</dim>
				</port>
			</output>
		</layer>
		<layer id="392" name="53605364_const" type="Const" version="opset1">
			<data element_type="f16" offset="11110" shape="" size="2"/>
			<output>
				<port id="1" precision="FP16"/>
			</output>
		</layer>
		<layer id="393" name="53615365_const" type="Const" version="opset1">
			<data element_type="f16" offset="11112" shape="" size="2"/>
			<output>
				<port id="1" precision="FP16"/>
			</output>
		</layer>
		<layer id="394" name="53625366_const" type="Const" version="opset1">
			<data element_type="f16" offset="11110" shape="" size="2"/>
			<output>
				<port id="1" precision="FP16"/>
			</output>
		</layer>
		<layer id="395" name="53635367_const" type="Const" version="opset1">
			<data element_type="f16" offset="11112" shape="" size="2"/>
			<output>
				<port id="1" precision="FP16"/>
			</output>
		</layer>
		<layer id="396" name="L0046_AddBackward1/fq_input_1" type="FakeQuantize" version="opset1">
			<data levels="256"/>
			<input>
				<port id="0">
					<dim>1</dim>
					<dim>48</dim>
					<dim>128</dim>
					<dim>224</dim>
				</port>
				<port id="1"/>
				<port id="2"/>
				<port id="3"/>
				<port id="4"/>
			</input>
			<output>
				<port id="5" precision="FP16">
					<dim>1</dim>
					<dim>48</dim>
					<dim>128</dim>
					<dim>224</dim>
				</port>
			</output>
		</layer>
		<layer id="397" name="L0046_AddBackward1" type="Add" version="opset1">
			<input>
				<port id="0">
					<dim>1</dim>
					<dim>48</dim>
					<dim>128</dim>
					<dim>224</dim>
				</port>
				<port id="1">
					<dim>1</dim>
					<dim>48</dim>
					<dim>128</dim>
					<dim>224</dim>
				</port>
			</input>
			<output>
				<port id="2" precision="FP16">
					<dim>1</dim>
					<dim>48</dim>
					<dim>128</dim>
					<dim>224</dim>
				</port>
			</output>
		</layer>
		<layer id="398" name="L0047_ReLU" type="ReLU" version="opset1">
			<input>
				<port id="0">
					<dim>1</dim>
					<dim>48</dim>
					<dim>128</dim>
					<dim>224</dim>
				</port>
			</input>
			<output>
				<port id="1" precision="FP16">
					<dim>1</dim>
					<dim>48</dim>
					<dim>128</dim>
					<dim>224</dim>
				</port>
			</output>
		</layer>
		<layer id="399" name="27302734_const" type="Const" version="opset1">
			<data element_type="f16" offset="0" shape="" size="2"/>
			<output>
				<port id="1" precision="FP16"/>
			</output>
		</layer>
		<layer id="400" name="27312735_const" type="Const" version="opset1">
			<data element_type="f16" offset="11114" shape="" size="2"/>
			<output>
				<port id="1" precision="FP16"/>
			</output>
		</layer>
		<layer id="401" name="27322736_const" type="Const" version="opset1">
			<data element_type="f16" offset="0" shape="" size="2"/>
			<output>
				<port id="1" precision="FP16"/>
			</output>
		</layer>
		<layer id="402" name="27332737_const" type="Const" version="opset1">
			<data element_type="f16" offset="11114" shape="" size="2"/>
			<output>
				<port id="1" precision="FP16"/>
			</output>
		</layer>
		<layer id="403" name="L0048_Conv2d_BN/WithoutBiases/fq_input_0" type="FakeQuantize" version="opset1">
			<data levels="256"/>
			<input>
				<port id="0">
					<dim>1</dim>
					<dim>48</dim>
					<dim>128</dim>
					<dim>224</dim>
				</port>
				<port id="1"/>
				<port id="2"/>
				<port id="3"/>
				<port id="4"/>
			</input>
			<output>
				<port id="5" precision="FP16">
					<dim>1</dim>
					<dim>48</dim>
					<dim>128</dim>
					<dim>224</dim>
				</port>
			</output>
		</layer>
		<layer id="404" name="L0048_Conv2d_BN/WithoutBiases/fq_weights_1/Convert_to_float/Cast_013872_const" type="Const" version="opset1">
			<data element_type="u8" offset="11116" shape="16,48,1,1" size="768"/>
			<output>
				<port id="1" precision="U8">
					<dim>16</dim>
					<dim>48</dim>
					<dim>1</dim>
					<dim>1</dim>
				</port>
			</output>
		</layer>
		<layer id="405" name="L0048_Conv2d_BN/WithoutBiases/fq_weights_1/Convert_to_float" type="Convert" version="opset1">
			<data destination_type="f16"/>
			<input>
				<port id="0">
					<dim>16</dim>
					<dim>48</dim>
					<dim>1</dim>
					<dim>1</dim>
				</port>
			</input>
			<output>
				<port id="1" precision="FP16">
					<dim>16</dim>
					<dim>48</dim>
					<dim>1</dim>
					<dim>1</dim>
				</port>
			</output>
		</layer>
		<layer id="406" name="L0048_Conv2d_BN/WithoutBiases/fq_weights_1/Copy/out_low11919_const" type="Const" version="opset1">
			<data element_type="f16" offset="0" shape="1" size="2"/>
			<output>
				<port id="1" precision="FP16">
					<dim>1</dim>
				</port>
			</output>
		</layer>
		<layer id="407" name="L0048_Conv2d_BN/WithoutBiases/fq_weights_1/Copy/out_high11920_const" type="Const" version="opset1">
			<data element_type="f16" offset="436" shape="1" size="2"/>
			<output>
				<port id="1" precision="FP16">
					<dim>1</dim>
				</port>
			</output>
		</layer>
		<layer id="408" name="27422746_const" type="Const" version="opset1">
			<data element_type="f16" offset="11884" shape="16,1,1,1" size="32"/>
			<output>
				<port id="1" precision="FP16">
					<dim>16</dim>
					<dim>1</dim>
					<dim>1</dim>
					<dim>1</dim>
				</port>
			</output>
		</layer>
		<layer id="409" name="27432747_const" type="Const" version="opset1">
			<data element_type="f16" offset="11916" shape="16,1,1,1" size="32"/>
			<output>
				<port id="1" precision="FP16">
					<dim>16</dim>
					<dim>1</dim>
					<dim>1</dim>
					<dim>1</dim>
				</port>
			</output>
		</layer>
		<layer id="410" name="L0048_Conv2d_BN/WithoutBiases/fq_weights_1" type="FakeQuantize" version="opset1">
			<data levels="255"/>
			<input>
				<port id="0">
					<dim>16</dim>
					<dim>48</dim>
					<dim>1</dim>
					<dim>1</dim>
				</port>
				<port id="1">
					<dim>1</dim>
				</port>
				<port id="2">
					<dim>1</dim>
				</port>
				<port id="3">
					<dim>16</dim>
					<dim>1</dim>
					<dim>1</dim>
					<dim>1</dim>
				</port>
				<port id="4">
					<dim>16</dim>
					<dim>1</dim>
					<dim>1</dim>
					<dim>1</dim>
				</port>
			</input>
			<output>
				<port id="5" precision="FP16">
					<dim>16</dim>
					<dim>48</dim>
					<dim>1</dim>
					<dim>1</dim>
				</port>
			</output>
		</layer>
		<layer id="411" name="L0048_Conv2d_BN/WithoutBiases" type="Convolution" version="opset1">
			<data dilations="1,1" output_padding="0,0" pads_begin="0,0" pads_end="0,0" strides="1,1"/>
			<input>
				<port id="0">
					<dim>1</dim>
					<dim>48</dim>
					<dim>128</dim>
					<dim>224</dim>
				</port>
				<port id="1">
					<dim>16</dim>
					<dim>48</dim>
					<dim>1</dim>
					<dim>1</dim>
				</port>
			</input>
			<output>
				<port id="2" precision="FP16">
					<dim>1</dim>
					<dim>16</dim>
					<dim>128</dim>
					<dim>224</dim>
				</port>
			</output>
		</layer>
		<layer id="412" name="L0048_Conv2d_BN/Dims5528/copy_const854_const" type="Const" version="opset1">
			<data element_type="f16" offset="11948" shape="1,16,1,1" size="32"/>
			<output>
				<port id="1" precision="FP16">
					<dim>1</dim>
					<dim>16</dim>
					<dim>1</dim>
					<dim>1</dim>
				</port>
			</output>
		</layer>
		<layer id="413" name="L0048_Conv2d_BN" type="Add" version="opset1">
			<input>
				<port id="0">
					<dim>1</dim>
					<dim>16</dim>
					<dim>128</dim>
					<dim>224</dim>
				</port>
				<port id="1">
					<dim>1</dim>
					<dim>16</dim>
					<dim>1</dim>
					<dim>1</dim>
				</port>
			</input>
			<output>
				<port id="2" precision="FP16">
					<dim>1</dim>
					<dim>16</dim>
					<dim>128</dim>
					<dim>224</dim>
				</port>
			</output>
		</layer>
		<layer id="414" name="L0049_ReLU" type="ReLU" version="opset1">
			<input>
				<port id="0">
					<dim>1</dim>
					<dim>16</dim>
					<dim>128</dim>
					<dim>224</dim>
				</port>
			</input>
			<output>
				<port id="1" precision="FP16">
					<dim>1</dim>
					<dim>16</dim>
					<dim>128</dim>
					<dim>224</dim>
				</port>
			</output>
		</layer>
		<layer id="415" name="54505454_const" type="Const" version="opset1">
			<data element_type="f16" offset="7880" shape="1,16,1,1" size="32"/>
			<output>
…
		<edge from-layer="1905" from-port="5" to-layer="1962" to-port="0"/>
		<edge from-layer="1961" from-port="5" to-layer="1962" to-port="1"/>
		<edge from-layer="1962" from-port="2" to-layer="1964" to-port="0"/>
		<edge from-layer="1963" from-port="1" to-layer="1964" to-port="1"/>
		<edge from-layer="1964" from-port="2" to-layer="1969" to-port="0"/>
		<edge from-layer="1965" from-port="1" to-layer="1969" to-port="1"/>
		<edge from-layer="1966" from-port="1" to-layer="1969" to-port="2"/>
		<edge from-layer="1967" from-port="1" to-layer="1969" to-port="3"/>
		<edge from-layer="1968" from-port="1" to-layer="1969" to-port="4"/>
		<edge from-layer="1954" from-port="5" to-layer="1970" to-port="0"/>
		<edge from-layer="1969" from-port="5" to-layer="1970" to-port="1"/>
		<edge from-layer="1970" from-port="2" to-layer="1971" to-port="0"/>
		<edge from-layer="1971" from-port="1" to-layer="1976" to-port="0"/>
		<edge from-layer="1972" from-port="1" to-layer="1976" to-port="1"/>
		<edge from-layer="1973" from-port="1" to-layer="1976" to-port="2"/>
		<edge from-layer="1974" from-port="1" to-layer="1976" to-port="3"/>
		<edge from-layer="1975" from-port="1" to-layer="1976" to-port="4"/>
		<edge from-layer="1977" from-port="1" to-layer="1978" to-port="0"/>
		<edge from-layer="1978" from-port="1" to-layer="1983" to-port="0"/>
		<edge from-layer="1979" from-port="1" to-layer="1983" to-port="1"/>
		<edge from-layer="1980" from-port="1" to-layer="1983" to-port="2"/>
		<edge from-layer="1981" from-port="1" to-layer="1983" to-port="3"/>
		<edge from-layer="1982" from-port="1" to-layer="1983" to-port="4"/>
		<edge from-layer="1976" from-port="5" to-layer="1984" to-port="0"/>
		<edge from-layer="1983" from-port="5" to-layer="1984" to-port="1"/>
		<edge from-layer="1984" from-port="2" to-layer="1986" to-port="0"/>
		<edge from-layer="1985" from-port="1" to-layer="1986" to-port="1"/>
		<edge from-layer="1986" from-port="2" to-layer="1987" to-port="0"/>
		<edge from-layer="1987" from-port="1" to-layer="1992" to-port="0"/>
		<edge from-layer="1988" from-port="1" to-layer="1992" to-port="1"/>
		<edge from-layer="1989" from-port="1" to-layer="1992" to-port="2"/>
		<edge from-layer="1990" from-port="1" to-layer="1992" to-port="3"/>
		<edge from-layer="1991" from-port="1" to-layer="1992" to-port="4"/>
		<edge from-layer="1993" from-port="1" to-layer="1994" to-port="0"/>
		<edge from-layer="1994" from-port="1" to-layer="1999" to-port="0"/>
		<edge from-layer="1995" from-port="1" to-layer="1999" to-port="1"/>
		<edge from-layer="1996" from-port="1" to-layer="1999" to-port="2"/>
		<edge from-layer="1997" from-port="1" to-layer="1999" to-port="3"/>
		<edge from-layer="1998" from-port="1" to-layer="1999" to-port="4"/>
		<edge from-layer="1999" from-port="5" to-layer="2001" to-port="0"/>
		<edge from-layer="2000" from-port="1" to-layer="2001" to-port="1"/>
		<edge from-layer="1992" from-port="5" to-layer="2002" to-port="0"/>
		<edge from-layer="2001" from-port="2" to-layer="2002" to-port="1"/>
		<edge from-layer="2002" from-port="2" to-layer="2004" to-port="0"/>
		<edge from-layer="2003" from-port="1" to-layer="2004" to-port="1"/>
		<edge from-layer="2004" from-port="2" to-layer="2005" to-port="0"/>
		<edge from-layer="2005" from-port="1" to-layer="2010" to-port="0"/>
		<edge from-layer="2006" from-port="1" to-layer="2010" to-port="1"/>
		<edge from-layer="2007" from-port="1" to-layer="2010" to-port="2"/>
		<edge from-layer="2008" from-port="1" to-layer="2010" to-port="3"/>
		<edge from-layer="2009" from-port="1" to-layer="2010" to-port="4"/>
		<edge from-layer="2011" from-port="1" to-layer="2012" to-port="0"/>
		<edge from-layer="2012" from-port="1" to-layer="2017" to-port="0"/>
		<edge from-layer="2013" from-port="1" to-layer="2017" to-port="1"/>
		<edge from-layer="2014" from-port="1" to-layer="2017" to-port="2"/>
		<edge from-layer="2015" from-port="1" to-layer="2017" to-port="3"/>
		<edge from-layer="2016" from-port="1" to-layer="2017" to-port="4"/>
		<edge from-layer="2010" from-port="5" to-layer="2018" to-port="0"/>
		<edge from-layer="2017" from-port="5" to-layer="2018" to-port="1"/>
		<edge from-layer="2018" from-port="2" to-layer="2020" to-port="0"/>
		<edge from-layer="2019" from-port="1" to-layer="2020" to-port="1"/>
		<edge from-layer="2020" from-port="2" to-layer="2025" to-port="0"/>
		<edge from-layer="2021" from-port="1" to-layer="2025" to-port="1"/>
		<edge from-layer="2022" from-port="1" to-layer="2025" to-port="2"/>
		<edge from-layer="2023" from-port="1" to-layer="2025" to-port="3"/>
		<edge from-layer="2024" from-port="1" to-layer="2025" to-port="4"/>
		<edge from-layer="2025" from-port="5" to-layer="2026" to-port="0"/>
		<edge from-layer="1976" from-port="5" to-layer="2026" to-port="1"/>
		<edge from-layer="2026" from-port="2" to-layer="2027" to-port="0"/>
		<edge from-layer="2027" from-port="1" to-layer="2032" to-port="0"/>
		<edge from-layer="2028" from-port="1" to-layer="2032" to-port="1"/>
		<edge from-layer="2029" from-port="1" to-layer="2032" to-port="2"/>
		<edge from-layer="2030" from-port="1" to-layer="2032" to-port="3"/>
		<edge from-layer="2031" from-port="1" to-layer="2032" to-port="4"/>
		<edge from-layer="2033" from-port="1" to-layer="2034" to-port="0"/>
		<edge from-layer="2034" from-port="1" to-layer="2039" to-port="0"/>
		<edge from-layer="2035" from-port="1" to-layer="2039" to-port="1"/>
		<edge from-layer="2036" from-port="1" to-layer="2039" to-port="2"/>
		<edge from-layer="2037" from-port="1" to-layer="2039" to-port="3"/>
		<edge from-layer="2038" from-port="1" to-layer="2039" to-port="4"/>
		<edge from-layer="2032" from-port="5" to-layer="2040" to-port="0"/>
		<edge from-layer="2039" from-port="5" to-layer="2040" to-port="1"/>
		<edge from-layer="2040" from-port="2" to-layer="2042" to-port="0"/>
		<edge from-layer="2041" from-port="1" to-layer="2042" to-port="1"/>
		<edge from-layer="2042" from-port="2" to-layer="2043" to-port="0"/>
		<edge from-layer="2043" from-port="1" to-layer="2048" to-port="0"/>
		<edge from-layer="2044" from-port="1" to-layer="2048" to-port="1"/>
		<edge from-layer="2045" from-port="1" to-layer="2048" to-port="2"/>
		<edge from-layer="2046" from-port="1" to-layer="2048" to-port="3"/>
		<edge from-layer="2047" from-port="1" to-layer="2048" to-port="4"/>
		<edge from-layer="2049" from-port="1" to-layer="2050" to-port="0"/>
		<edge from-layer="2050" from-port="1" to-layer="2055" to-port="0"/>
		<edge from-layer="2051" from-port="1" to-layer="2055" to-port="1"/>
		<edge from-layer="2052" from-port="1" to-layer="2055" to-port="2"/>
		<edge from-layer="2053" from-port="1" to-layer="2055" to-port="3"/>
		<edge from-layer="2054" from-port="1" to-layer="2055" to-port="4"/>
		<edge from-layer="2055" from-port="5" to-layer="2057" to-port="0"/>
		<edge from-layer="2056" from-port="1" to-layer="2057" to-port="1"/>
		<edge from-layer="2048" from-port="5" to-layer="2058" to-port="0"/>
		<edge from-layer="2057" from-port="2" to-layer="2058" to-port="1"/>
		<edge from-layer="2058" from-port="2" to-layer="2060" to-port="0"/>
		<edge from-layer="2059" from-port="1" to-layer="2060" to-port="1"/>
		<edge from-layer="2060" from-port="2" to-layer="2061" to-port="0"/>
		<edge from-layer="2061" from-port="1" to-layer="2066" to-port="0"/>
		<edge from-layer="2062" from-port="1" to-layer="2066" to-port="1"/>
		<edge from-layer="2063" from-port="1" to-layer="2066" to-port="2"/>
		<edge from-layer="2064" from-port="1" to-layer="2066" to-port="3"/>
		<edge from-layer="2065" from-port="1" to-layer="2066" to-port="4"/>
		<edge from-layer="2067" from-port="1" to-layer="2068" to-port="0"/>
		<edge from-layer="2068" from-port="1" to-layer="2073" to-port="0"/>
		<edge from-layer="2069" from-port="1" to-layer="2073" to-port="1"/>
		<edge from-layer="2070" from-port="1" to-layer="2073" to-port="2"/>
		<edge from-layer="2071" from-port="1" to-layer="2073" to-port="3"/>
		<edge from-layer="2072" from-port="1" to-layer="2073" to-port="4"/>
		<edge from-layer="2066" from-port="5" to-layer="2074" to-port="0"/>
		<edge from-layer="2073" from-port="5" to-layer="2074" to-port="1"/>
		<edge from-layer="2074" from-port="2" to-layer="2076" to-port="0"/>
		<edge from-layer="2075" from-port="1" to-layer="2076" to-port="1"/>
		<edge from-layer="2076" from-port="2" to-layer="2081" to-port="0"/>
		<edge from-layer="2077" from-port="1" to-layer="2081" to-port="1"/>
		<edge from-layer="2078" from-port="1" to-layer="2081" to-port="2"/>
		<edge from-layer="2079" from-port="1" to-layer="2081" to-port="3"/>
		<edge from-layer="2080" from-port="1" to-layer="2081" to-port="4"/>
		<edge from-layer="2081" from-port="5" to-layer="2082" to-port="0"/>
		<edge from-layer="2032" from-port="5" to-layer="2082" to-port="1"/>
		<edge from-layer="2082" from-port="2" to-layer="2083" to-port="0"/>
		<edge from-layer="2083" from-port="1" to-layer="2088" to-port="0"/>
		<edge from-layer="2084" from-port="1" to-layer="2088" to-port="1"/>
		<edge from-layer="2085" from-port="1" to-layer="2088" to-port="2"/>
		<edge from-layer="2086" from-port="1" to-layer="2088" to-port="3"/>
		<edge from-layer="2087" from-port="1" to-layer="2088" to-port="4"/>
		<edge from-layer="2089" from-port="1" to-layer="2090" to-port="0"/>
		<edge from-layer="2090" from-port="1" to-layer="2095" to-port="0"/>
		<edge from-layer="2091" from-port="1" to-layer="2095" to-port="1"/>
		<edge from-layer="2092" from-port="1" to-layer="2095" to-port="2"/>
		<edge from-layer="2093" from-port="1" to-layer="2095" to-port="3"/>
		<edge from-layer="2094" from-port="1" to-layer="2095" to-port="4"/>
		<edge from-layer="2088" from-port="5" to-layer="2096" to-port="0"/>
		<edge from-layer="2095" from-port="5" to-layer="2096" to-port="1"/>
		<edge from-layer="2096" from-port="2" to-layer="2098" to-port="0"/>
		<edge from-layer="2097" from-port="1" to-layer="2098" to-port="1"/>
		<edge from-layer="2098" from-port="2" to-layer="2099" to-port="0"/>
		<edge from-layer="2099" from-port="1" to-layer="2104" to-port="0"/>
		<edge from-layer="2100" from-port="1" to-layer="2104" to-port="1"/>
		<edge from-layer="2101" from-port="1" to-layer="2104" to-port="2"/>
		<edge from-layer="2102" from-port="1" to-layer="2104" to-port="3"/>
		<edge from-layer="2103" from-port="1" to-layer="2104" to-port="4"/>
		<edge from-layer="2105" from-port="1" to-layer="2106" to-port="0"/>
		<edge from-layer="2106" from-port="1" to-layer="2111" to-port="0"/>
		<edge from-layer="2107" from-port="1" to-layer="2111" to-port="1"/>
		<edge from-layer="2108" from-port="1" to-layer="2111" to-port="2"/>
		<edge from-layer="2109" from-port="1" to-layer="2111" to-port="3"/>
		<edge from-layer="2110" from-port="1" to-layer="2111" to-port="4"/>
		<edge from-layer="2111" from-port="5" to-layer="2113" to-port="0"/>
		<edge from-layer="2112" from-port="1" to-layer="2113" to-port="1"/>
		<edge from-layer="2104" from-port="5" to-layer="2114" to-port="0"/>
		<edge from-layer="2113" from-port="2" to-layer="2114" to-port="1"/>
		<edge from-layer="2114" from-port="2" to-layer="2116" to-port="0"/>
		<edge from-layer="2115" from-port="1" to-layer="2116" to-port="1"/>
		<edge from-layer="2116" from-port="2" to-layer="2117" to-port="0"/>
		<edge from-layer="2117" from-port="1" to-layer="2122" to-port="0"/>
		<edge from-layer="2118" from-port="1" to-layer="2122" to-port="1"/>
		<edge from-layer="2119" from-port="1" to-layer="2122" to-port="2"/>
		<edge from-layer="2120" from-port="1" to-layer="2122" to-port="3"/>
		<edge from-layer="2121" from-port="1" to-layer="2122" to-port="4"/>
		<edge from-layer="2123" from-port="1" to-layer="2124" to-port="0"/>
		<edge from-layer="2124" from-port="1" to-layer="2129" to-port="0"/>
		<edge from-layer="2125" from-port="1" to-layer="2129" to-port="1"/>
		<edge from-layer="2126" from-port="1" to-layer="2129" to-port="2"/>
		<edge from-layer="2127" from-port="1" to-layer="2129" to-port="3"/>
		<edge from-layer="2128" from-port="1" to-layer="2129" to-port="4"/>
		<edge from-layer="2122" from-port="5" to-layer="2130" to-port="0"/>
		<edge from-layer="2129" from-port="5" to-layer="2130" to-port="1"/>
		<edge from-layer="2130" from-port="2" to-layer="2132" to-port="0"/>
		<edge from-layer="2131" from-port="1" to-layer="2132" to-port="1"/>
		<edge from-layer="2132" from-port="2" to-layer="2137" to-port="0"/>
		<edge from-layer="2133" from-port="1" to-layer="2137" to-port="1"/>
		<edge from-layer="2134" from-port="1" to-layer="2137" to-port="2"/>
		<edge from-layer="2135" from-port="1" to-layer="2137" to-port="3"/>
		<edge from-layer="2136" from-port="1" to-layer="2137" to-port="4"/>
		<edge from-layer="2138" from-port="1" to-layer="2139" to-port="0"/>
		<edge from-layer="2139" from-port="1" to-layer="2144" to-port="0"/>
		<edge from-layer="2140" from-port="1" to-layer="2144" to-port="1"/>
		<edge from-layer="2141" from-port="1" to-layer="2144" to-port="2"/>
		<edge from-layer="2142" from-port="1" to-layer="2144" to-port="3"/>
		<edge from-layer="2143" from-port="1" to-layer="2144" to-port="4"/>
		<edge from-layer="2088" from-port="5" to-layer="2145" to-port="0"/>
		<edge from-layer="2144" from-port="5" to-layer="2145" to-port="1"/>
		<edge from-layer="2145" from-port="2" to-layer="2147" to-port="0"/>
		<edge from-layer="2146" from-port="1" to-layer="2147" to-port="1"/>
		<edge from-layer="2147" from-port="2" to-layer="2152" to-port="0"/>
		<edge from-layer="2148" from-port="1" to-layer="2152" to-port="1"/>
		<edge from-layer="2149" from-port="1" to-layer="2152" to-port="2"/>
		<edge from-layer="2150" from-port="1" to-layer="2152" to-port="3"/>
		<edge from-layer="2151" from-port="1" to-layer="2152" to-port="4"/>
		<edge from-layer="2137" from-port="5" to-layer="2153" to-port="0"/>
		<edge from-layer="2152" from-port="5" to-layer="2153" to-port="1"/>
		<edge from-layer="2153" from-port="2" to-layer="2154" to-port="0"/>
		<edge from-layer="2154" from-port="1" to-layer="2159" to-port="0"/>
		<edge from-layer="2155" from-port="1" to-layer="2159" to-port="1"/>
		<edge from-layer="2156" from-port="1" to-layer="2159" to-port="2"/>
		<edge from-layer="2157" from-port="1" to-layer="2159" to-port="3"/>
		<edge from-layer="2158" from-port="1" to-layer="2159" to-port="4"/>
		<edge from-layer="2160" from-port="1" to-layer="2161" to-port="0"/>
		<edge from-layer="2161" from-port="1" to-layer="2166" to-port="0"/>
		<edge from-layer="2162" from-port="1" to-layer="2166" to-port="1"/>
		<edge from-layer="2163" from-port="1" to-layer="2166" to-port="2"/>
		<edge from-layer="2164" from-port="1" to-layer="2166" to-port="3"/>
		<edge from-layer="2165" from-port="1" to-layer="2166" to-port="4"/>
		<edge from-layer="2159" from-port="5" to-layer="2167" to-port="0"/>
		<edge from-layer="2166" from-port="5" to-layer="2167" to-port="1"/>
		<edge from-layer="2167" from-port="2" to-layer="2169" to-port="0"/>
		<edge from-layer="2168" from-port="1" to-layer="2169" to-port="1"/>
		<edge from-layer="2169" from-port="2" to-layer="2170" to-port="0"/>
		<edge from-layer="2170" from-port="1" to-layer="2175" to-port="0"/>
		<edge from-layer="2171" from-port="1" to-layer="2175" to-port="1"/>
		<edge from-layer="2172" from-port="1" to-layer="2175" to-port="2"/>
		<edge from-layer="2173" from-port="1" to-layer="2175" to-port="3"/>
		<edge from-layer="2174" from-port="1" to-layer="2175" to-port="4"/>
		<edge from-layer="2176" from-port="1" to-layer="2177" to-port="0"/>
		<edge from-layer="2177" from-port="1" to-layer="2182" to-port="0"/>
		<edge from-layer="2178" from-port="1" to-layer="2182" to-port="1"/>
		<edge from-layer="2179" from-port="1" to-layer="2182" to-port="2"/>
		<edge from-layer="2180" from-port="1" to-layer="2182" to-port="3"/>
		<edge from-layer="2181" from-port="1" to-layer="2182" to-port="4"/>
		<edge from-layer="2182" from-port="5" to-layer="2184" to-port="0"/>
		<edge from-layer="2183" from-port="1" to-layer="2184" to-port="1"/>
		<edge from-layer="2175" from-port="5" to-layer="2185" to-port="0"/>
		<edge from-layer="2184" from-port="2" to-layer="2185" to-port="1"/>
		<edge from-layer="2185" from-port="2" to-layer="2187" to-port="0"/>
		<edge from-layer="2186" from-port="1" to-layer="2187" to-port="1"/>
		<edge from-layer="2187" from-port="2" to-layer="2188" to-port="0"/>
		<edge from-layer="2188" from-port="1" to-layer="2193" to-port="0"/>
		<edge from-layer="2189" from-port="1" to-layer="2193" to-port="1"/>
		<edge from-layer="2190" from-port="1" to-layer="2193" to-port="2"/>
		<edge from-layer="2191" from-port="1" to-layer="2193" to-port="3"/>
		<edge from-layer="2192" from-port="1" to-layer="2193" to-port="4"/>
		<edge from-layer="2194" from-port="1" to-layer="2195" to-port="0"/>
		<edge from-layer="2195" from-port="1" to-layer="2200" to-port="0"/>
		<edge from-layer="2196" from-port="1" to-layer="2200" to-port="1"/>
		<edge from-layer="2197" from-port="1" to-layer="2200" to-port="2"/>
		<edge from-layer="2198" from-port="1" to-layer="2200" to-port="3"/>
		<edge from-layer="2199" from-port="1" to-layer="2200" to-port="4"/>
		<edge from-layer="2193" from-port="5" to-layer="2201" to-port="0"/>
		<edge from-layer="2200" from-port="5" to-layer="2201" to-port="1"/>
		<edge from-layer="2201" from-port="2" to-layer="2203" to-port="0"/>
		<edge from-layer="2202" from-port="1" to-layer="2203" to-port="1"/>
		<edge from-layer="2203" from-port="2" to-layer="2208" to-port="0"/>
		<edge from-layer="2204" from-port="1" to-layer="2208" to-port="1"/>
		<edge from-layer="2205" from-port="1" to-layer="2208" to-port="2"/>
		<edge from-layer="2206" from-port="1" to-layer="2208" to-port="3"/>
		<edge from-layer="2207" from-port="1" to-layer="2208" to-port="4"/>
		<edge from-layer="2208" from-port="5" to-layer="2209" to-port="0"/>
		<edge from-layer="2159" from-port="5" to-layer="2209" to-port="1"/>
		<edge from-layer="2209" from-port="2" to-layer="2210" to-port="0"/>
		<edge from-layer="2210" from-port="1" to-layer="2215" to-port="0"/>
		<edge from-layer="2211" from-port="1" to-layer="2215" to-port="1"/>
		<edge from-layer="2212" from-port="1" to-layer="2215" to-port="2"/>
		<edge from-layer="2213" from-port="1" to-layer="2215" to-port="3"/>
		<edge from-layer="2214" from-port="1" to-layer="2215" to-port="4"/>
		<edge from-layer="2216" from-port="1" to-layer="2217" to-port="0"/>
		<edge from-layer="2217" from-port="1" to-layer="2222" to-port="0"/>
		<edge from-layer="2218" from-port="1" to-layer="2222" to-port="1"/>
		<edge from-layer="2219" from-port="1" to-layer="2222" to-port="2"/>
		<edge from-layer="2220" from-port="1" to-layer="2222" to-port="3"/>
		<edge from-layer="2221" from-port="1" to-layer="2222" to-port="4"/>
		<edge from-layer="2215" from-port="5" to-layer="2223" to-port="0"/>
		<edge from-layer="2222" from-port="5" to-layer="2223" to-port="1"/>
		<edge from-layer="2223" from-port="2" to-layer="2225" to-port="0"/>
		<edge from-layer="2224" from-port="1" to-layer="2225" to-port="1"/>
		<edge from-layer="2225" from-port="2" to-layer="2226" to-port="0"/>
		<edge from-layer="2226" from-port="1" to-layer="2231" to-port="0"/>
		<edge from-layer="2227" from-port="1" to-layer="2231" to-port="1"/>
		<edge from-layer="2228" from-port="1" to-layer="2231" to-port="2"/>
		<edge from-layer="2229" from-port="1" to-layer="2231" to-port="3"/>
		<edge from-layer="2230" from-port="1" to-layer="2231" to-port="4"/>
		<edge from-layer="2232" from-port="1" to-layer="2233" to-port="0"/>
		<edge from-layer="2233" from-port="1" to-layer="2238" to-port="0"/>
		<edge from-layer="2234" from-port="1" to-layer="2238" to-port="1"/>
		<edge from-layer="2235" from-port="1" to-layer="2238" to-port="2"/>
		<edge from-layer="2236" from-port="1" to-layer="2238" to-port="3"/>
		<edge from-layer="2237" from-port="1" to-layer="2238" to-port="4"/>
		<edge from-layer="2238" from-port="5" to-layer="2240" to-port="0"/>
		<edge from-layer="2239" from-port="1" to-layer="2240" to-port="1"/>
		<edge from-layer="2231" from-port="5" to-layer="2241" to-port="0"/>
		<edge from-layer="2240" from-port="2" to-layer="2241" to-port="1"/>
		<edge from-layer="2241" from-port="2" to-layer="2243" to-port="0"/>
		<edge from-layer="2242" from-port="1" to-layer="2243" to-port="1"/>
		<edge from-layer="2243" from-port="2" to-layer="2244" to-port="0"/>
		<edge from-layer="2244" from-port="1" to-layer="2249" to-port="0"/>
		<edge from-layer="2245" from-port="1" to-layer="2249" to-port="1"/>
		<edge from-layer="2246" from-port="1" to-layer="2249" to-port="2"/>
		<edge from-layer="2247" from-port="1" to-layer="2249" to-port="3"/>
		<edge from-layer="2248" from-port="1" to-layer="2249" to-port="4"/>
		<edge from-layer="2250" from-port="1" to-layer="2251" to-port="0"/>
		<edge from-layer="2251" from-port="1" to-layer="2256" to-port="0"/>
		<edge from-layer="2252" from-port="1" to-layer="2256" to-port="1"/>
		<edge from-layer="2253" from-port="1" to-layer="2256" to-port="2"/>
		<edge from-layer="2254" from-port="1" to-layer="2256" to-port="3"/>
		<edge from-layer="2255" from-port="1" to-layer="2256" to-port="4"/>
		<edge from-layer="2249" from-port="5" to-layer="2257" to-port="0"/>
		<edge from-layer="2256" from-port="5" to-layer="2257" to-port="1"/>
		<edge from-layer="2257" from-port="2" to-layer="2259" to-port="0"/>
		<edge from-layer="2258" from-port="1" to-layer="2259" to-port="1"/>
		<edge from-layer="2259" from-port="2" to-layer="2264" to-port="0"/>
		<edge from-layer="2260" from-port="1" to-layer="2264" to-port="1"/>
		<edge from-layer="2261" from-port="1" to-layer="2264" to-port="2"/>
		<edge from-layer="2262" from-port="1" to-layer="2264" to-port="3"/>
		<edge from-layer="2263" from-port="1" to-layer="2264" to-port="4"/>
		<edge from-layer="2264" from-port="5" to-layer="2265" to-port="0"/>
		<edge from-layer="2215" from-port="5" to-layer="2265" to-port="1"/>
		<edge from-layer="2265" from-port="2" to-layer="2266" to-port="0"/>
		<edge from-layer="2266" from-port="1" to-layer="2271" to-port="0"/>
		<edge from-layer="2267" from-port="1" to-layer="2271" to-port="1"/>
		<edge from-layer="2268" from-port="1" to-layer="2271" to-port="2"/>
		<edge from-layer="2269" from-port="1" to-layer="2271" to-port="3"/>
		<edge from-layer="2270" from-port="1" to-layer="2271" to-port="4"/>
		<edge from-layer="2272" from-port="1" to-layer="2273" to-port="0"/>
		<edge from-layer="2273" from-port="1" to-layer="2278" to-port="0"/>
		<edge from-layer="2274" from-port="1" to-layer="2278" to-port="1"/>
		<edge from-layer="2275" from-port="1" to-layer="2278" to-port="2"/>
		<edge from-layer="2276" from-port="1" to-layer="2278" to-port="3"/>
		<edge from-layer="2277" from-port="1" to-layer="2278" to-port="4"/>
		<edge from-layer="2271" from-port="5" to-layer="2279" to-port="0"/>
		<edge from-layer="2278" from-port="5" to-layer="2279" to-port="1"/>
		<edge from-layer="2279" from-port="2" to-layer="2281" to-port="0"/>
		<edge from-layer="2280" from-port="1" to-layer="2281" to-port="1"/>
		<edge from-layer="2281" from-port="2" to-layer="2282" to-port="0"/>
		<edge from-layer="2282" from-port="1" to-layer="2287" to-port="0"/>
		<edge from-layer="2283" from-port="1" to-layer="2287" to-port="1"/>
		<edge from-layer="2284" from-port="1" to-layer="2287" to-port="2"/>
		<edge from-layer="2285" from-port="1" to-layer="2287" to-port="3"/>
		<edge from-layer="2286" from-port="1" to-layer="2287" to-port="4"/>
		<edge from-layer="2288" from-port="1" to-layer="2289" to-port="0"/>
		<edge from-layer="2289" from-port="1" to-layer="2294" to-port="0"/>
		<edge from-layer="2290" from-port="1" to-layer="2294" to-port="1"/>
		<edge from-layer="2291" from-port="1" to-layer="2294" to-port="2"/>
		<edge from-layer="2292" from-port="1" to-layer="2294" to-port="3"/>
		<edge from-layer="2293" from-port="1" to-layer="2294" to-port="4"/>
		<edge from-layer="2294" from-port="5" to-layer="2296" to-port="0"/>
		<edge from-layer="2295" from-port="1" to-layer="2296" to-port="1"/>
		<edge from-layer="2287" from-port="5" to-layer="2297" to-port="0"/>
		<edge from-layer="2296" from-port="2" to-layer="2297" to-port="1"/>
		<edge from-layer="2297" from-port="2" to-layer="2299" to-port="0"/>
		<edge from-layer="2298" from-port="1" to-layer="2299" to-port="1"/>
		<edge from-layer="2299" from-port="2" to-layer="2300" to-port="0"/>
		<edge from-layer="2300" from-port="1" to-layer="2305" to-port="0"/>
		<edge from-layer="2301" from-port="1" to-layer="2305" to-port="1"/>
		<edge from-layer="2302" from-port="1" to-layer="2305" to-port="2"/>
		<edge from-layer="2303" from-port="1" to-layer="2305" to-port="3"/>
		<edge from-layer="2304" from-port="1" to-layer="2305" to-port="4"/>
		<edge from-layer="2306" from-port="1" to-layer="2307" to-port="0"/>
		<edge from-layer="2307" from-port="1" to-layer="2312" to-port="0"/>
		<edge from-layer="2308" from-port="1" to-layer="2312" to-port="1"/>
		<edge from-layer="2309" from-port="1" to-layer="2312" to-port="2"/>
		<edge from-layer="2310" from-port="1" to-layer="2312" to-port="3"/>
		<edge from-layer="2311" from-port="1" to-layer="2312" to-port="4"/>
		<edge from-layer="2305" from-port="5" to-layer="2313" to-port="0"/>
		<edge from-layer="2312" from-port="5" to-layer="2313" to-port="1"/>
		<edge from-layer="2313" from-port="2" to-layer="2315" to-port="0"/>
		<edge from-layer="2314" from-port="1" to-layer="2315" to-port="1"/>
		<edge from-layer="2315" from-port="2" to-layer="2320" to-port="0"/>
		<edge from-layer="2316" from-port="1" to-layer="2320" to-port="1"/>
		<edge from-layer="2317" from-port="1" to-layer="2320" to-port="2"/>
		<edge from-layer="2318" from-port="1" to-layer="2320" to-port="3"/>
		<edge from-layer="2319" from-port="1" to-layer="2320" to-port="4"/>
		<edge from-layer="2320" from-port="5" to-layer="2321" to-port="0"/>
		<edge from-layer="2271" from-port="5" to-layer="2321" to-port="1"/>
		<edge from-layer="2321" from-port="2" to-layer="2322" to-port="0"/>
		<edge from-layer="2322" from-port="1" to-layer="2327" to-port="0"/>
		<edge from-layer="2323" from-port="1" to-layer="2327" to-port="1"/>
		<edge from-layer="2324" from-port="1" to-layer="2327" to-port="2"/>
		<edge from-layer="2325" from-port="1" to-layer="2327" to-port="3"/>
		<edge from-layer="2326" from-port="1" to-layer="2327" to-port="4"/>
		<edge from-layer="2327" from-port="5" to-layer="2328" to-port="0"/>
		<edge from-layer="2328" from-port="1" to-layer="2333" to-port="0"/>
		<edge from-layer="2329" from-port="1" to-layer="2333" to-port="1"/>
		<edge from-layer="2330" from-port="1" to-layer="2333" to-port="2"/>
		<edge from-layer="2331" from-port="1" to-layer="2333" to-port="3"/>
		<edge from-layer="2332" from-port="1" to-layer="2333" to-port="4"/>
		<edge from-layer="2334" from-port="1" to-layer="2335" to-port="0"/>
		<edge from-layer="2335" from-port="1" to-layer="2340" to-port="0"/>
		<edge from-layer="2336" from-port="1" to-layer="2340" to-port="1"/>
		<edge from-layer="2337" from-port="1" to-layer="2340" to-port="2"/>
		<edge from-layer="2338" from-port="1" to-layer="2340" to-port="3"/>
		<edge from-layer="2339" from-port="1" to-layer="2340" to-port="4"/>
		<edge from-layer="2333" from-port="5" to-layer="2341" to-port="0"/>
		<edge from-layer="2340" from-port="5" to-layer="2341" to-port="1"/>
		<edge from-layer="2341" from-port="2" to-layer="2343" to-port="0"/>
		<edge from-layer="2342" from-port="1" to-layer="2343" to-port="1"/>
		<edge from-layer="2343" from-port="2" to-layer="2344" to-port="0"/>
		<edge from-layer="2344" from-port="1" to-layer="2349" to-port="0"/>
		<edge from-layer="2345" from-port="1" to-layer="2349" to-port="1"/>
		<edge from-layer="2346" from-port="1" to-layer="2349" to-port="2"/>
		<edge from-layer="2347" from-port="1" to-layer="2349" to-port="3"/>
		<edge from-layer="2348" from-port="1" to-layer="2349" to-port="4"/>
		<edge from-layer="2349" from-port="5" to-layer="2351" to-port="0"/>
		<edge from-layer="2350" from-port="1" to-layer="2351" to-port="1"/>
		<edge from-layer="2351" from-port="2" to-layer="2356" to-port="0"/>
		<edge from-layer="2352" from-port="1" to-layer="2356" to-port="1"/>
		<edge from-layer="2353" from-port="1" to-layer="2356" to-port="2"/>
		<edge from-layer="2354" from-port="1" to-layer="2356" to-port="3"/>
		<edge from-layer="2355" from-port="1" to-layer="2356" to-port="4"/>
		<edge from-layer="2357" from-port="1" to-layer="2358" to-port="0"/>
		<edge from-layer="2358" from-port="1" to-layer="2363" to-port="0"/>
		<edge from-layer="2359" from-port="1" to-layer="2363" to-port="1"/>
		<edge from-layer="2360" from-port="1" to-layer="2363" to-port="2"/>
		<edge from-layer="2361" from-port="1" to-layer="2363" to-port="3"/>
		<edge from-layer="2362" from-port="1" to-layer="2363" to-port="4"/>
		<edge from-layer="2356" from-port="5" to-layer="2364" to-port="0"/>
		<edge from-layer="2363" from-port="5" to-layer="2364" to-port="1"/>
		<edge from-layer="2364" from-port="2" to-layer="2366" to-port="0"/>
		<edge from-layer="2365" from-port="1" to-layer="2366" to-port="1"/>
		<edge from-layer="2366" from-port="2" to-layer="2367" to-port="0"/>
		<edge from-layer="2367" from-port="1" to-layer="2372" to-port="0"/>
		<edge from-layer="2368" from-port="1" to-layer="2372" to-port="1"/>
		<edge from-layer="2369" from-port="1" to-layer="2372" to-port="2"/>
		<edge from-layer="2370" from-port="1" to-layer="2372" to-port="3"/>
		<edge from-layer="2371" from-port="1" to-layer="2372" to-port="4"/>
		<edge from-layer="2327" from-port="5" to-layer="2373" to-port="0"/>
		<edge from-layer="2372" from-port="5" to-layer="2373" to-port="1"/>
		<edge from-layer="2373" from-port="2" to-layer="2378" to-port="0"/>
		<edge from-layer="2374" from-port="1" to-layer="2378" to-port="1"/>
		<edge from-layer="2375" from-port="1" to-layer="2378" to-port="2"/>
		<edge from-layer="2376" from-port="1" to-layer="2378" to-port="3"/>
		<edge from-layer="2377" from-port="1" to-layer="2378" to-port="4"/>
		<edge from-layer="2327" from-port="5" to-layer="2379" to-port="0"/>
		<edge from-layer="2379" from-port="1" to-layer="2384" to-port="0"/>
		<edge from-layer="2380" from-port="1" to-layer="2384" to-port="1"/>
		<edge from-layer="2381" from-port="1" to-layer="2384" to-port="2"/>
		<edge from-layer="2382" from-port="1" to-layer="2384" to-port="3"/>
		<edge from-layer="2383" from-port="1" to-layer="2384" to-port="4"/>
		<edge from-layer="2385" from-port="1" to-layer="2386" to-port="0"/>
		<edge from-layer="2386" from-port="1" to-layer="2391" to-port="0"/>
		<edge from-layer="2387" from-port="1" to-layer="2391" to-port="1"/>
		<edge from-layer="2388" from-port="1" to-layer="2391" to-port="2"/>
		<edge from-layer="2389" from-port="1" to-layer="2391" to-port="3"/>
		<edge from-layer="2390" from-port="1" to-layer="2391" to-port="4"/>
		<edge from-layer="2384" from-port="5" to-layer="2392" to-port="0"/>
		<edge from-layer="2391" from-port="5" to-layer="2392" to-port="1"/>
		<edge from-layer="2392" from-port="2" to-layer="2394" to-port="0"/>
		<edge from-layer="2393" from-port="1" to-layer="2394" to-port="1"/>
		<edge from-layer="2394" from-port="2" to-layer="2395" to-port="0"/>
		<edge from-layer="2395" from-port="1" to-layer="2400" to-port="0"/>
		<edge from-layer="2396" from-port="1" to-layer="2400" to-port="1"/>
		<edge from-layer="2397" from-port="1" to-layer="2400" to-port="2"/>
		<edge from-layer="2398" from-port="1" to-layer="2400" to-port="3"/>
		<edge from-layer="2399" from-port="1" to-layer="2400" to-port="4"/>
		<edge from-layer="2400" from-port="5" to-layer="2402" to-port="0"/>
		<edge from-layer="2401" from-port="1" to-layer="2402" to-port="1"/>
		<edge from-layer="2402" from-port="2" to-layer="2407" to-port="0"/>
		<edge from-layer="2403" from-port="1" to-layer="2407" to-port="1"/>
		<edge from-layer="2404" from-port="1" to-layer="2407" to-port="2"/>
		<edge from-layer="2405" from-port="1" to-layer="2407" to-port="3"/>
		<edge from-layer="2406" from-port="1" to-layer="2407" to-port="4"/>
		<edge from-layer="2408" from-port="1" to-layer="2409" to-port="0"/>
		<edge from-layer="2409" from-port="1" to-layer="2414" to-port="0"/>
		<edge from-layer="2410" from-port="1" to-layer="2414" to-port="1"/>
		<edge from-layer="2411" from-port="1" to-layer="2414" to-port="2"/>
		<edge from-layer="2412" from-port="1" to-layer="2414" to-port="3"/>
		<edge from-layer="2413" from-port="1" to-layer="2414" to-port="4"/>
		<edge from-layer="2407" from-port="5" to-layer="2415" to-port="0"/>
		<edge from-layer="2414" from-port="5" to-layer="2415" to-port="1"/>
		<edge from-layer="2415" from-port="2" to-layer="2417" to-port="0"/>
		<edge from-layer="2416" from-port="1" to-layer="2417" to-port="1"/>
		<edge from-layer="2417" from-port="2" to-layer="2418" to-port="0"/>
		<edge from-layer="2418" from-port="1" to-layer="2423" to-port="0"/>
		<edge from-layer="2419" from-port="1" to-layer="2423" to-port="1"/>
		<edge from-layer="2420" from-port="1" to-layer="2423" to-port="2"/>
		<edge from-layer="2421" from-port="1" to-layer="2423" to-port="3"/>
		<edge from-layer="2422" from-port="1" to-layer="2423" to-port="4"/>
		<edge from-layer="2378" from-port="5" to-layer="2424" to-port="0"/>
		<edge from-layer="2423" from-port="5" to-layer="2424" to-port="1"/>
		<edge from-layer="2424" from-port="2" to-layer="2429" to-port="0"/>
		<edge from-layer="2425" from-port="1" to-layer="2429" to-port="1"/>
		<edge from-layer="2426" from-port="1" to-layer="2429" to-port="2"/>
		<edge from-layer="2427" from-port="1" to-layer="2429" to-port="3"/>
		<edge from-layer="2428" from-port="1" to-layer="2429" to-port="4"/>
		<edge from-layer="2430" from-port="1" to-layer="2431" to-port="0"/>
		<edge from-layer="2431" from-port="1" to-layer="2436" to-port="0"/>
		<edge from-layer="2432" from-port="1" to-layer="2436" to-port="1"/>
		<edge from-layer="2433" from-port="1" to-layer="2436" to-port="2"/>
		<edge from-layer="2434" from-port="1" to-layer="2436" to-port="3"/>
		<edge from-layer="2435" from-port="1" to-layer="2436" to-port="4"/>
		<edge from-layer="2429" from-port="5" to-layer="2437" to-port="0"/>
		<edge from-layer="2436" from-port="5" to-layer="2437" to-port="1"/>
		<edge from-layer="2437" from-port="2" to-layer="2439" to-port="0"/>
		<edge from-layer="2438" from-port="1" to-layer="2439" to-port="1"/>
		<edge from-layer="2439" from-port="2" to-layer="2440" to-port="0"/>
		<edge from-layer="2440" from-port="1" to-layer="2445" to-port="0"/>
		<edge from-layer="2441" from-port="1" to-layer="2445" to-port="1"/>
		<edge from-layer="2442" from-port="1" to-layer="2445" to-port="2"/>
		<edge from-layer="2443" from-port="1" to-layer="2445" to-port="3"/>
		<edge from-layer="2444" from-port="1" to-layer="2445" to-port="4"/>
		<edge from-layer="2445" from-port="5" to-layer="2447" to-port="0"/>
		<edge from-layer="2446" from-port="1" to-layer="2447" to-port="1"/>
		<edge from-layer="2447" from-port="2" to-layer="2452" to-port="0"/>
		<edge from-layer="2448" from-port="1" to-layer="2452" to-port="1"/>
		<edge from-layer="2449" from-port="1" to-layer="2452" to-port="2"/>
		<edge from-layer="2450" from-port="1" to-layer="2452" to-port="3"/>
		<edge from-layer="2451" from-port="1" to-layer="2452" to-port="4"/>
		<edge from-layer="2453" from-port="1" to-layer="2454" to-port="0"/>
		<edge from-layer="2454" from-port="1" to-layer="2459" to-port="0"/>
		<edge from-layer="2455" from-port="1" to-layer="2459" to-port="1"/>
		<edge from-layer="2456" from-port="1" to-layer="2459" to-port="2"/>
		<edge from-layer="2457" from-port="1" to-layer="2459" to-port="3"/>
		<edge from-layer="2458" from-port="1" to-layer="2459" to-port="4"/>
		<edge from-layer="851" from-port="5" to-layer="2460" to-port="0"/>
		<edge from-layer="2459" from-port="5" to-layer="2460" to-port="1"/>
		<edge from-layer="2460" from-port="2" to-layer="2462" to-port="0"/>
		<edge from-layer="2461" from-port="1" to-layer="2462" to-port="1"/>
		<edge from-layer="2462" from-port="2" to-layer="2463" to-port="0"/>
		<edge from-layer="2463" from-port="1" to-layer="2468" to-port="0"/>
		<edge from-layer="2464" from-port="1" to-layer="2468" to-port="1"/>
		<edge from-layer="2465" from-port="1" to-layer="2468" to-port="2"/>
		<edge from-layer="2466" from-port="1" to-layer="2468" to-port="3"/>
		<edge from-layer="2467" from-port="1" to-layer="2468" to-port="4"/>
		<edge from-layer="2452" from-port="5" to-layer="2469" to-port="0"/>
		<edge from-layer="2468" from-port="5" to-layer="2469" to-port="1"/>
		<edge from-layer="2469" from-port="2" to-layer="2474" to-port="0"/>
		<edge from-layer="2470" from-port="1" to-layer="2474" to-port="1"/>
		<edge from-layer="2471" from-port="1" to-layer="2474" to-port="2"/>
		<edge from-layer="2472" from-port="1" to-layer="2474" to-port="3"/>
		<edge from-layer="2473" from-port="1" to-layer="2474" to-port="4"/>
		<edge from-layer="2475" from-port="1" to-layer="2476" to-port="0"/>
		<edge from-layer="2476" from-port="1" to-layer="2481" to-port="0"/>
		<edge from-layer="2477" from-port="1" to-layer="2481" to-port="1"/>
		<edge from-layer="2478" from-port="1" to-layer="2481" to-port="2"/>
		<edge from-layer="2479" from-port="1" to-layer="2481" to-port="3"/>
		<edge from-layer="2480" from-port="1" to-layer="2481" to-port="4"/>
		<edge from-layer="2474" from-port="5" to-layer="2482" to-port="0"/>
		<edge from-layer="2481" from-port="5" to-layer="2482" to-port="1"/>
		<edge from-layer="2482" from-port="2" to-layer="2484" to-port="0"/>
		<edge from-layer="2483" from-port="1" to-layer="2484" to-port="1"/>
		<edge from-layer="2484" from-port="2" to-layer="2485" to-port="0"/>
		<edge from-layer="2485" from-port="1" to-layer="2490" to-port="0"/>
		<edge from-layer="2486" from-port="1" to-layer="2490" to-port="1"/>
		<edge from-layer="2487" from-port="1" to-layer="2490" to-port="2"/>
		<edge from-layer="2488" from-port="1" to-layer="2490" to-port="3"/>
		<edge from-layer="2489" from-port="1" to-layer="2490" to-port="4"/>
		<edge from-layer="2490" from-port="5" to-layer="2492" to-port="0"/>
		<edge from-layer="2491" from-port="1" to-layer="2492" to-port="1"/>
		<edge from-layer="2492" from-port="2" to-layer="2497" to-port="0"/>
		<edge from-layer="2493" from-port="1" to-layer="2497" to-port="1"/>
		<edge from-layer="2494" from-port="1" to-layer="2497" to-port="2"/>
		<edge from-layer="2495" from-port="1" to-layer="2497" to-port="3"/>
		<edge from-layer="2496" from-port="1" to-layer="2497" to-port="4"/>
		<edge from-layer="2498" from-port="1" to-layer="2499" to-port="0"/>
		<edge from-layer="2499" from-port="1" to-layer="2504" to-port="0"/>
		<edge from-layer="2500" from-port="1" to-layer="2504" to-port="1"/>
		<edge from-layer="2501" from-port="1" to-layer="2504" to-port="2"/>
		<edge from-layer="2502" from-port="1" to-layer="2504" to-port="3"/>
		<edge from-layer="2503" from-port="1" to-layer="2504" to-port="4"/>
		<edge from-layer="331" from-port="5" to-layer="2505" to-port="0"/>
		<edge from-layer="2504" from-port="5" to-layer="2505" to-port="1"/>
		<edge from-layer="2505" from-port="2" to-layer="2507" to-port="0"/>
		<edge from-layer="2506" from-port="1" to-layer="2507" to-port="1"/>
		<edge from-layer="2507" from-port="2" to-layer="2508" to-port="0"/>
		<edge from-layer="2508" from-port="1" to-layer="2513" to-port="0"/>
		<edge from-layer="2509" from-port="1" to-layer="2513" to-port="1"/>
		<edge from-layer="2510" from-port="1" to-layer="2513" to-port="2"/>
		<edge from-layer="2511" from-port="1" to-layer="2513" to-port="3"/>
		<edge from-layer="2512" from-port="1" to-layer="2513" to-port="4"/>
		<edge from-layer="2497" from-port="5" to-layer="2514" to-port="0"/>
		<edge from-layer="2513" from-port="5" to-layer="2514" to-port="1"/>
		<edge from-layer="2514" from-port="2" to-layer="2519" to-port="0"/>
		<edge from-layer="2515" from-port="1" to-layer="2519" to-port="1"/>
		<edge from-layer="2516" from-port="1" to-layer="2519" to-port="2"/>
		<edge from-layer="2517" from-port="1" to-layer="2519" to-port="3"/>
		<edge from-layer="2518" from-port="1" to-layer="2519" to-port="4"/>
		<edge from-layer="2520" from-port="1" to-layer="2521" to-port="0"/>
		<edge from-layer="2521" from-port="1" to-layer="2526" to-port="0"/>
		<edge from-layer="2522" from-port="1" to-layer="2526" to-port="1"/>
		<edge from-layer="2523" from-port="1" to-layer="2526" to-port="2"/>
		<edge from-layer="2524" from-port="1" to-layer="2526" to-port="3"/>
		<edge from-layer="2525" from-port="1" to-layer="2526" to-port="4"/>
		<edge from-layer="2519" from-port="5" to-layer="2527" to-port="0"/>
		<edge from-layer="2526" from-port="5" to-layer="2527" to-port="1"/>
		<edge from-layer="2527" from-port="2" to-layer="2529" to-port="0"/>
		<edge from-layer="2528" from-port="1" to-layer="2529" to-port="1"/>
		<edge from-layer="2529" from-port="2" to-layer="2530" to-port="0"/>
		<edge from-layer="2530" from-port="1" to-layer="2535" to-port="0"/>
		<edge from-layer="2531" from-port="1" to-layer="2535" to-port="1"/>
		<edge from-layer="2532" from-port="1" to-layer="2535" to-port="2"/>
		<edge from-layer="2533" from-port="1" to-layer="2535" to-port="3"/>
		<edge from-layer="2534" from-port="1" to-layer="2535" to-port="4"/>
		<edge from-layer="2536" from-port="1" to-layer="2537" to-port="0"/>
		<edge from-layer="2537" from-port="1" to-layer="2542" to-port="0"/>
		<edge from-layer="2538" from-port="1" to-layer="2542" to-port="1"/>
		<edge from-layer="2539" from-port="1" to-layer="2542" to-port="2"/>
		<edge from-layer="2540" from-port="1" to-layer="2542" to-port="3"/>
		<edge from-layer="2541" from-port="1" to-layer="2542" to-port="4"/>
		<edge from-layer="2542" from-port="5" to-layer="2544" to-port="0"/>
		<edge from-layer="2543" from-port="1" to-layer="2544" to-port="1"/>
		<edge from-layer="2535" from-port="5" to-layer="2545" to-port="0"/>
		<edge from-layer="2544" from-port="2" to-layer="2545" to-port="1"/>
		<edge from-layer="2545" from-port="2" to-layer="2547" to-port="0"/>
		<edge from-layer="2546" from-port="1" to-layer="2547" to-port="1"/>
		<edge from-layer="2547" from-port="2" to-layer="2548" to-port="0"/>
		<edge from-layer="2548" from-port="1" to-layer="2553" to-port="0"/>
		<edge from-layer="2549" from-port="1" to-layer="2553" to-port="1"/>
		<edge from-layer="2550" from-port="1" to-layer="2553" to-port="2"/>
		<edge from-layer="2551" from-port="1" to-layer="2553" to-port="3"/>
		<edge from-layer="2552" from-port="1" to-layer="2553" to-port="4"/>
		<edge from-layer="2554" from-port="1" to-layer="2555" to-port="0"/>
		<edge from-layer="2555" from-port="1" to-layer="2560" to-port="0"/>
		<edge from-layer="2556" from-port="1" to-layer="2560" to-port="1"/>
		<edge from-layer="2557" from-port="1" to-layer="2560" to-port="2"/>
		<edge from-layer="2558" from-port="1" to-layer="2560" to-port="3"/>
		<edge from-layer="2559" from-port="1" to-layer="2560" to-port="4"/>
		<edge from-layer="2553" from-port="5" to-layer="2561" to-port="0"/>
		<edge from-layer="2560" from-port="5" to-layer="2561" to-port="1"/>
		<edge from-layer="2561" from-port="2" to-layer="2563" to-port="0"/>
		<edge from-layer="2562" from-port="1" to-layer="2563" to-port="1"/>
		<edge from-layer="2563" from-port="2" to-layer="2568" to-port="0"/>
		<edge from-layer="2564" from-port="1" to-layer="2568" to-port="1"/>
		<edge from-layer="2565" from-port="1" to-layer="2568" to-port="2"/>
		<edge from-layer="2566" from-port="1" to-layer="2568" to-port="3"/>
		<edge from-layer="2567" from-port="1" to-layer="2568" to-port="4"/>
		<edge from-layer="2568" from-port="5" to-layer="2570" to-port="0"/>
		<edge from-layer="2569" from-port="1" to-layer="2570" to-port="1"/>
		<edge from-layer="2570" from-port="2" to-layer="2571" to-port="0"/>
		<edge from-layer="2571" from-port="1" to-layer="2572" to-port="0"/>
	</edges>
	<meta_data>
		<MO_version value="unknown version"/>
		<cli_parameters>
			<blobs_as_inputs value="True"/>
			<caffe_parser_path value="DIR"/>
			<data_type value="FP16"/>
			<disable_nhwc_to_nchw value="False"/>
			<disable_omitting_optional value="False"/>
			<disable_resnet_optimization value="False"/>
			<disable_weights_compression value="False"/>
			<enable_concat_optimization value="False"/>
			<enable_flattening_nested_params value="False"/>
			<enable_ssd_gluoncv value="False"/>
			<extensions value="DIR"/>
			<framework value="caffe"/>
			<freeze_placeholder_with_value value="{}"/>
			<generate_deprecated_IR_V2 value="False"/>
			<generate_deprecated_IR_V7 value="False"/>
			<generate_experimental_IR_V10 value="True"/>
			<input value="data"/>
			<input_model value="DIR/model.caffemodel"/>
			<input_model_is_text value="False"/>
			<input_proto value="DIR/model.prototxt"/>
			<input_shape value="[1,3,512,896]"/>
			<k value="DIR/CustomLayersMapping.xml"/>
			<keep_quantize_ops_in_IR value="True"/>
			<keep_shape_ops value="False"/>
			<legacy_mxnet_model value="False"/>
			<log_level value="ERROR"/>
			<mean_scale_values value="{}"/>
			<mean_values value="()"/>
			<model_name value="road-segmentation-adas-0001"/>
			<move_to_preprocess value="False"/>
			<output value="['L0317_ReWeight_SoftMax']"/>
			<output_dir value="DIR"/>
			<placeholder_data_types value="{}"/>
			<placeholder_shapes value="{'data': array([  1,   3, 512, 896])}"/>
			<progress value="False"/>
			<remove_memory value="False"/>
			<remove_output_softmax value="False"/>
			<reverse_input_channels value="False"/>
			<save_params_from_nd value="False"/>
			<scale_values value="()"/>
			<silent value="False"/>
			<stream_output value="False"/>
			<unset unset_cli_parameters="batch, counts, disable_fusing, disable_gfusing, finegrain_fusing, input_checkpoint, input_meta_graph, input_symbol, mean_file, mean_file_offsets, nd_prefix_name, pretrained_model_name, saved_model_dir, saved_model_tags, scale, tensorboard_logdir, tensorflow_custom_layer_libraries, tensorflow_custom_operations_config_update, tensorflow_object_detection_api_pipeline_config, tensorflow_use_custom_operations_config, transformations_config"/>
		</cli_parameters>
	</meta_data>
	<quantization_parameters>
		<config>{
		'compression': {
			'algorithms': [
				{
					'name': 'DefaultQuantization',
					'params': {
						'preset': 'performance',
						'stat_subset_size': 300
					}
				}
			],
			'target_device': 'CPU'
		},
		'engine': {
			'models': [
				{
					'name': 'road-segmentation-adas-0001',
					'launchers': [
						{
							'framework': 'dlsdk',
							'tags': [
								'FP32'
							],
							'model': 'PATH',
							'weights': 'PATH',
							'adapter': 'segmentation',
							'device': 'CPU'
						}
					],
					'datasets': [
						{
							'name': 'road_segmentation',
							'data_source': 'PATH',
							'segmentation_masks_source': 'PATH',
							'annotation_conversion': {
								'converter': 'mighty',
								'annotation_file': 'PATH'
							},
							'annotation': 'mighty.pickle',
							'dataset_meta': 'mighty.json',
							'preprocessing': [
								{
									'type': 'resize',
									'dst_height': 512,
									'dst_width': 896
								}
							],
							'postprocessing': [
								{
									'type': 'resize_segmentation_mask',
									'apply_to': 'annotation',
									'dst_height': 512,
									'dst_width': 896
								}
							],
							'metrics': [
								{
									'type': 'mean_iou',
									'presenter': 'print_vector'
								},
								{
									'type': 'mean_accuracy',
									'presenter': 'print_vector'
								}
							]
						}
					]
				},
				{
					'name': 'road-segmentation-adas-0001',
					'launchers': [
						{
							'framework': 'dlsdk',
							'tags': [
								'FP16'
							],
							'model': 'PATH',
							'weights': 'PATH',
							'adapter': 'segmentation',
							'device': 'CPU'
						}
					],
					'datasets': [
						{
							'name': 'road_segmentation',
							'data_source': 'PATH',
							'segmentation_masks_source': 'PATH',
							'annotation_conversion': {
								'converter': 'mighty',
								'annotation_file': 'PATH'
							},
							'annotation': 'mighty.pickle',
							'dataset_meta': 'mighty.json',
							'preprocessing': [
								{
									'type': 'resize',
									'dst_height': 512,
									'dst_width': 896
								}
							],
							'postprocessing': [
								{
									'type': 'resize_segmentation_mask',
									'apply_to': 'annotation',
									'dst_height': 512,
									'dst_width': 896
								}
							],
							'metrics': [
								{
									'type': 'mean_iou',
									'presenter': 'print_vector'
								},
								{
									'type': 'mean_accuracy',
									'presenter': 'print_vector'
								}
							]
						}
					]
				},
				{
					'name': 'road-segmentation-adas-0001',
					'launchers': [
						{
							'framework': 'dlsdk',
							'tags': [
								'FP16-INT8'
							],
							'model': 'PATH',
							'weights': 'PATH',
							'adapter': 'segmentation',
							'device': 'CPU'
						}
					],
					'datasets': [
						{
							'name': 'road_segmentation',
							'data_source': 'PATH',
							'segmentation_masks_source': 'PATH',
							'annotation_conversion': {
								'converter': 'mighty',
								'annotation_file': 'PATH'
							},
							'annotation': 'mighty.pickle',
							'dataset_meta': 'mighty.json',
							'preprocessing': [
								{
									'type': 'resize',
									'dst_height': 512,
									'dst_width': 896
								}
							],
							'postprocessing': [
								{
									'type': 'resize_segmentation_mask',
									'apply_to': 'annotation',
									'dst_height': 512,
									'dst_width': 896
								}
							],
							'metrics': [
								{
									'type': 'mean_iou',
									'presenter': 'print_vector'
								},
								{
									'type': 'mean_accuracy',
									'presenter': 'print_vector'
								}
							]
						}
					]
				}
			],
			'global_definitions': '../dataset_definitions.yml',
			'stat_requests_number': null,
			'eval_requests_number': null,
			'type': 'accuracy_checker'
		}
	}</config>
		<version value="1.0"/>
		<cli_params value="{'evaluate': False, 'output_dir': 'PATH', 'direct_dump': True, 'log_level': 'INFO', 'pbar': False, 'keep_uncompressed_weights': False}"/>
	</quantization_parameters>
</net>
